save/sample_generator.pt (torch_old, 183992 bytes, 26 tensors)

encoder1.conv.weight f4 [16, 2, 3]
000000 46 d6 85 be 67 fc f7 bd 57 27 ca be 49 be 40 3e
       -0.2614004 -0.12108689 -0.3948314 0.18822588
000010 fb f9 d6 3d 33 b6 03 3e 2d 3d 1f 3e c2 eb f2 bc
       0.10496899 0.12862472 0.1555068 -0.029653434
000020 6e da 4c be 80 fd be 3e 65 23 a7 bc 55 2a d1 be
       -0.200052 0.3730278 -0.02040262 -0.4085261
000030 bc c7 52 3e 29 72 76 bd 3c 10 ab be 72 cc c5 3e
       0.20584005 -0.060167465 -0.33410823 0.38632542
000040 54 42 2c 3e 50 77 05 be 65 11 d8 3e b1 aa b9 3d
       0.16822177 -0.13033795 0.4220077 0.0906576
000050 7b 87 0a 3e c6 66 bf 3e 86 cb 02 3c bf 1c 53 3e
       0.13528244 0.37383097 0.007983094 0.20616435
000060 99 60 ae 3e 58 eb 91 3e fb b5 e3 3e 1c e1 9a 3c
       0.34058073 0.28499866 0.44474778 0.018906169
000070 5d 74 53 3d f9 2c 10 3d a8 2d de 3d 91 75 2c be
       0.051624645 0.03519914 0.10848552 -0.16841723
000080 08 3e 94 3e 7d 20 52 3e cb 29 53 be d2 fa 2d 3e
       0.28953576 0.20520206 -0.20621412 0.16990212
000090 08 a0 4a 3d 85 a2 46 be 37 90 a0 be 03 07 27 be
       0.049469024 -0.19397934 -0.31360027 -0.16311269
0000a0 94 86 bd bc ee 67 b4 3e 30 ab b4 be ca 23 04 3e
       -0.02313546 0.35235542 -0.35286856 0.12904277
0000b0 36 17 7e be 10 98 33 be d9 e5 b5 3d c0 ec 4c bd
       -0.24813542 -0.17538476 0.088817306 -0.05003047
0000c0 b0 61 16 be f4 60 3b bd c7 59 42 bd d5 dc c5 3e
       -0.14685702 -0.04574676 -0.0474489 0.38645044
0000d0 17 6f cd be 14 93 95 3e ec 8d 1a be 32 c3 0d bd
       -0.40123817 0.29213774 -0.15093201 -0.03460998
0000e0 bc 80 ba be d4 5c d2 bd da 4e 06 3e b1 3c 72 3e
       -0.36426342 -0.10271612 0.13116017 0.23655964
0000f0 47 a5 a8 be a8 de b1 bd 71 90 45 be fc 42 7e 3e
       -0.32938597 -0.086850464 -0.19293381 0.2483024
000100 03 62 a5 be 5f 1d e4 bd f3 cd d1 b9 ac 20 b5 bd
       -0.3230134 -0.111384146 -0.0004001703 -0.08844122
000110 19 a8 e4 3d d4 5b 07 3e ff d8 b7 be 52 0c d8 be
       0.111648746 0.13218623 -0.35907742 -0.421969
000120 91 d7 c4 be 07 31 38 3e 32 46 64 3e 5a 5e 72 3e
       -0.38445714 0.17987452 0.22292402 0.23668805
000130 c0 a4 c6 3e b6 17 82 be c6 d4 cb be 7f 1c bd 3e
       0.3879757 -0.25408715 -0.3981077 0.36935803
000140 72 96 71 be bd 2f b2 3e d0 60 c6 3e 09 cc e6 bc
       -0.23592547 0.34802046 0.38745737 -0.028173463
000150 d6 7c ce 3e b5 c3 9f 3d 38 e6 36 3d 9b 8d 86 3e
       0.40329617 0.07801 0.044653147 0.2627991
000160 23 31 ae 3e c2 00 fe 3d 82 33 90 be 5e 72 40 be
       0.34021863 0.12402488 -0.28164297 -0.18793628
000170 c4 cb a8 3d 95 76 91 3e d1 39 32 bd b5 e3 5d 3d
       0.0824199 0.28410783 -0.04351217 0.054172236

encoder1.conv.bias f4 [16]
000000 65 4e ca 3e b7 3d 99 3d c2 72 d2 3d 65 79 0c be
       0.39512935 0.07482474 0.102757946 -0.13718183
000010 72 b6 9f 3d d7 76 18 be 06 5b 89 be 1c 30 ee bc
       0.077984706 -0.14889084 -0.26827258 -0.029075675
000020 68 51 91 be 7d b3 10 be 4f d7 53 bc ed 18 9d bd
       -0.2838242 -0.1413097 -0.012929752 -0.0767077
000030 c7 58 8c 3e 37 7e b6 3e a6 52 88 be 30 89 05 be
       0.27411482 0.3564317 -0.26625556 -0.13040614

encoder1.gru.weight_ih_l0 f4 [144, 16]
000000 fc 1b 7a 3d b3 46 39 3d f9 f6 de bd e7 3f 21 bd
       0.061061844 0.04523344 -0.1088695 -0.039367583
000010 72 f6 ed bd bc 22 a6 bc 4c d2 fe 3d 84 7a e2 bd
       -0.11619271 -0.020280235 0.12442455 -0.11058524
000020 1f 9b aa bd 8e 40 69 bd 19 bd 77 bd 77 87 dc 3d
       -0.08330368 -0.05694633 -0.060483072 0.10768025
000030 53 a0 96 3b 08 68 99 3d e2 a6 75 bb d0 35 db bd
       0.004596749 0.074905455 -0.0037483503 -0.10703623
000040 80 98 12 bd b6 8a bf 3d cd f6 44 bc c0 d9 c8 bd
       -0.035789967 0.09352629 -0.0120217325 -0.098071575
000050 75 ec 22 3e b7 5d 68 bb b4 66 10 3d 57 b2 eb bd
       0.15910514 -0.003545625 0.035254195 -0.11508625
000060 7e ff e5 bd 6d 5a 5c 3d db 48 99 bd 0c c5 85 3d
       -0.11230372 0.053797174 -0.07484599 0.06531724
000070 ac 33 d9 3d c2 29 e5 3d ce 2a a6 3d 44 41 b9 3d
       0.10605559 0.11189605 0.08113633 0.090456516
000080 da ce de bc 74 9a 4b bd 62 5b ab bc be 39 df bc
       -0.027198244 -0.049707845 -0.020917598 -0.027249213
000090 f6 b1 c0 bc 23 71 db 3d 01 07 86 3d 92 de b5 bd
       -0.023522358 0.107149385 0.06544305 -0.088803425
0000a0 c3 8e 4c 3d 62 72 36 bd 56 ce 9d bb a0 f4 08 bd
       0.049940836 -0.044542678 -0.004815857 -0.033436418
0000b0 cb 17 96 bd 92 db fc bd fe c9 58 3d e6 00 3b 3d
       -0.07328757 -0.12346567 0.05292701 0.045655154
0000c0 33 0a fe 3d 66 f6 fc 3d 9d 7c ae 3d f3 9c 36 bd
       0.12404289 0.12351684 0.08519862 -0.044583272
0000d0 21 2e fa 3c be bc 2c 3c 9a 84 5f bd 14 0f f1 3d
       0.030539574 0.0105430465 -0.054569818 0.11770454
0000e0 ea f3 b0 3c e9 67 b5 bc 25 c4 b9 39 04 78 78 3d
       0.021600682 -0.022144275 0.0003543209 0.06066133
0000f0 24 e2 9e 3d 7a 1e 70 bd ef 41 af bd cc 97 f3 3d
       0.07757977 -0.058622815 -0.08557498 0.11894187
000100 12 33 1f bc eb d3 82 bd fb 84 c3 3c 6e 05 06 bc
       -0.009716766 -0.063880764 0.023867121 -0.0081800055
000110 90 62 6c 3d 8d 67 92 3d af c6 01 be 4c 4c ae bc
       0.057711184 0.07148657 -0.12673448 -0.021276616
000120 c5 c8 0e be 50 df e4 bb ed 94 5e bd c5 a8 66 3d
       -0.13943775 -0.0069846287 -0.054341245 0.056313295
000130 11 f0 14 3e 6f fd 8a 3a b2 07 27 3d 3f e7 47 bd
       0.14544703 0.0010604094 0.040778823 -0.048804518
000140 7d 46 ea 3d 87 57 30 bd 2b c2 81 bd db c0 fc bd
       0.11439226 -0.043052223 -0.06335863 -0.12341472
000150 d3 5a 6b bc 6a 90 1f bd 18 59 f0 bd 94 b0 0d 3e
       -0.014364916 -0.038956083 -0.11735743 0.1383689
000160 63 3a cc bb 32 39 bb bd ad 96 a7 bd 95 a3 80 bd
       -0.006232546 -0.091417685 -0.08183036 -0.06281201
000170 54 5f 20 bd 72 9c 39 bd 4e da ac bd c9 e7 c2 3b
       -0.039153412 -0.045315214 -0.08440076 0.005948041
000180 b8 2d 0e 3d 9c 86 10 3d 0f 4b ae bd 9b 7e ac 3d
       0.03471157 0.035284624 -0.0851041 0.084225856
000190 cd b3 9c 3d a9 60 a2 3c 8c f2 d2 bd b6 03 1f bd
       0.07651482 0.019821482 -0.103001684 -0.0388219
0001a0 1d bd 21 3e 57 33 48 3d d9 6c c7 3a 52 09 f2 bd
       0.15794797 0.048877086 0.0015214934 -0.11818184
0001b0 1c 57 f9 3d da d7 89 3c f7 75 00 3d 01 b1 19 3e
       0.12174818 0.016826559 0.0313625 0.15008928
0001c0 a7 82 f0 3d a9 8a a8 3d ac c6 0c 3e fb 89 64 3d
       0.1174367 0.08229572 0.13747662 0.05579565
0001d0 a5 54 83 3c ca c8 0b 3c f3 db b9 bd 9d 75 bb 3c
       0.016031573 0.008531759 -0.09075155 0.02288323
0001e0 8d c7 cc bc 43 c3 c1 bd 93 9d 8d 3d 83 b3 f1 3d
       -0.024997497 -0.09461071 0.069148205 0.11801817
0001f0 70 a6 a7 bd 98 4e aa bd 73 c6 05 3e 00 0b a0 3d
       -0.08186042 -0.08315772 0.13063984 0.07814598
000200 a8 d1 e0 bd b9 41 31 3d b7 88 02 3e 95 5d eb bd
       -0.10977489 0.04327557 0.12747465 -0.11492459
000210 6b 25 f1 3d 1b 03 d2 bd b2 32 e0 bd bf 4a c4 bd
       0.11774715 -0.102544986 -0.10947169 -0.09584569
000220 a4 16 4d 3c 7a f6 6d bd ae 13 82 bd 6e 33 e4 3b
       0.012517605 -0.058096386 -0.0635141 0.0069641387
000230 5c 87 8e 3d b2 a4 2a bd e0 93 bb 3d 22 9d 0e be
       0.069594115 -0.041660972 0.09159064 -0.13927129
000240 d6 41 1c 3e eb 7c 14 3e 4c 46 60 bc cb eb 21 bd
       0.1525949 0.14500777 -0.013688635 -0.03953151
000250 f4 0d 7a 3d ff 9c f9 3d c8 64 c6 bc 28 2a 20 3e
       0.061048463 0.12188148 -0.024217978 0.15641081
000260 8a 31 66 bd d8 bf 07 3e 27 ad 0c 3e 7a 94 12 3e
       -0.056199588 0.13256776 0.13737927 0.14314452
000270 0e 3a 09 be f3 61 45 3d 03 4e 1f be 1c 50 cb 3b
       -0.13401052 0.048189115 -0.15557103 0.006204618
000280 4b 7f 10 3e 89 3d 16 be 75 0b da bd a0 a7 ad 3d
       0.14111058 -0.14671911 -0.106467165 0.084792376
000290 37 98 8b bd 18 d3 a7 bd 79 fc a4 bd 1f e8 0a 3e
       -0.06816142 -0.0819456 -0.08055968 0.1356511
0002a0 64 2f 8f bd 72 15 0a 3e de 39 6d bc 15 92 07 ba
       -0.06991461 0.13484743 -0.014479129 -0.0005171609
0002b0 ba 8c 12 bd cc 3e 53 bd 28 eb 0d bd 36 4f fc bd
       -0.03577874 -0.05157356 -0.03464809 -0.12319796
0002c0 b1 ca ee 3d f4 a1 00 3e 3b 87 97 bd 3d d1 3b bc
       0.11659754 0.1256178 -0.0739884 -0.0114634605
0002d0 27 3e 65 3d fe da 11 3e 22 38 38 3e af 14 34 bd
       0.055967476 0.14243695 0.17990163 -0.043965038
0002e0 c1 ac 88 bc 70 4d eb 3d aa 44 5c 3c 15 f1 f6 3d
       -0.016683938 0.114893794 0.013444105 0.120577015
0002f0 26 be 11 3e 8c bf 9c 3d 40 30 c4 bd 44 64 58 bd
       0.14232692 0.07653722 -0.095795155 -0.052829996
000300 43 20 99 bd 03 02 88 bd 5e c7 a8 3d 5c 60 10 3e
       -0.074768566 -0.06641009 0.08241151 0.14099258
000310 a1 fc f9 3d 51 bf 7b 3d 9f 18 96 3d 52 c1 f5 3c
       0.12206388 0.06146175 0.07328915 0.029999409
000320 7c c8 6b 3c 3f 46 eb bd 46 08 11 3e 71 56 fd 3d
       0.014391061 -0.11488008 0.14163312 0.12370003
000330 b6 9f bb bb 2e a1 9f 3d e1 37 80 3d 26 5d fa bd
       -0.005725826 0.077944145 0.06260658 -0.12224798
000340 33 ab e4 bd ba fe 8d 3d 74 06 1b be cc 67 36 3c
       -0.11165466 0.06933351 -0.1513918 0.011133146
000350 db b5 6c bd 07 2c a7 bd 98 ec 8e bd 02 96 8c bd
       -0.05779062 -0.081626944 -0.069787204 -0.06864549
000360 3f 79 e2 3c d0 b0 b4 bd 54 37 4b 3d ea ba 90 3d
       0.027645705 -0.08822787 0.049613312 0.07066901
000370 8c 47 09 be 1b 1e d4 3d a2 f1 e8 bd 9c 5c 1e 3c
       -0.13406199 0.10357305 -0.11374213 0.0096656345
000380 e8 95 88 3d 4e 46 08 be 37 bf 5e bd e9 59 a5 3d
       0.06669217 -0.13308069 -0.054381575 0.080737896
000390 04 4e 22 bd 8c de e6 bd 4d 18 9b 3c 1a 06 08 3e
       -0.039625183 -0.11272916 0.018932486 0.13283578
0003a0 77 98 e7 bd 26 66 ab 3d 6f 80 dd 3d bb 18 ad bd
       -0.11308377 0.08369093 0.108155124 -0.084519826
0003b0 92 32 0c 3e 8f 0d 93 bd d7 78 a1 3d 4a 41 0e 3e
       0.13691166 -0.071803205 0.078843765 0.13892093
0003c0 9a f9 e2 bd 3b a8 26 3e 8b 8e e9 3c 97 fc c2 bd
       -0.11082764 0.16275112 0.028510353 -0.09520834
0003d0 6f 59 1b 3d 20 fc db bd 8d 96 5a bb 72 53 bb 3d
       0.037927087 -0.107414484 -0.0033353895 0.09146775
0003e0 27 db ed 3d e2 95 f1 3d be f1 0e 3d 04 67 92 3d
       0.116140656 0.11796166 0.034898512 0.07148555
0003f0 4d 73 c3 3c aa a9 ab bd e2 72 70 3c 47 c4 31 bd
       0.02385869 -0.0838197 0.014675828 -0.043400075

encoder1.gru.weight_hh_l0 f4 [144, 48]
000000 a5 0a 00 3e 88 d3 f0 bd 40 ba af 3d bc 63 f9 3d
       0.1250406 -0.117590964 0.08580446 0.12177226
000010 15 b4 aa 3d 9c 70 ec 3d 18 38 99 bd 82 1e e8 3d
       0.08335129 0.11544916 -0.07481402 0.11333944
000020 4b 65 59 bd bc c4 1a 3e ec d4 09 bc 85 89 6c bd
       -0.053075116 0.1511411 -0.008412581 -0.057748336
000030 d3 c0 cd bc 71 0a 0b 3e 61 b7 85 bd 37 01 66 bd
       -0.02511636 0.13578202 -0.065291174 -0.056153502
000040 bb a6 d3 3d 41 bf c9 bc 67 9c e1 bd 62 12 fd bd
       0.10334536 -0.02462733 -0.110161595 -0.12357022
000050 89 92 a6 3d e6 31 ec bd f8 29 fc 3d 4a 29 a5 bd
       0.08133418 -0.11532955 0.123126924 -0.08064516
000060 d0 fe bf bc e4 1f b9 bc c5 a0 2a 3c ec 57 b7 bc
       -0.023436934 -0.022598214 0.010414307 -0.022380792
000070 65 30 86 bc 9a e7 e8 3c 6e 68 1c be ee 63 3e bd
       -0.016380498 0.028430749 -0.15274212 -0.04648202
000080 b6 25 e8 bd f6 1d 72 bd 09 03 5d 3c 39 e6 20 bd
       -0.11335318 -0.059110604 0.013489493 -0.039282057
000090 6e d7 d1 bd 67 b7 a4 bd a8 ff d6 bd 7d e9 9e bd
       -0.10246168 -0.08042794 -0.10497981 -0.07759378
0000a0 15 75 14 bd d9 c1 08 3e 0f 76 b4 bd a4 73 b0 bd
       -0.03624447 0.13355197 -0.088115804 -0.08615807
0000b0 98 ce db bd 36 dd 8c 3b a2 28 b1 bd bb 24 b6 bd
       -0.10732764 0.0042988313 -0.08650328 -0.088937245
0000c0 1c 15 71 3d 7a 5d fa 3d b8 41 ac bd e0 52 13 bd
       0.058858022 0.122248605 -0.08410972 -0.035967708
0000d0 82 45 13 bd 65 4d 66 bd 7d a4 06 3e 30 e8 9e bd
       -0.03595496 -0.056226153 0.13148685 -0.0775913
0000e0 f0 6c 08 be 93 f1 d8 bc dc 6e d2 bd e4 dc 2a bd
       -0.13322806 -0.026482379 -0.10275051 -0.041714564
0000f0 49 2a 87 3d ea 33 0d be 3e 65 0c 3e a8 33 16 be
       0.06599862 -0.13789335 0.13710496 -0.14668143
000100 4c 0c 43 3d 3b d1 82 bd 73 c3 0a be 1a c3 7b 3d
       0.04761915 -0.06387564 -0.1355112 0.06146536
000110 ae bd 0e be 4d 11 ef 3d cf 38 c8 bd 77 e7 9a bc
       -0.13939545 0.11673222 -0.097764604 -0.0189092
000120 69 6c 0f 3e ef 76 be 3d f2 8b d9 3d 2a 23 0b be
       0.14006199 0.093000285 0.106223956 -0.13587633
000130 78 04 d0 3c 4f c1 65 3c 81 bb 5a 3c 3d 0e 0c bd
       0.025392756 0.014023139 0.0133503685 -0.034193266
000140 b3 2d ad bd 5d 18 c5 3d dd b3 2a bd 25 16 62 bd
       -0.08455982 0.096237876 -0.041675437 -0.0551969
000150 78 ac fa 3d 6c bf 42 3d bc 06 60 3d d6 9a a7 bd
       0.12239927 0.047545835 0.054693922 -0.081838295
000160 8c 90 9f bd 80 44 0f be 92 a8 2b bd 09 12 ab 3d
       -0.07791242 -0.13990974 -0.041908808 0.08353049
000170 23 b3 da bd e7 c8 4f bd 83 e3 e4 3d 1c a0 72 3c
       -0.10678699 -0.050728705 0.11176207 0.014808681
000180 53 85 1d 3e 35 27 1c 3e f9 3a c9 bd c8 4b 03 bd
       0.1538289 0.15249331 -0.09825701 -0.032054693
000190 82 76 1b bd e5 52 17 bc aa 66 da bd f6 13 2a bc
       -0.037954815 -0.009236072 -0.10664113 -0.010380736
0001a0 c3 d0 99 bb 09 0e cc bc 61 da f2 bd 42 73 c6 bc
       -0.004694076 -0.024909036 -0.11858059 -0.024224881
0001b0 95 0f 85 b9 9a f8 95 3c 93 c6 d1 bd 44 38 04 be
       -0.00025379346 0.018307019 -0.10242953 -0.12912089
0001c0 ec 75 b4 bc e2 be ad 3d 91 28 a8 bd c0 31 bb bd
       -0.022028886 0.08483674 -0.082108624 -0.091403484
0001d0 b5 ed 0a be 35 21 72 bc 52 b9 b4 bc 6a ba ad 3d
       -0.1356724 -0.014778425 -0.022061024 0.08482821
0001e0 d2 76 5a 3d 90 8a 6d bd d1 90 0c bd 3a de 1e bd
       0.053335972 -0.05799347 -0.034317795 -0.03878615
0001f0 36 2f 03 3e a3 4b 55 3c a5 c9 b1 3c 0f 9b e5 3d
       0.12810978 0.0130185215 0.021702597 0.11211216
000200 b7 41 03 be ee ba 17 be 91 0a d3 bd bd 9a 4f ba
       -0.12818037 -0.14817402 -0.1030475 -0.0007919481
000210 95 90 8e ba aa d8 c1 3d b7 03 1e 3d 3a a3 f7 3d
       -0.0010876829 0.094651535 0.03857776 0.1209168
000220 9d 98 df 3d 62 29 08 be 93 e4 b3 bd a0 40 42 bc
       0.109177805 -0.13297036 -0.087838314 -0.011856228
000230 9d e1 0b be d0 09 d7 bc d8 db f4 bc 73 91 13 3e
       -0.13660283 -0.026249796 -0.029889986 0.14410953
000240 5d 07 02 3e f4 2d 62 bc 86 93 03 be e7 6b 23 3e
       0.12698121 -0.013804901 -0.12849244 0.1595913
000250 a1 c8 e2 3d 16 a7 18 be d4 e4 ed bd 25 d9 aa 3d
       0.11073423 -0.14907488 -0.11615911 0.08342198
000260 48 fe ce 3d 04 4f 81 3d 7a ec 84 bc af f0 52 bc
       0.10107094 0.06313899 -0.016226042 -0.012874766
000270 e6 ab 2c bd 33 96 c0 bd a4 ae 29 3e 5e fc 02 3c
       -0.042156123 -0.09403648 0.16570526 0.007994739
000280 af cb 15 be bf 47 18 bd 1e e9 99 3d 27 32 29 be
       -0.1462848 -0.037177797 0.07515167 -0.16523038
000290 57 57 f0 bd 20 8a 61 3d f6 66 a2 bd 51 11 d5 3d
       -0.11735409 0.055063367 -0.079297945 0.104036935
0002a0 a7 30 cf bc c1 d8 81 3d 0c f2 00 3d 1f 75 8d bd
       -0.025291754 0.06340171 0.031480834 -0.06907105
0002b0 d9 82 8f bd 50 b9 c7 3d cb e1 cf 3d 06 96 75 bd
       -0.07007379 0.097521424 0.101504885 -0.059957527
0002c0 ce 98 ee bc dc 1d be 3d 47 a5 b1 bd a4 a4 66 3d
       -0.029125597 0.09283039 -0.08674102 0.056309357
0002d0 7d 9e 61 3d fe 7d 11 be 11 e1 36 3e 39 88 10 3e
       0.055082787 -0.14208218 0.17859294 0.14114465
0002e0 8a 41 ae bd e5 9f 9f 3d d2 47 35 bd 44 ad f9 bd
       -0.08508594 0.07794169 -0.044257946 -0.12191251
0002f0 9c 46 ce 3d f1 2c 59 bd 3c 8a 13 3d 55 67 e1 3d
       0.100720614 -0.053021375 0.036020502 0.11006037
000300 91 7f 9c 3d 74 eb ba bd 26 5e 3b bd f1 ec 31 3c
       0.07641519 -0.0912694 -0.045744084 0.010859714
000310 f6 a1 c5 3d 10 c9 ce bd 96 b9 19 3d fb 94 86 3d
       0.09650032 -0.100969434 0.037530504 0.065713845
000320 2e d6 fd 3d 7b e2 c5 3d e9 39 f8 3d 0d dd 8a bd
       0.12394367 0.09662338 0.121204205 -0.06780443
000330 31 cf 83 3d e9 90 66 bd 49 7c 08 3d 00 31 0e bd
       0.06436003 -0.05629054 0.033321653 -0.0347147
000340 34 d9 f3 bd 69 26 9c bd 69 b9 ca bd 2d 5f 8f bd
       -0.119066626 -0.07624514 -0.098986454 -0.07000575
000350 2f fa 57 bd c3 3f fd 3d d5 bc b5 3d 28 15 95 3c
       -0.052728828 0.12365677 0.088739075 0.018198565
000360 68 4c df bd 9b fb 10 3e f2 fc 68 bd de c9 eb 3d
       -0.10903245 0.1415848 -0.056881852 0.115131125
000370 2f d2 03 be e4 52 c6 3d c5 fb 09 3d 7c 5e 3d bd
       -0.12873147 0.09683779 0.03368737 -0.046232685
000380 4c 92 a7 bd 76 42 11 3d 57 37 19 3e 50 89 9c 3d
       -0.08182201 0.035463773 0.14962517 0.07643378
000390 20 7c 17 bd eb c1 87 3d 2c f2 96 3d 71 0e 6b 3d
       -0.03698361 0.06628784 0.07370409 0.05738682
0003a0 ac fe db bd 46 d4 dc 3d d6 c1 aa bd 9a 53 12 3e
       -0.10741934 0.107826754 -0.083377525 0.14289704
0003b0 b9 1f dc bc 46 29 08 3e eb 72 58 3d e1 fc b0 3d
       -0.026870595 0.13296995 0.05284397 0.08641983
0003c0 00 bf be bd e8 b0 0c bd c8 8e 1c be 44 43 b3 3c
       -0.09313774 -0.0343484 -0.15288842 0.02188266
0003d0 dc bb 05 3e 1f 1b 27 bd 4d 5e 51 3d 47 ab bc bc
       0.13059944 -0.04079735 0.051115323 -0.02303089
0003e0 8d 86 38 3d eb d4 0e 3e f7 89 0d be 83 c9 8a bc
       0.045050193 0.1394841 -0.1382216 -0.016941791
0003f0 ee 18 48 3d a7 36 f2 bd 02 0f 9f 3d a8 c7 84 bd
       0.0488519 -0.1182683 0.077665344 -0.06483394

encoder1.gru.bias_ih_l0 f4 [144]
000000 38 74 de 3d 4a 43 c2 3d 06 5b 33 3d 00 e5 ae bd
       0.10862011 0.094854906 0.04378798 -0.08539772
000010 49 57 44 3b 76 69 00 be 3d 0b e5 3d 1b 85 91 bd
       0.0029959253 -0.1254023 0.11183784 -0.07105466
000020 0b de 23 3d ae 2b 3e 3d 2e e3 8c bc bc 29 22 bc
       0.04000668 0.046428375 -0.017198171 -0.009897646
000030 89 65 ae bd 78 5f 1d 3e 4a b4 e5 bd ae 78 c3 bd
       -0.0851546 0.1536845 -0.11216028 -0.09544502
000040 6f 8f c9 3d c4 82 6b bc 2c 05 01 3e 75 1d f0 bd
       0.09841811 -0.014374439 0.12599629 -0.117243685
000050 d0 d9 45 bd 43 d8 00 3e 91 08 aa 3d 53 74 9f bd
       -0.048303425 0.12582497 0.08302415 -0.07785859
000060 d8 99 80 bd 2e 3f ba bd 12 24 f5 bc 44 63 87 3d
       -0.06279343 -0.09094082 -0.029924426 0.0661073
000070 01 c7 25 be 5c 18 e7 3d e5 8c bd bd fd 23 0b 3e
       -0.16189195 0.11283943 -0.09255389 0.13587947
000080 e8 19 80 bd 41 c1 ac bc 06 83 ad 3d 77 e2 04 3e
       -0.06254941 -0.021088244 0.08472256 0.12977014
000090 06 38 94 3c d7 40 72 3d 9a 3b 04 3e ba 16 0c be
       0.01809312 0.059143867 0.12913361 -0.13680544
0000a0 ac bd 00 3c 63 c4 e0 3d 46 f8 0d 3e b8 1a ff 3d
       0.007857721 0.10974958 0.1386424 0.12456268
0000b0 08 3a 0d 3d c1 34 f8 3c 6a 3e 91 bd 42 fd ff 3d
       0.03447917 0.030298593 -0.07091983 0.12499477
0000c0 41 3e 84 bd be ef 96 3d a5 c5 93 bd ef b8 f4 3b
       -0.064571865 0.07369946 -0.07215432 0.007468335
0000d0 37 ee f5 3d 95 1f 02 bc 4f 92 06 be c4 52 80 bd
       0.120083265 -0.0079421 -0.1314175 -0.06265786
0000e0 17 b7 2d 3d 80 5e 79 bd b4 44 d1 3d f3 b5 79 3c
       0.042410936 -0.060881138 0.10218182 0.015241134
0000f0 fe 2e fd 3b 29 59 e9 bd 89 92 08 bc 93 9b f6 bd
       0.007726549 -0.11393959 -0.008335718 -0.12041392
000100 e0 2e 47 bd 4d a9 e1 bd 4f ef e7 bd f7 66 2f bc
       -0.048628688 -0.1101862 -0.11324941 -0.010705701
000110 ab 4d cb bc 30 fa 05 be 89 9a 0b be 2c 4d 06 be
       -0.024817308 -0.1308372 -0.13633169 -0.13115376
000120 91 69 d7 bc 7f 2b e5 3d 19 ce b1 bd 8d c0 b5 3d
       -0.026295455 0.11189937 -0.08681888 0.08874617
000130 84 a3 f3 3d 15 27 6f 3d 4a 32 8d 3d 73 bf ab 3d
       0.118964225 0.05838688 0.068943575 0.083861254
000140 18 ad 31 be 04 61 0e be dd ec dd bd b2 fd 24 be
       -0.17351186 -0.13904196 -0.10836194 -0.16112402
000150 66 5c 09 be 21 aa b5 bc 9a c1 34 bd 9a 87 90 bd
       -0.13414153 -0.02217585 -0.044129945 -0.07057114
000160 b2 31 12 3c a5 ac 62 3d f9 07 de 3b 10 fb 76 bd
       0.008922981 0.055340428 0.0067758528 -0.060298026
000170 2a 79 80 3d 47 2d d8 bb 3d 31 f7 bd c8 3a a6 3d
       0.0627311 -0.0065971944 -0.12069938 0.081166804
000180 e7 39 f2 3d 23 f9 e9 bd b6 f2 fc 3d f2 ad cb 3b
       0.1182745 -0.11424472 0.12350981 0.0062158043
000190 ab 56 97 bb 00 58 1f be e5 3f c8 bc 22 fd f3 3c
       -0.004618486 -0.15560913 -0.02444453 0.029783789
0001a0 65 a0 ef bd 24 31 fb bd 11 02 bc bd 10 5c 95 bd
       -0.11700515 -0.12265232 -0.09180082 -0.0729295
0001b0 4b 0c 90 bc ea c3 e5 3d 84 ac b4 3c ae 43 49 bd
       -0.017583987 0.11219008 0.022054918 -0.04913681
0001c0 7f 36 e6 3d 35 dc de bd d7 ba 47 bc b5 6a ba bc
       0.11240863 -0.10881845 -0.012190542 -0.02275596
0001d0 d1 3d 9e bd 5d d8 09 3e f4 7b 9c 3d d7 10 d0 bd
       -0.07726634 0.13461442 0.0764083 -0.10159462
0001e0 d0 af db ba 3f 9b 23 be c4 2f b8 3d 32 93 52 bd
       -0.001676077 -0.1597719 0.089934856 -0.051409908
0001f0 c6 44 95 bd f4 c0 f6 3c 5e 49 b2 bd ef ab e9 bd
       -0.07288508 0.030121304 -0.087054 -0.11409747
000200 fd c2 df 3c 03 c1 e0 3d 59 de 0c bd a7 9a 2f bd
       0.027314657 0.10974314 -0.034391735 -0.042872097
000210 0e 30 e2 3c da e5 67 bc 90 f2 22 bd 25 ac f4 bd
       0.027610805 -0.014153922 -0.039782107 -0.119468965
000220 6a 6f af 3c 2a fa 6c 3d b5 49 84 bd 9a 49 38 bd
       0.021415431 0.057855763 -0.06459371 -0.044992067
000230 c2 40 de 3d bb 94 9c 3d a1 a6 ea bd 25 87 bd ba
       0.10852195 0.076455556 -0.11457563 -0.0014459832

encoder1.gru.bias_hh_l0 f4 [144]
000000 50 c4 da 3d bb 07 a9 3d 2e 2d 42 3c 14 57 a8 bd
       0.10681975 0.082534276 0.011851592 -0.08219734
000010 1d 48 d2 3d 8f 11 01 3e b8 92 d9 bd 46 9d 7d bd
       0.10267661 0.12604354 -0.106236875 -0.061917566
000020 b6 d0 c8 bd b8 11 95 bd e8 cb f0 bc e2 b8 53 bd
       -0.098054335 -0.0727877 -0.029394105 -0.05168999
000030 1c 7c 1b 3e b3 2e ad bd 4a 77 c0 3d 88 8d a4 bd
       0.15184063 -0.08456173 0.093977526 -0.080348074
000040 96 88 36 bc ea 8b ea bd 8b 55 0f be a6 a7 da 3d
       -0.011140963 -0.11452468 -0.13997476 0.10676508
000050 e8 93 a1 bd ee c2 01 3e a1 e7 7a bd ad e1 c0 bd
       -0.07889539 0.12672016 -0.061256055 -0.09418044
000060 c2 17 c0 3c 25 47 b9 3d a4 89 e3 bc b1 09 87 3d
       0.023448829 0.09046773 -0.027775593 0.06593645
000070 fc d6 a3 bd 15 90 15 bc 8a 10 46 bd 0c d3 1a bd
       -0.079999894 -0.00912859 -0.048355617 -0.037798926
000080 1d 33 91 3d fe 33 1d 3e 92 73 e4 3d 28 c0 d4 3d
       0.07089827 0.15351865 0.11154856 0.103882134
000090 0b 82 ee bd b5 92 d5 bd fe 24 08 3e f3 2e 3d bd
       -0.116458975 -0.10428373 0.13295361 -0.046187352
0000a0 c2 79 e8 bc ef cd 46 3d b4 e6 b5 bd cf da 43 3d
       -0.028378371 0.048536237 -0.08881894 0.047816094
0000b0 09 e3 fb bd f1 35 af 3d 47 e5 aa 3d 96 bc ff 3d
       -0.12299163 0.085552104 0.083445124 0.12487142
0000c0 a2 39 9d bd ac da b3 bd ab 7f 95 3d 8a 32 8c bd
       -0.07677008 -0.08781943 0.07299741 -0.06845577
0000d0 97 ed a8 bd 83 a7 b5 bb d0 ae 2c be 88 56 12 be
       -0.08248442 -0.0055436506 -0.1686356 -0.14290822
0000e0 a4 2e e1 3d 08 42 96 bd e4 71 fe bd b0 07 e8 bd
       0.10995224 -0.07336813 -0.12424067 -0.11329591
0000f0 83 78 1c bb 26 c7 1e be 27 8f 10 be 60 80 fe 3d
       -0.0023875542 -0.15505657 -0.14117108 0.12426829
000100 be b8 41 bb 8a f6 04 be 1c 7f ea bd 8f 7e a7 3d
       -0.0029559578 -0.12984672 -0.114500254 0.08178436
000110 26 a3 8a 3d 7a 4b a6 bd b4 7c dd 3b 55 12 9f 3d
       0.06769399 -0.08119865 0.0067592505 0.077671684
000120 f1 43 a2 bd bb 75 75 3d b1 aa e3 3d f9 8c 88 3d
       -0.07923115 0.05992673 0.11116541 0.066675134
000130 7d cc be bd ba c6 1d 3d c2 32 9b 3d 8f 21 dc 3d
       -0.09316347 0.0385196 0.07578041 0.10748588
000140 14 d2 d8 bd 4a 1b b3 bc da af 91 bc 7f 44 67 bd
       -0.10586944 -0.021863598 -0.017784048 -0.056461807
000150 e7 20 58 3d e1 b9 1a be 1c f9 0a bd 20 9e 11 be
       0.052765753 -0.1510997 -0.033928975 -0.14220476
000160 4a fc 19 bd 95 27 7c 3d 5d e4 f9 bd 02 43 c9 3d
       -0.037594117 0.061561186 -0.1220176 0.09827234
000170 0c 39 17 bd bc cb ab 3d 90 b0 b9 bd 10 04 d0 bd
       -0.03691964 0.083884686 -0.0906688 -0.10157025
000180 e9 65 c2 3d a7 88 37 bd 56 95 d0 3c 0e 36 21 bc
       0.09492094 -0.044808056 0.025461834 -0.009839548
000190 60 cc be bc d5 59 17 be 0a 62 02 3e 78 68 f6 bd
       -0.023290813 -0.14780362 0.12732711 -0.120316446
0001a0 a3 3d c7 3c 0f e7 9c bc 5e fa 4b bd 43 c4 1f 3d
       0.024321383 -0.019153146 -0.049799316 0.03900553
0001b0 8c 75 96 3d e7 59 ab 3d f4 72 c8 bd e2 e4 d4 3d
       0.07346639 0.08366757 -0.097875506 0.103952184
0001c0 81 f5 08 be c2 02 9b bd 13 11 e7 3d 3c 4f 94 bd
       -0.13374902 -0.075688854 0.112825535 -0.07241675
0001d0 25 1a be bd 21 39 ea 3d 97 ac 11 3e 37 4f 57 3c
       -0.092823304 0.11436678 0.14225994 0.013141445
0001e0 5b 86 28 3c ed 14 08 3e 91 01 62 3d e5 8b 1a 3d
       0.010285939 0.13289233 0.055177275 0.03773107
0001f0 82 d1 b4 bd dc 4f d9 3b f0 b2 79 3d 8f bf 30 3d
       -0.08829023 0.0066318344 0.060961664 0.043151435
000200 17 f8 b1 bd f1 d7 d7 bd ae b3 1f be e3 07 1d be
       -0.086898975 -0.105392344 -0.15595886 -0.1533504
000210 93 2a 5b 3d 7b 6c 16 bd 87 53 65 bd 74 d5 f4 bd
       0.0535074 -0.03672455 -0.05598786 -0.119547755
000220 00 0d ed bd 23 32 33 bd db d5 b6 3d 14 f0 cc bd
       -0.11574745 -0.043748986 0.089275084 -0.10006729
000230 07 cb 26 bb 6e e0 a9 3d f5 9e 89 3c 43 80 81 bd
       -0.0025450604 0.0829476 0.01679943 -0.06323292

encoder2.conv.weight f4 [16, 2, 1]
000000 26 95 cb be e4 04 29 bf 23 f1 00 3f f7 53 c0 be
       -0.3976223 -0.6602309 0.50367945 -0.3756406
000010 91 45 e9 3e 07 4b d1 3e de 7f cb 3e 95 31 07 3f
       0.45560887 0.40877554 0.39745992 0.5281003
000020 87 38 68 be ea 00 0b 3f ac ae a9 be da e6 11 bf
       -0.22677813 0.5429827 -0.33141077 -0.56992877
000030 03 36 ce 3e 38 3a 2b 3e fc bb 9e be 24 23 4a be
       0.40275583 0.16721427 -0.31002796 -0.19739968
000040 03 cb 0a bf 4c 6d ff 3e b3 e5 b6 bd aa f8 15 bf
       -0.5421602 0.49888074 -0.089305304 -0.58582556
000050 90 2e 69 be 98 a2 5d 3e ef 89 15 3f b5 24 e8 bd
       -0.22771668 0.21644056 0.58413595 -0.11335126
000060 40 e5 13 3f b4 48 ec 3d dc 77 1f be ee 76 a5 3e
       0.5777168 0.115373045 -0.15573066 0.323173
000070 32 aa be 3e 2a 04 a9 3e 12 6b 7b 3e ae 14 dd be
       0.37239224 0.3301099 0.24552563 -0.4317984

encoder2.conv.bias f4 [16]
000000 06 1f 62 3e 08 e3 b0 3e e3 dc 58 be 95 08 ab be
       0.22082147 0.3454821 -0.21178012 -0.33404985
000010 04 17 34 3f e8 fd 1b 3f 7b 7c 9c be 5a dd 03 bf
       0.7034762 0.60934305 -0.3056372 -0.5150963
000020 79 f4 af 3e 24 14 00 3e bb 31 06 bf d2 c5 33 3f
       0.34366205 0.12507683 -0.5241963 0.70223725
000030 7f 8e 86 3e db 9b 2c 3f 0e e9 3a be 7d d1 09 be
       0.2628059 0.67425317 -0.18252966 -0.1345882

encoder2.gru.weight_ih_l0 f4 [144, 16]
000000 54 91 a4 bd 36 f7 ba bd 90 ba 30 3c a6 c4 2e 3d
       -0.08035532 -0.09129183 0.0107866675 0.042668007
000010 75 7b 16 bd 35 de 06 3e d4 d7 a2 3b 5e c3 a9 3b
       -0.03673883 0.13170703 0.0049695764 0.0051807603
000020 fa 7a d3 3c a6 5f 07 3d 2a 65 d5 bc f8 04 31 bd
       0.025815476 0.0330502 -0.026049215 -0.04321763
000030 1c 75 32 3e 6f dd bc bd 22 c6 58 bd 13 dc c7 3d
       0.17427486 -0.092219226 -0.05292333 0.09758773
000040 2d 5f 2b 3e f8 b0 83 3d e9 cf 7e bd 2e 37 b8 3d
       0.16735525 0.064302385 -0.062209997 0.089949
000050 d9 c6 16 3d 47 2e b9 3d a5 21 e8 b9 fb 1d c2 bd
       0.03681073 0.0904203 -0.00044275555 -0.094783746
000060 da ee 50 bb 8c 63 d3 bd e9 20 9c bd 16 de 0c 3e
       -0.0031880648 -0.103217214 -0.076234646 0.13756594
000070 d8 00 ac bd e8 7b f6 bb 28 56 ca bb 08 00 d5 bc
       -0.083985984 -0.007522095 -0.0061748214 -0.026000991
000080 c6 36 01 3e 77 32 56 3d aa c3 c2 3d 38 05 a7 bd
       0.1261855 0.05229422 0.09509976 -0.08155292
000090 a6 95 14 bd e4 4a 9d 3d bb 62 80 bd bb ea b0 3d
       -0.03627553 0.076803 -0.06268831 0.08638521
0000a0 06 f0 bc 3d ae d5 18 bd a5 7c bc bd 4b 35 a7 3d
       0.09225468 -0.037313156 -0.092034616 0.08164462
0000b0 1f 97 eb bd b8 d4 1b 3e e4 54 0e 3e 29 82 52 bd
       -0.115034334 0.15217865 0.1389957 -0.05139366
0000c0 43 86 d6 3d d4 62 ca bd 7f 73 c9 bd 02 1b 95 bd
       0.10474827 -0.09882131 -0.09836482 -0.07280542
0000d0 aa e6 96 bd 79 a0 86 3c 06 a3 e6 3d 79 64 0d 3e
       -0.073682144 0.016433941 0.11261563 0.13807859
0000e0 77 16 d6 3c 43 42 4e 3d 89 ec a2 3d 5d a9 59 bd
       0.026133759 0.05035616 0.07955272 -0.053140033
0000f0 5e e9 06 3e 2d 40 eb bd 97 7c 93 3d 48 5a 50 bc
       0.1317496 -0.1148685 0.07201498 -0.012716837
000100 4c 05 b3 bc 35 df 14 bd e4 b9 45 bd 80 d1 59 bc
       -0.021853112 -0.03634568 -0.048272982 -0.013294578
000110 84 4c 78 3d d0 f9 96 bc 18 9b 0f bc 15 41 ad 3c
       0.060619846 -0.018429667 -0.008765005 0.021149198
000120 d8 c2 11 3b 7b e9 cc 3d 04 dd 82 bd e0 ab 2c 3d
       0.002224138 0.1000547 -0.06389812 0.0421561
000130 5e 7d 98 3d 04 23 c8 bd c8 c3 fb 3d 07 e0 a9 3d
       0.07445787 -0.09772304 0.12293202 0.08294683
000140 c9 99 0e 3e e0 8a 93 bc dc 0e 50 3d 69 8c 5b 3d
       0.13925852 -0.018010557 0.05079542 0.053600702
000150 27 10 bb 3c 36 65 0d 3e 7c 84 51 3d a3 a7 1a 3e
       0.02283485 0.1380814 0.051151738 0.15103011
000160 4c 72 57 bd 94 83 e6 bd b3 53 ab 3b f1 7e e6 bb
       -0.052599236 -0.11255565 0.0052284836 -0.0070341756
000170 e0 6b 2a bd 41 4a 0a 3d 85 22 b0 3d ad 15 5c 3d
       -0.041606784 0.03376222 0.08600334 0.05373161
000180 e6 df 15 3e 2e f4 0f 3d 6b 30 12 be 68 5a ab bd
       0.14636192 0.035144977 -0.14276282 -0.08366853
000190 60 26 bd 3d 80 89 fc bd 1f a9 1f 3d 14 81 4f bd
       0.09235835 -0.123309135 0.038979646 -0.050660208
0001a0 2e 5a 0f 3e 9e e1 a1 3b 28 3b b7 3d 43 53 eb 3d
       0.13999245 0.0049402257 0.0894683 0.1149049
0001b0 84 d8 db 3d fb 47 ed bd 53 bd af 3d 4e 61 05 3e
       0.107346565 -0.11585995 0.085810326 0.130254
0001c0 14 8f 98 3c af d4 07 3e 7a fe e2 bb bf 44 1e 3d
       0.018622912 0.13264726 -0.0069273086 0.03863978
0001d0 8e a3 f2 bd a1 52 43 3d 23 8b b6 bd 99 f8 df bd
       -0.11847602 0.047686223 -0.08913257 -0.10936088
0001e0 4a f6 78 3d bc 45 d9 3c 3e 6e e0 bb e3 68 b0 bd
       0.060781755 0.02652251 -0.0068490794 -0.086137556
0001f0 17 a4 ca 39 36 88 0a 3e 4a aa c5 3d 76 03 d9 bd
       0.000386507 0.13528523 0.09651621 -0.10596363
000200 4f 0f 33 bd d4 8f c8 bd ac 60 06 bd 6d 49 d4 3d
       -0.04371577 -0.09793058 -0.032807037 0.10365567
000210 62 be a9 bd b8 98 7e 3c 9b 8a 34 3e d2 38 b3 3c
       -0.08288266 0.015539341 0.17630999 0.02187768
000220 75 45 87 3d b2 e3 15 3e ae 1e d0 bd 46 0b 31 3e
       0.06605045 0.1463764 -0.10162102 0.17289457
000230 c4 14 b0 bd 13 a3 d4 3d 75 a1 2c bd 94 37 23 3c
       -0.08597711 0.103826664 -0.042146165 0.009961981
000240 a3 ab ee 3c 06 ff 6f bd 44 04 aa 3d 62 6d 03 be
       0.029134577 -0.05859282 0.08301595 -0.12834695
000250 ee fe d4 bc 46 1b c9 3d 77 64 be bc cf c3 8b 3b
       -0.026000466 0.09819655 -0.023241265 0.0042652856
000260 a5 48 09 3e c5 7e 3c bd 15 d6 eb 3c 9f ce db bc
       0.13406618 -0.046019334 0.028788606 -0.026831923
000270 f5 76 db bc 68 62 d7 3a 39 0d cc 3d 43 ab 56 3d
       -0.026790122 0.0016432526 0.099634595 0.05240942
000280 b3 d1 07 3e a9 35 ca bc d5 61 e9 bc f6 cb 19 be
       0.13263588 -0.02468379 -0.028489033 -0.15019211
000290 d8 44 6f bd 76 37 03 3e 23 5b 0a be bb fd c8 3d
       -0.058415264 0.12814125 -0.13511328 0.0981402
0002a0 16 1a e9 3d 49 b5 b9 bc 79 d2 85 bc 81 8c d4 bd
       0.113819286 -0.022669451 -0.016335713 -0.103783615
0002b0 c2 82 f1 3d e5 cc 26 bd 07 0e f0 3d df 2f b8 3d
       0.11792518 -0.040722746 0.117214255 0.08993506
0002c0 7c 33 01 3e 50 3e fd 3d 10 b6 df 3d ac 6c 9c bd
       0.12617296 0.12365401 0.109233975 -0.07637915
0002d0 11 10 9c 3c a3 d8 40 3d 4b 17 c1 bc f5 24 3d bd
       0.01905063 0.0470816 -0.023570677 -0.046177823
0002e0 c1 77 1f 3d f1 b5 fc 3c e2 3d c1 3c 09 bc 09 3e
       0.038932566 0.030848475 0.023589078 0.13450636
0002f0 aa 4c ef bd ed dc aa bd 51 48 c6 3d 34 79 b2 3d
       -0.116845444 -0.083429195 0.09681762 0.08714524
000300 36 b0 be 3d 07 dc f7 3d fa 64 08 be f4 44 ec 3b
       0.09310953 0.12102514 -0.1331977 0.0072103683
000310 60 63 9a bd 74 49 64 3c 09 b3 3a 3d 2e 58 7f bd
       -0.075384855 0.013933528 0.045580897 -0.062339954
000320 42 5d 52 3d eb c0 02 3d 81 a0 24 3e 29 eb 0d be
       0.05135847 0.031922262 0.16076852 -0.13859238
000330 53 b3 d4 bc c9 fe f9 3d 18 2b cb bd c6 0d 2a 3d
       -0.025964415 0.122067995 -0.09920329 0.04151704
000340 de c8 20 3d 29 2a ca bd 61 f4 04 3c c9 fb 03 3e
       0.039254062 -0.09871323 0.008114905 0.12889017
000350 18 c7 23 3e 3f 19 2a 3e cb e4 8f 3d 37 57 0e 3e
       0.15993917 0.16611193 0.07026061 0.13900457
000360 94 8c a3 bd 60 01 b4 3d 53 1f 65 3c e7 c7 0f 3e
       -0.079857975 0.08789325 0.013984519 0.140411
000370 59 a7 72 bd c8 1b aa bd e7 20 19 3e b0 ae ce 3d
       -0.059241626 -0.0830608 0.14953957 0.10091913
000380 ed 68 9a 3d 4f 44 ec 3c 6b 3f ad bd 8b 0d 06 3c
       0.07539544 0.028841166 -0.08459362 0.00818194
000390 78 04 14 3c c5 47 db 3d 49 28 cd 3d 0f 0c 00 3e
       0.009034269 0.10707048 0.100174494 0.125046
0003a0 45 b5 3f bd 41 50 82 3d 7a 63 e0 3b c4 a3 59 bd
       -0.04680373 0.063629635 0.006847796 -0.053134695
0003b0 3a 23 13 3d 13 0c 99 3d f9 ca 0a 3e 9f dc a4 3d
       0.035922267 0.07473006 0.1355399 0.08049893
0003c0 dd e9 9c 3d 3d ea 1f 3d 86 b8 cd 3d da a9 68 3b
       0.076617934 0.039041746 0.10044961 0.003550163
0003d0 40 9c 0c 3e a1 09 c5 3c cd 3f 1b 3d f3 cb 09 3e
       0.1373148 0.024052443 0.037902642 0.13456707
0003e0 68 38 b1 3d ec dd f7 3d 89 74 d8 bd fb e5 ed bc
       0.08653337 0.12102875 -0.10569102 -0.029040327
0003f0 06 90 83 3d 51 88 12 bc ec 5d 79 bd 10 87 a4 3b
       0.06423955 -0.008943633 -0.060880587 0.0050209835

encoder2.gru.weight_hh_l0 f4 [144, 48]
000000 c5 51 bb 3d d3 ff c6 3d 1f 8b ac 3d 91 65 75 bc
       0.09146456 0.09716763 0.08424973 -0.014977829
000010 08 66 43 bd ba 5b 10 be d5 15 b1 3d 28 29 ff bc
       -0.047704726 -0.14097491 0.08646742 -0.031147555
000020 a2 7f 9d bd ba f7 66 3c ae 23 3d bd d3 a5 46 bd
       -0.0769036 0.014097149 -0.046176605 -0.048497986
000030 80 78 5d bc e4 d4 67 3c 7a 7a f4 3d 19 85 fe 3c
       -0.013517499 0.014149878 0.11937423 0.031069325
000040 06 36 8e bd 57 ef 63 3d fd b0 ed bd 25 1c 1a 3d
       -0.06943898 0.055648174 -0.116060235 0.037624497
000050 7f 9d 8e bd 34 55 92 bd 14 af 7e 3d 09 23 51 3d
       -0.06963634 -0.071451575 0.062178686 0.051058803
000060 8c 02 01 3e 02 ab 8e 3d 7a 5b 2e be c6 b0 4d bc
       0.12598628 0.06966211 -0.17027083 -0.012554353
000070 7c f0 93 bd 4d 09 b7 3d 13 0a 6f 3d aa 7e c6 3d
       -0.07223603 0.08937321 0.058359217 0.09692128
000080 ce 4d 54 bd da 7e 81 bd 6a 3e fe bd 18 4d 53 bc
       -0.051832013 -0.06323023 -0.12414248 -0.012896799
000090 1e 06 21 3e d4 07 b6 3d 0d 56 5c 3d 09 9d f4 3c
       0.1572499 0.08888212 0.053793002 0.029860036
0000a0 32 fc 68 3d eb 30 27 be f1 97 9f bd b7 5d d8 3d
       0.056881137 -0.16327254 -0.077926524 0.1056475
0000b0 76 70 23 3e 08 28 2e be cc 7f 86 bc c2 c8 0f be
       0.15960869 -0.17007458 -0.01641836 -0.14041427
0000c0 bd c5 8c bc a3 49 80 bd 33 5c f7 3d 51 6f 80 bd
       -0.017184133 -0.06264045 0.120781325 -0.06271232
0000d0 dd 81 4d 3d 7a 04 d6 bd a2 7a 8e 3c 4f cc a8 bd
       0.050172675 -0.104500726 0.01739246 -0.08242094
0000e0 e9 45 8b bd 98 d2 2c be df 14 34 3e 41 a8 9c 3d
       -0.06800444 -0.1687721 0.17586087 0.076492794
0000f0 38 13 1a be 8f cd 2b 3d c7 8a 7c bd ce 01 25 3e
       -0.15046394 0.041944083 -0.061655786 0.1611397
000100 37 52 9f 3d 32 d2 8b 3d d3 4b 3f bc eb 8a c9 3c
       0.07779353 0.06827201 -0.011675793 0.024602374
000110 3c d8 08 3e d5 40 10 be 3b c8 f2 3d a4 8b 8a 3c
       0.13363737 -0.14087231 0.11854597 0.016912289
000120 b2 45 df 3c 6b 60 88 3d c1 01 57 3d 33 88 91 bd
       0.027254913 0.06659015 0.052491907 -0.07106056
000130 15 91 ac 3c 62 6f ee 3b 4f 2c ff 3d 37 27 16 bd
       0.021065274 0.0072764615 0.12459623 -0.036658492
000140 4c c8 0b bd 90 d4 2b 3d 9d 98 8b 3c 50 de 94 bd
       -0.034126565 0.041950762 0.017040545 -0.07268965
000150 89 c9 cd bd fc 15 da 3d dc 3b 01 3e 84 7d 2e be
       -0.100482054 0.106487244 0.12620491 -0.17040068
000160 72 d6 c0 bd 9f 6f 9a bd 0d eb ee bd dc ec c9 3d
       -0.09415902 -0.07540821 -0.11665926 0.098596305
000170 3b 2a db 3d 89 7f 86 bd ed ae 9f bd 85 ad ae 3d
       0.10701414 -0.06567294 -0.07797036 0.0852919
000180 01 b0 b7 bd 79 57 8c bd 9c 50 e7 3d c6 f9 dd 3d
       -0.08969117 -0.068526216 0.11294672 0.10838656
000190 98 af 38 3d c0 1d 0f 3e d4 cb a1 bd 34 75 f5 bd
       0.045089334 0.13976192 -0.07900205 -0.11985245
0001a0 fc 4f 07 3e da 54 0a bd af bd f5 bd de 6d ce 3c
       0.13214105 -0.033772327 -0.1199907 0.025198873
0001b0 26 ea a1 3d fe 88 89 3d d6 22 34 bd 92 97 df bd
       0.079059884 0.06715582 -0.043978535 -0.109175816
0001c0 d4 18 d5 3c 28 26 d2 bc ef 59 60 3b f0 56 96 bd
       0.026012816 -0.02565296 0.0034233292 -0.07340801
0001d0 42 20 c1 3d ab 3f 03 be 00 f4 14 bd a5 c6 4b 3d
       0.09429981 -0.12817256 -0.03636551 0.04974999
0001e0 51 ae f4 bd 07 ad 40 3d ce 20 a3 3d bf 21 09 be
       -0.11947311 0.04704001 0.079652414 -0.1339178
0001f0 b4 6b fe bc 0a b3 86 3d 70 a0 96 ba e7 1e c2 bd
       -0.031057216 0.06577118 -0.0011491906 -0.094785504
000200 6a 52 57 3d 93 48 c6 bd a3 f4 b2 bd a1 37 02 be
       0.05256883 -0.09681811 -0.08738067 -0.12716533
000210 d6 8a cc bd 09 20 f0 bd a3 40 f4 bd a3 d8 83 bd
       -0.09987418 -0.1172486 -0.11926391 -0.064378045
000220 6a ee a8 3d 7e 1f b2 bd b7 61 0d 3d 84 c5 0f 3e
       0.08248599 -0.08697413 0.034517016 0.1404019
000230 90 c3 0e bd 69 7a ad bd f0 8a 97 bb 4b 3f 9f 3b
       -0.03485447 -0.084706135 -0.004624717 0.00485984
000240 8d 84 f1 3d 2c d3 f7 3d 58 08 13 3e 73 4a 8a bd
       0.1179286 0.12100825 0.14358652 -0.06752481
000250 90 90 27 3e d8 ab ca 3d ed c5 c7 bd 18 2a df bd
       0.1636374 0.09896058 -0.09754548 -0.108967006
000260 d4 23 06 3e a6 c6 00 be 7b 73 05 3e 1c e8 3e 39
       0.13099605 -0.12575778 0.13032334 0.0001820628
000270 c0 c1 39 3d 68 12 dd 3d 27 75 d0 3c ab 68 e8 b9
       0.04535079 0.10794526 0.025446488 -0.00044328472
000280 87 0d db bd 88 be 99 3d b3 9e 4a bd b5 e6 46 3d
       -0.106959395 0.07507044 -0.049467754 0.048559863
000290 47 e5 ee bd c7 af cb 3d e6 d8 0a bd ef cb fb bc
       -0.11664825 0.09945636 -0.033898257 -0.030736892
0002a0 cc fc 84 3d 09 42 09 bc b7 1a 88 3d 79 fe 05 3d
       0.0649353 -0.00837756 0.066457205 0.032713387
0002b0 56 26 ac 3d ad b4 d8 bd 16 ab 0f 3e 0c b3 28 3d
       0.084057495 -0.10581336 0.14030108 0.041186377
0002c0 18 4c c9 3d ff 9c 2b 3d 3d 6e a1 bd f9 e6 fe bc
       0.09828967 0.04189777 -0.078823544 -0.031115996
0002d0 ed 38 10 3e 26 22 e2 3d 4e 40 c4 bc f1 31 80 bd
       0.14084215 0.110416695 -0.023956444 -0.062595256
0002e0 48 47 bc 3d a2 6f 32 b9 b8 bf 4b 3d 1a a8 50 bb
       0.09193283 -0.0001701699 0.049743384 -0.0031838478
0002f0 ee 06 90 bd 6c c4 d8 bd 1b 9b 97 bd fe e5 02 bd
       -0.07032572 -0.105843395 -0.07402631 -0.03195762
000300 4f 25 45 3d 3d 1d 11 3c ee 7c a8 3a 79 93 0c 3d
       0.048131283 0.008857069 0.0012854615 0.03432033
000310 f1 1c 30 3e 8e 81 9a bd 8c 76 0a be 7b 3c 03 3e
       0.1719854 -0.07544242 -0.13521785 0.1281604
000320 01 99 8e 3d e2 23 de bd 27 a0 58 bc 91 f8 2d be
       0.06962777 -0.10846688 -0.013221777 -0.16989352
000330 43 c3 62 3d 86 7f df bd 24 d6 d4 3d 33 e1 a4 bd
       0.055361997 -0.10912995 0.103924066 -0.08050766
000340 1d 02 09 bd f6 7e 1c 3d c6 c3 4f 3c 04 da ae 3d
       -0.03344928 0.038207017 0.012680953 0.08537677
000350 b5 f9 14 3d ca f6 49 bd df ac 23 3d 07 7e fb 3d
       0.03637095 -0.049307622 0.039959785 0.12279897
000360 fb d0 49 bc fb 70 a6 3d 1b 71 70 bc a1 d6 99 bd
       -0.012317891 0.08127018 -0.014675404 -0.0751164
000370 c9 7c 1f bd 70 6b 85 bd 09 37 07 bd 0e e3 91 bd
       -0.038937364 -0.06514633 -0.03301147 -0.07123385
000380 66 aa 91 bd cf 42 7c 3c bb 90 82 bd f5 77 7e 3d
       -0.07112579 0.015396788 -0.063752614 0.06212612
000390 19 0f 03 be 93 a1 07 bd 04 97 1f 3e 3b 1e 96 3d
       -0.12798728 -0.033113074 0.15584952 0.07329985
0003a0 c3 25 92 bb 85 15 02 be 2b 5a fd bd 19 66 6e 3d
       -0.004460068 -0.12703522 -0.12370714 0.058202837
0003b0 8b c3 59 bd 5a 40 38 bd 2f b9 7e 3d 35 e2 1b bd
       -0.053165 -0.044983245 0.062188324 -0.038057525
0003c0 c1 87 f1 bd 6c 32 05 be 41 4f ce 3d 3c 33 bf bd
       -0.11793471 -0.13007516 0.1007371 -0.09335944
0003d0 fb ae e6 bd ff c6 04 bb ca b8 7b 3d 66 6a ad 3c
       -0.112638436 -0.0020260212 0.061455525 0.021168899
0003e0 9f 99 bb 3d 18 a9 ce bd 09 e5 50 3d 97 06 95 bd
       0.0916016 -0.10090846 0.050999675 -0.072766475
0003f0 73 9f 7c bd fb 56 5c 3d 25 a8 60 3d 9e f8 1c 3e
       -0.0616755 0.05379389 0.054847855 0.15329215

encoder2.gru.bias_ih_l0 f4 [144]
000000 6d df 8c 3d 03 57 91 bd d6 cb 10 3e 49 4b b7 3d
       0.068785526 -0.07096674 0.14140257 0.089499064
000010 bb 5d c2 3c 18 f5 91 3d 29 e0 92 bc 65 67 1b 3e
       0.023726335 0.07126826 -0.017929154 0.1517616
000020 30 7d 94 3c a5 be ae 3d fd 14 cb bd 7c f8 77 bd
       0.0181261 0.08532456 -0.099161126 -0.060539708
000030 69 f2 91 bd d3 35 12 3e 8a d3 b8 bc 6c 94 16 bd
       -0.07126314 0.14278345 -0.022561807 -0.03676264
000040 56 df 85 ba 89 cd dc bc 46 0d 45 bd 53 dd 36 3c
       -0.0010213654 -0.026953476 -0.04810836 0.011161166
000050 55 93 6f 3c cf 04 02 3e 98 e6 60 3d de 60 1f 3e
       0.014622529 0.12697147 0.05490741 0.15564296
000060 91 f8 82 3d c5 51 92 bb a7 00 b8 bd 7e 02 f2 3d
       0.063950665 -0.004465314 -0.089844994 0.118168816
000070 66 42 9c bd ef 50 84 bd 3f dc 6e 3d 36 75 f1 3d
       -0.07629852 -0.06460749 0.05831551 0.11789934
000080 44 ec fd 3d a3 a5 bf 3b eb 52 26 3c 28 eb d0 bd
       0.1239858 0.005848603 0.010151605 -0.102011025
000090 3d e4 a7 bc 9f ce 38 bd 65 d8 0f 3d 88 51 61 3d
       -0.020494575 -0.045118924 0.03511848 0.055009395
0000a0 92 33 1d 3d 0a 15 f8 3d 48 f6 b0 bd 52 88 37 bd
       0.03837926 0.12113388 -0.086407244 -0.04480774
0000b0 53 e0 a0 bd db f5 0e bc 35 14 ff 3d 77 30 b4 3c
       -0.078552864 -0.008725609 0.12455026 0.021995766
0000c0 97 82 7a 3d 48 41 e5 bd cb 6d 85 3d 0b 81 8b 3b
       0.061159696 -0.11194092 0.06515082 0.0042573265
0000d0 6b d7 0d be e5 99 d8 bd 4b cf a7 bd 8b c4 a5 bd
       -0.13851707 -0.10576228 -0.08193835 -0.08094128
0000e0 ee 90 9d bd 1f 39 06 3d 46 ab 03 3e 72 8f 3e 3d
       -0.07693659 0.03276932 0.12858304 0.04652352
0000f0 f2 18 9c 3d d8 56 45 3c c1 9c 9e bd 9a 9c 00 3e
       0.076219454 0.012044631 -0.07744742 0.12559739
000100 66 3d b6 bc 65 7f 57 3d 7e 3d 6d bd 9f 74 be 3d
       -0.022246074 0.052611727 -0.05791997 0.092995875
000110 6c 67 49 bd 47 25 c1 bb 6c 75 7a bd bc 29 90 bd
       -0.049170896 -0.0058943364 -0.06114714 -0.0703921
000120 91 30 d7 bd 84 d2 49 3d d3 00 ae bd a0 00 d9 3c
       -0.1050731 0.04927303 -0.08496251 0.026489556
000130 2b f7 6e bd 4c 0e 93 bc ff 5f 5f 3d d9 90 c7 bc
       -0.058341186 -0.017951153 0.05453491 -0.024361061
000140 e3 71 ea bd 2c 30 06 3d ee 6c 57 bd 0f ef b0 3d
       -0.114475034 0.032760784 -0.052594118 0.08639347
000150 93 c4 c9 3d bb 0b c4 bd 3a 3a 60 3d 04 1a ce bd
       0.09851947 -0.0957255 0.05474303 -0.10063556
000160 c4 11 5d bd 8b 1c d1 bd 1c 50 76 3d 0e e9 4d 3d
       -0.05397202 -0.10210522 0.060134992 0.050271086
000170 6f 06 a5 bc 5c 74 22 3d d6 bf 0a bd 40 5c 85 bd
       -0.02014467 0.03966175 -0.033874355 -0.06511736
000180 67 37 a4 bd 24 4f 20 be f0 05 69 bd 42 ed b9 bc
       -0.0801838 -0.1565519 -0.056890428 -0.022696141
000190 68 e5 bb 3d df ba 28 3c 5a 3b e7 3d 93 bc 15 3d
       0.09174615 0.01029846 0.11290617 0.03655679
0001a0 10 65 15 bc d0 51 b8 3c dc a7 8e 3d 86 fc 03 3d
       -0.009118333 0.022499949 0.069656104 0.032223247
0001b0 3e fa b5 3d f1 07 f5 bc fc 71 e5 3d a4 25 f3 3d
       0.088856205 -0.029911013 0.112033814 0.11872414
0001c0 c3 0e 2b 3c 05 6f d1 3d 65 70 85 bd 2c af 1d be
       0.010440531 0.102262534 -0.06515578 -0.15398854
0001d0 e4 33 1d 3d 07 1c bb bd 11 5d e2 3c 04 e1 9b 3d
       0.038379565 -0.09136205 0.027632268 0.07611278
0001e0 17 41 a5 3d 36 57 0f be 6b 61 7f bd ca b3 12 3d
       0.080690555 -0.13998112 -0.062348764 0.03581599
0001f0 37 0c 5b 3d 60 48 17 3d 33 86 0b 3d 9f 38 0f 3e
       0.053478446 0.036934257 0.03406353 0.13986443
000200 15 c8 00 bd ea 9b ed 3d e3 f4 4a bc dd 31 74 3d
       -0.031440813 0.11602004 -0.012387487 0.059617866
000210 be 2e 2b 3d e6 df 0b be 4b 79 92 bd 95 ed 07 be
       0.041792624 -0.13659629 -0.07152041 -0.13274224
000220 7a b9 8e bd 46 70 cb 3d 83 36 97 3d 4b e5 e7 3c
       -0.069689706 0.09933524 0.07383444 0.028307578
000230 de 6c e9 bc 07 73 08 bd b0 df c3 bd 1b 84 a3 bd
       -0.028494295 -0.033312824 -0.095641494 -0.079841815

encoder2.gru.bias_hh_l0 f4 [144]
000000 3a a5 e9 bb c0 52 5f 3d 07 23 cc bd 79 a5 0a bd
       -0.0071302922 0.054522276 -0.099676184 -0.033849213
000010 ae 89 35 bb 3d 43 4e 3c 93 9c 4f 3b 2b e9 20 bd
       -0.0027700472 0.012589273 0.003167902 -0.039284866
000020 e6 28 8d 3d 56 9b 32 bd d9 8d b9 bd b6 78 41 bd
       0.068925664 -0.04360517 -0.090602584 -0.04723426
000030 4c 0f 1c 3e c6 5f d4 3d b8 7b 39 3d 40 f9 26 3e
       0.1524021 0.1036983 0.045284003 0.16306019
000040 06 b8 e8 bc e7 73 ee bd 8a 97 ca bd 00 26 d9 3c
       -0.028408062 -0.116432 -0.09892185 0.026507378
000050 8e 08 6b bc 7f 2b c9 3d a0 44 6a 3d 2b 33 a8 bd
       -0.014345301 0.09822749 0.057194352 -0.082128845
000060 68 5b 89 bd a1 bf 05 bd 14 22 ee bd 89 e2 91 3b
       -0.067068875 -0.032653455 -0.11627594 0.004452054
000070 02 08 d4 3d 5d e2 95 3d 55 8b 3c bd a0 ea ce 3d
       0.1035309 0.07318566 -0.046031315 0.10103345
000080 e9 93 67 3d 4d 22 51 bd 6f 7c 5f 3d 03 34 b8 3b
       0.056537542 -0.051058102 0.05456203 0.0056214347
000090 39 db 29 3e c3 b0 0f 3e 70 70 01 3e b7 f2 0c be
       0.16587533 0.14032273 0.12640548 -0.13764463
0000a0 c1 a8 05 3e cb 15 a7 bd 70 c4 eb bd da be 94 bd
       0.13052656 -0.081584536 -0.11512077 -0.072629645
0000b0 f6 d9 3c 3d a3 5c 66 bd 6a 85 98 3c 0f 72 e1 bd
       0.0461063 -0.05624069 0.018618304 -0.11008083
0000c0 d8 02 e9 bd e9 96 66 3d c0 3d 0c 3d 35 c9 17 bc
       -0.113774955 0.056296263 0.034238577 -0.00926428
0000d0 b4 e4 75 3c 45 ba ac bd 0e af c1 bb d5 dd 08 bd
       0.01500814 -0.084339656 -0.0059107607 -0.03341468
0000e0 a7 f7 24 3d 8b 1e cc bc 7a f5 80 bb 4d 89 dc 3d
       0.040275242 -0.024916908 -0.003935513 0.107683755
0000f0 14 46 c6 3d 95 87 cc 3d 69 18 ef bd 59 fe c1 bd
       0.09681335 0.09986798 -0.11674578 -0.09472341
000100 32 82 05 3e ff 9a b4 3d df cb 2c bc af ed e6 3b
       0.13037947 0.08818626 -0.0105466535 0.007047377
000110 df 74 fc 3b 5f 1e c9 bd 6b c9 43 3d 23 40 c7 bd
       0.007704362 -0.09820246 0.04779951 -0.0972903
000120 72 7b 5f bd d2 35 a9 3d df ee f7 bd ed a7 b4 3d
       -0.054561086 0.082622185 -0.12106108 0.08821092
000130 fe 49 b7 bd ec a8 6c 3d e3 38 6b 3d de fa 2f bd
       -0.0894966 0.057778284 0.0574273 -0.042963855
000140 b7 cd 22 3d e8 00 35 3d eb d2 03 bd 3d 2d 11 be
       0.039746966 0.044190317 -0.03218357 -0.14177413
000150 b1 3e e0 3d 7b 75 f1 3d f6 0c 6f 3d 39 17 36 3d
       0.109494574 0.11789986 0.05836197 0.04445574
000160 c2 d4 4e bc 77 d2 8e 3c fc 28 e3 bd 2d 8b d9 bd
       -0.012623968 0.017434342 -0.110918015 -0.10622249
000170 05 55 cb 3d 5a 40 d6 3c 73 a8 c0 3d 5b 48 e7 3d
       0.099283256 0.026153732 0.09407129 0.112930976
000180 6b 39 6a bd e3 72 b5 3d 06 0a ed bd 37 2b 14 be
       -0.057183664 0.088598035 -0.115741774 -0.1446961
000190 2c b1 18 3e 17 da 0d bd 3b 63 aa 3d d6 ef be bd
       0.14911336 -0.034631815 0.08319708 -0.09323089
0001a0 28 0e b1 3d 89 d5 21 be c1 46 31 bd 78 b6 0d 3e
       0.08645278 -0.15804113 -0.043280367 0.13839138
0001b0 53 6e e8 bd 8e cd 9a bc 1f 30 08 bd 87 c2 ca bd
       -0.11349168 -0.018896844 -0.033249017 -0.099003844
0001c0 24 5c 1e be 92 f7 0d 3e f7 46 3a bd 3e 26 22 be
       -0.15464836 0.13863972 -0.045477834 -0.158349
0001d0 22 23 4d 3d ac ea 4f 3c 30 db 86 3c 62 cf 0f 3e
       0.050082333 0.0126902275 0.016461939 0.14043954
0001e0 8a f0 90 3d 51 6f f9 bd 02 a2 fc 3d c8 e9 05 be
       0.07077129 -0.12179435 0.12335588 -0.13077462
0001f0 76 bc 9e 3d ab 03 80 bd ff f5 ef 3c 36 61 20 bd
       0.0775079 -0.062506996 0.029292105 -0.039155208
000200 fb 2d 94 bd a1 e4 9a bd 90 75 dd bd 92 7e 22 be
       -0.072353326 -0.07563139 -0.10813439 -0.15868595
000210 64 75 09 3c 7f 53 d7 bd c8 70 3d bd 37 25 e9 bd
       0.0083898045 -0.105139725 -0.046250135 -0.11384051
000220 5d 6e 8a bc 54 48 18 be b3 7b fc bd 36 ab f5 3d
       -0.016898328 -0.14871341 -0.12328281 0.119955465
000230 73 1f c1 bd 58 de f6 bd ae 2a 3c 3d a6 32 a5 bc
       -0.094298266 -0.120541275 0.04593914 -0.020165753
