save/sample_generator.pt (torch_old, 184090 bytes, 26 tensors)

encoder1.conv.weight f4 [16, 2, 3]
-0.25564438 0.3419679 -0.2397425 -0.35686702 -0.27670854 0.1893354 -0.25806928 0.08608075
0.13796209 0.21848688 0.19090399 0.23966475 -0.3888627 0.34346074 0.04030319 0.2886165
0.25935796 0.38908577 -0.047626715 -0.09808009 -0.041220304 -0.41712096 0.13351734 0.0111576505
-0.14174773 -0.11897422 -0.30411473 -0.39655456 0.04866599 0.31337652 0.013744617 0.34378365
0.15105186 -0.054036543 0.16701823 0.31700367 -0.3003467 -0.039485257 -0.3457963 0.120639056
-0.24575227 -0.27156007 0.12793201 -0.14567989 -0.006536199 -0.40507355 -0.25728866 0.008726974
-0.38649756 -0.30711263 -0.1249601 0.13270491 -0.24584286 -0.1325743 -0.14885369 0.21049069
0.12130432 -0.31282333 0.084468134 -0.093228675 0.27802202 0.3815726 -0.3770867 0.23643422
0.060481913 -0.05096126 0.14998904 0.4103656 -0.29613653 0.043657135 0.276359 0.13858451
-0.10588817 0.22085711 -0.04789912 -0.30384496 0.23060529 -0.27032512 -0.2939595 0.2684436
-0.060805462 -0.33816445 0.14257696 0.34509823 0.3613637 -0.33818996 0.31286797 0.10914646
-0.1383533 -0.4123465 0.08269307 -0.36313698 -0.29262012 -0.21844636 -0.40626612 0.0214869
00000000: d2e3 82be 6b16 af3e 0f7f 75be 46b7 b6be
00000010: beac 8dbe 24e1 413e a821 84be 1b4b b03d
00000020: ef45 0d3e 06bb 5f3e 567c 433e ad6a 753e
00000030: 0319 c7be 16da af3e f514 253d 8bc5 933e
00000040: 91ca 843e 4036 c73e 3b14 43bd 37de c8bd
00000050: 9fd6 28bd e190 d5be c5b8 083e 94ce 363c
00000060: 5126 11be c1a8 f3bd edb4 9bbe 3309 cbbe
00000070: fd55 473d e372 a03e 1a31 613c 6904 b03e
00000080: 57ad 1a3e 6c55 5dbd d406 2b3e 4e4e a23e
00000090: 0bc7 99be 4bbb 21bd 360c b1be 9c11 f73d
000000a0: 7ca6 7bbe ec09 8bbe 9c00 033e 1c2d 15be
000000b0: 9c2d d6bb cd65 cfbe 57bb 83be 95fb 0e3c
000000c0: 02e3 c5be de3d 9dbe 15eb ffbd cce3 073e
000000d0: 3bbe 7bbe 8fc1 07be 1a6d 18be df8a 573e
000000e0: 666e f83d 612a a0be a1fd ac3d adee bebd
000000f0: e758 8e3e 7c5d c33e 8211 c1be d01b 723e
00000100: e2bb 773d c1bc 50bd ba96 193e 711b d23e
00000110: 359f 97be d3d1 323d ed7e 8d3e 19e9 0d3e
00000120: e6db d8bd 5e28 623e de31 44bd 9191 9bbe
00000130: cb23 6c3e 0e68 8abe dc81 96be 7171 893e
00000140: 260f 79bd e423 adbe b2ff 113e b7b0 b03e
00000150: aa04 b93e 3c27 adbe 3b30 a03e 2e88 df3d
00000160: 7dac 0dbe 151f d3be fc5a a93d 17ed b9be
00000170: 4ed2 95be 67b0 5fbe 1d02 d0be 4c05 b03c

encoder1.conv.bias f4 [16]
-0.2051842 0.3894227 -0.2796335 -0.40621057 0.1910868 0.013708473 -0.08647488 -0.04989981
0.14535767 0.009874282 -0.26731285 -0.12894164 0.39910787 0.011575741 0.29878366 0.12617448
00000000: cf1b 52be 6a62 c73e 1f2c 8fbe d5fa cfbe
00000010: 42ac 433e 8199 603c be19 b1bd be63 4cbd
00000020: a4d8 143e bec7 213c 3bdd 88be 4709 04be
00000030: de57 cc3e 2da8 3d3c 2cfa 983e e233 013e

encoder1.gru.weight_ih_l0 f4 [144, 16]
-0.07508268 0.012988266 -0.07808917 -0.015451133 0.03792809 -0.041018806 -0.04139584 -0.056474
0.12124844 0.11615267 0.061076373 0.044742238 -0.06538964 0.006383647 0.13475133 0.025997536
-0.05253722 -0.025024056 -0.04533404 -0.029713016 -0.008902024 -0.036816496 -0.014414589 0.04770673
0.015639095 0.021270063 0.135896 -0.059633866 0.0018068239 0.039211072 0.11581028 -0.008130267
-0.09426594 -0.11844986 0.08563735 0.0043738447 0.10097231 0.042919468 -0.099001594 0.0383746
-0.13405095 -0.13348912 0.07039493 0.14852518 0.043595176 0.0077081765 0.06428718 -0.061620012
0.061360583 0.09358051 0.121702485 -0.14035718 -0.12157359 0.14521976 0.029026655 -0.05473703
0.09885826 0.03480821 -0.08648354 -0.03233818 0.06383021 -0.06725407 -0.073626235 -0.08932052
-0.11506762 0.025225103 -0.08640157 0.07820464 -0.13520278 -0.008605955 -0.12889169 -0.09881827
0.02755237 -0.06440127 -0.13152406 0.02978097 0.013017305 -0.13021216 -0.1178201 -0.05054952
-0.00067477167 0.0028920567 0.04320444 0.175226 -0.036270812 -0.020430505 -0.048943326 0.07972048
0.10397537 0.16115561 -0.020657955 -0.13809663 -0.06260317 0.006496305 0.063681506 0.0291911
-0.104744986 0.13073525 -0.040397715 0.013784797 0.12913035 0.13899639 0.00852925 0.021871185
-0.10646748 0.14746462 0.09119007 -0.088796735 -0.102853715 0.12319332 0.13383266 0.120561026
-0.05690703 -0.08005694 0.11410924 0.027403813 -0.07493182 0.13180931 0.0837659 -0.057155505
-0.053077932 -0.021920523 0.115388736 -0.07219316 -0.11633528 0.062604606 0.03839391 -0.057932038
-0.06482905 0.13699739 0.109354645 -0.057131033 0.008586748 0.13123316 0.11852858 -0.12535134
0.11446288 0.13645121 -0.018817728 0.05149844 -0.13583046 -0.07988471 0.12693928 -0.01715599
0.023055017 -0.024425896 0.13066386 0.14851141 0.1505296 -0.10252456 -0.082574636 0.07459158
-0.10194967 0.048556305 0.072386004 -0.01543241 -0.030499935 0.13690788 -0.048480958 -0.031106142
-0.016845128 0.10285911 0.05276651 -0.094285116 -0.13798451 0.026498776 0.11491306 -0.12372248
0.10469453 0.082901515 -0.1271652 -0.03258987 -0.076207 0.00023024347 -0.09652565 0.028018253
0.015630519 -0.005866618 0.053268444 0.028315363 0.10130916 0.011704373 0.1478679 -0.10002868
0.06082806 -0.091750786 0.055113975 -0.001870219 0.07931778 0.010813824 0.14531791 0.15078795
0.071021795 0.06440978 0.10618744 0.12193355 0.096973 0.026006095 0.12233191 -0.031571764
0.04899859 -0.09974723 0.16413504 -0.021753933 0.008262008 0.09648548 0.05577522 0.026723526
0.12538776 0.11688717 0.12764302 -0.10274293 0.10952315 -0.063304454 0.06950096 0.056672286
-0.10177098 0.10271222 0.077804096 -0.13716991 -0.11788447 0.0641417 0.10321017 0.026111638
-0.10454729 0.1301065 0.068146765 0.039697677 0.13601835 -0.050325498 -0.14621615 -0.0648549
-0.108889475 -0.01945682 -0.03672015 0.002240996 0.053009756 -0.113931514 -0.03431023 -0.10915769
-0.10743414 -0.12345711 -0.052836183 0.10776521 -0.1035246 -0.015119559 0.0035403518 0.007700842
0.11325342 0.018435638 0.14058131 -0.035310216 -0.14001329 0.08907296 0.100579694 -0.050301697
00000000: f3c4 99bd bccc 543c 37ed 9fbd c026 7dbc
00000010: 7c5a 1b3d 5603 28bd af8e 29bd 4851 67bd
00000020: 1a51 f83d 73e1 ed3d 382b 7a3d a343 373d
00000030: 01eb 85bd ea2d d13b 41fc 093e c9f8 d43c
00000040: 4531 57bd 40ff ccbc 30b0 39bd b668 f3bc
00000050: cbd9 11bc e5cc 16bd 2b2b 6cbc 2268 433d
00000060: 8f1d 803c 8e3e ae3c 5228 0b3e a442 74bd
00000070: f3d2 ec3a ca9b 203d f12d ed3d d034 05bc
00000080: 800e c1bd d795 f2bd a362 af3d 7852 8f3b
00000090: 92ca ce3d 53cc 2f3d 59c1 cabd af2e 1d3d
000000a0: a744 09be 5fb1 08be 382b 903d fc16 183e
000000b0: db90 323d df94 fc3b ffa8 833d 4465 7cbd
000000c0: 3c55 7b3d 23a7 bf3d 273f f93d cbb9 0fbe
000000d0: 93fb f8bd 7db4 143e 4fc9 ed3c f033 60bd
000000e0: 3376 ca3d 0e93 0e3d 481e b1bd 0a75 04bd
000000f0: 6ab9 823d 80bc 89bd 5ac9 96bd aded b6bd
00000100: 93a8 ebbd e0a4 ce3c 4ef3 b0bd c129 a03d
00000110: 9972 0abe feff 0cbc 2ffc 03be 3c61 cabd
00000120: 82b5 e13c d0e4 83bd 3eae 06be 39f7 f33c
00000130: 8946 553c 5656 05be aa4b f1bd 030d 4fbd
00000140: 29e3 30ba a988 3d3b 24f7 303d 726e 333e
00000150: b490 14bd e05d a7bc cc78 48bd 7e44 a33d
00000160: 0af1 d43d fa05 253e df3a a9bc 3469 0dbe
00000170: 1736 80bd f5de d43b 736b 823d 2c22 ef3c
00000180: 8a84 d6bd 76df 053e 1378 25bd a1d9 613c
00000190: bf3a 043e 1255 0e3e 44be 0b3c 332b b33c
000001a0: 9f0b dabd f700 173e dcc1 ba3d 10db b5bd
000001b0: f8a4 d2bd c84c fc3d 6e0b 093e b3e8 f63d
000001c0: 5917 69bd e5f4 a3bd 1bb2 e93d f67d e03c
000001d0: db75 99bd 05f9 063e 758d ab3d e41b 6abd
000001e0: 3f68 59bd ab92 b3bc ee50 ec3d 02da 93bd
000001f0: 3141 eebd d836 803d ef42 1d3d 254a 6dbd
00000200: 18c5 84bd 0b49 0c3e 54f5 df3d 3b02 6abd
00000210: 6eaf 0c3c fc61 063e 1dbf f23d 1a5c 00be
00000220: 846b ea3d deb9 0b3e a327 9abc 07f0 523d
00000230: 2417 0bbe 989a a3bd 5ffc 013e b88a 8cbc
00000240: e0dd bc3c d118 c8bc bfcc 053e 6013 183e
00000250: 6e24 1a3e 66f8 d1bd e41c a9bd 78c3 983d
00000260: fdca d0bd fae2 463d 1d3f 943d 38d8 7cbc
00000270: 00db f9bc 9431 0c3e f893 46bd 4fd2 febc
00000280: cbfe 89bc cca7 d23d b221 583d 8e18 c1bd
00000290: d04b 0dbe f613 d93c 8a57 eb3d 3662 fdbd
000002a0: 166a d63d 45c8 a93d 9837 02be f57c 05bd
000002b0: 6a12 9cbd 836d 7139 3daf c5bd 8986 e53c
000002c0: 930b 803c c23c c0bb 0330 5a3d 9ff5 e73c
000002d0: 2d7b cf3d b3c3 3f3c af6a 173e d6db ccbd
000002e0: d826 793d d6e7 bbbd 31bf 613d 2322 f5ba
000002f0: 5c71 a23d 772c 313c 38ce 143e 2868 1a3e
00000300: e073 913d 46e9 833d cd78 d93d 4cb8 f93d
00000310: c899 c63d bc0a d53c 2789 fa3d 6551 01bd
00000320: bfb2 483d 4748 ccbd 0413 283e 4e35 b2bc
00000330: 605d 073c 2e9a c53d 8f74 643d 4ceb da3c
00000340: a665 003e 8a62 ef3d dab4 023e e36a d2bd
00000350: ac4d e03d c4a5 81bd 8556 8e3d 3321 683d
00000360: 4e6d d0bd c95a d23d c157 9f3d 4576 0cbe
00000370: 6a6d f1bd b95c 833d db5f d33d 13e8 d53c
00000380: e41c d6bd a33a 053e 8890 8b3d 089a 223d
00000390: 6548 0b3e 1c22 4ebd b0b9 15be a5d2 84bd
000003a0: 7201 dfbd e963 9fbc de67 16bd addd 123b
000003b0: c220 593d ed54 e9bd e288 0cbd 118e dfbd
000003c0: 6e06 dcbd 15d7 fcbd c16a 58bd 02b4 dc3d
000003d0: b504 d4bd 07b8 77bc 3f05 683b 5857 fc3b
000003e0: 69f1 e73d 5606 973c 8cf4 0f3e 72a1 10bd
000003f0: a55f 0fbe e26b b63d bafc cd3d 2709 4ebd

encoder1.gru.weight_hh_l0 f4 [144, 48]
-0.021330807 -0.104314186 -0.037539504 -0.066690825 -0.07743253 0.106893614 -0.10276448 -0.1132652
-0.039788015 0.11380954 -0.045812976 0.0684782 -0.012004879 -0.13632083 0.008345292 -0.063425116
-0.045070834 0.042283572 -0.0064194393 0.0684206 0.12510723 0.09620469 0.097855516 0.0020914217
0.07596808 -0.0017483388 -0.13155702 0.059001967 0.0792045 0.035508703 -0.023935314 -0.08732507
-0.11897614 0.005505793 0.092986904 -0.10496244 -0.10573646 0.03755362 0.045986664 0.0792503
0.10562436 -0.04230658 0.011847066 0.10918376 0.04389054 -0.010793806 0.023723667 -0.055679165
0.043431956 -0.1372028 -0.06883912 -0.0067195203 -0.07554543 0.015986342 0.0030976597 0.105667606
-0.050040655 0.0498929 -0.08534834 0.018640839 0.112358525 -0.15556195 -0.12121093 0.029650262
0.06199397 0.110048056 -0.06591515 -0.10190988 0.069219746 -0.122110404 0.034323603 0.054324355
0.114507034 0.015833985 -0.038395267 -0.022930805 -0.12824173 0.066441014 0.06401842 -0.102689974
0.03315778 -0.06401222 0.003674535 -0.07722988 -0.050232634 -0.1043814 0.030875275 -0.053934224
-0.13267942 -0.05756863 -0.016474674 0.105559304 -0.09052439 0.09941375 0.10594017 -0.17169622
0.1431457 0.042694554 -0.06110354 0.13042423 -0.011769676 0.12672563 -0.04886372 -0.09747564
-0.056069057 -0.052137613 -0.04544865 -0.1314138 -0.11364723 0.020429773 -0.12937848 0.08326565
-0.0126995705 -0.048252665 -0.10016838 -0.062330827 -0.09947044 -0.09010623 -0.052829947 0.09812079
-0.12303808 0.09045887 -0.012529028 0.06265463 -0.10015663 -0.12977462 0.13373788 -0.00098131
0.06839752 0.09467181 -0.026726322 -0.1454309 -0.08410321 -0.11082844 -0.116637625 0.049677305
-0.09338531 -0.06308611 0.04317232 0.026151763 0.074887745 -0.10035264 -0.119720265 -0.10265496
-0.019483425 0.10514468 -0.12103541 -0.046881426 0.13499355 -0.059876606 0.029675717 -0.08243152
-0.12166659 0.085229754 -0.018958077 -0.04712761 0.11166425 -0.11721419 -0.036033437 0.10693235
-0.094905235 -0.1184225 -0.076016456 -0.08302962 -0.01984744 -0.08005772 -0.07637636 0.14308523
0.13010691 -0.11726405 0.006505051 -0.030433325 0.03213388 -0.010646469 -0.010796598 0.10793628
-0.12984751 -0.08681436 -0.091799594 -0.13150777 0.029679509 0.13276376 0.1380206 -0.0053481725
0.11171246 -0.040402584 0.12753022 -0.008317821 0.09146189 -0.10226424 -0.04230363 0.044855256
-0.052386884 -0.062050622 0.035392385 -0.0026026203 -0.053355873 -0.039798252 0.07626531 0.012869609
0.044699796 -0.14967549 -0.038310766 -0.0062567256 -0.048999805 -0.13757096 -0.042017195 -0.001540655
-0.09527692 0.02188851 0.12610798 -0.12919225 -0.11883284 0.058492742 -0.12725091 -0.032767404
0.06660551 -0.12658857 -0.05446112 -0.11453988 -0.014490491 -0.10699575 -0.088824645 0.1277181
-0.015125769 0.048577156 0.02258904 -0.038153037 0.005273098 0.00032852512 -0.030223815 0.05067811
0.10603002 -0.010314464 0.023273723 0.08978196 -0.116009295 -0.0025533356 -0.07451559 -0.05064667
0.012795072 0.06284783 0.02289029 -0.08966337 0.090368606 -0.027556995 0.02178802 0.039568614
-0.05400602 0.1036297 0.07258528 0.13650784 0.03838548 0.13408393 0.13929912 0.050702047
00000000: f2bd aebc ada2 d5bd 06c3 19bd 3395 88bd
00000010: f294 9ebd 0aeb da3d 2f76 d2bd 96f7 e7bd
00000020: c2f8 22bd fa14 e93d 63a6 3bbd 4c3e 8c3d
00000030: 1db0 44bc b097 0bbe b1ba 083c 07e5 81bd
00000040: 329c 38bd 8a31 2d3d 295a d2bb 1920 8c3d
00000050: 1c1c 003e f706 c53d 7968 c83d 3c10 093b
00000060: 2795 9b3d 8428 e5ba e2b6 06be 0cac 713d
00000070: f835 a23d 9371 113d fe13 c4bc 7cd7 b2bd
00000080: c3a9 f3bd f069 b43b eb6f be3d 8cf6 d6bd
00000090: 5b8c d8bd d3d1 193d 835c 3c3d fb4d a23d
000000a0: 9651 d83d aa49 2dbd 321a 423c bc9b df3d
000000b0: 91c6 333d 81d8 30bc 2358 c23c d60f 64bd
000000c0: b5e5 313d e47e 0cbe 86fb 8cbd 6c2f dcbb
000000d0: 90b7 9abd caf5 823c 1b02 4b3b 4268 d83d
000000e0: 6ef7 4cbd 7f5c 4c3d 1ccb aebd acb4 983c
000000f0: 3a1c e63d a24b 1fbe 703d f8bd 1be5 f23c
00000100: 64ed 7d3d e060 e13d 86fe 86bd 21b6 d0bd
00000110: 15c3 8d3d 0515 fabd e896 0c3d 3783 5e3d
00000120: aa82 ea3d 46b6 813c 5b44 1dbd 62d9 bbbc
00000130: cd51 03be 3a12 883d 171c 833d 1f4f d2bd
00000140: 74d0 073d d718 83bd 78d0 703b b32a 9ebd
00000150: bcc0 4dbd eac5 d5bd 25ee fc3c 22ea 5cbd
00000160: 1ddd 07be 15cd 6bbd e5f5 86bc 7a2f d83d
00000170: da64 b9bd 7099 cb3d 29f7 d83d 22d1 2fbe
00000180: c994 123e 7ce0 2e3d b547 7abd ee8d 053e
00000190: 99d5 40bc 5dc4 013e 5325 48bd 4fa1 c7bd
000001a0: aba8 65bd 408e 55bd 5d28 3abd 5791 06be
000001b0: e1bf e8bd 575c a73c cb7b 04be 2e87 aa3d
000001c0: dc11 50bc 96a4 45bd 1425 cdbd 9c4e 7fbd
000001d0: 28b7 cbbd 9d89 b8bd 3764 58bd 8ef3 c83d
000001e0: 64fb fbbd 8042 b93d 8d46 4dbc 1251 803d
000001f0: eb1e cdbd a3e3 04be 95f2 083e 4d9f 80ba
00000200: 0014 8c3d 4be3 c13d 29f1 dabc d6eb 14be
00000210: 4e3e acbd 05fa e2bd b5df eebd 6e7a 4b3d
00000220: cc40 bfbd 4a33 81bd 75d5 303d 393c d63c
00000230: bf5e 993d af85 cdbd e62f f5bd c33c d2bd
00000240: b49b 9fbc 1856 d73d 6ae1 f7bd bd06 40bd
00000250: c03b 0a3e 2c41 75bd 7d1a f33c dbd1 a8bd
00000260: 552c f9bd f08c ae3d f84d 9bbc e108 41bd
00000270: 3ab0 e43d fe0d f0bd cc97 13bd 59ff da3d
00000280: ad5d c2bd 7f87 f2bd 84ae 9bbd 6f0b aabd
00000290: 1997 a2bc 4df5 a3bd 366b 9cbd ef84 123e
000002a0: bf3a 053e 2228 f0bd 5328 d53b 4f4f f9bc
000002b0: d19e 033d 876e 2ebc 37e4 30bc b20d dd3d
000002c0: bff6 04be bacb b1bd 6d01 bcbd f9a9 06be
000002d0: 7122 f33c 39f3 073e 4655 0d3e b93f afbb
000002e0: 81c9 e43d 2e7d 25bd 4897 023e 7847 08bc
000002f0: 5f50 bb3d ea6f d1bd 9246 2dbd 25ba 373d
00000300: a193 56bd cb28 7ebd 9bf7 103d b990 2abb
00000310: b08b 5abd 7e03 23bd fd30 9c3d 0ddb 523c
00000320: 2217 373d 8844 19be c0eb 1cbd 3805 cdbb
00000330: 05b4 48bd 67df 0cbe 391a 2cbd ceef c9ba
00000340: 8c20 c3bd 884f b33c 7322 013e f94a 04be
00000350: a25e f3bd 1696 6f3d 104e 02be 1d37 06bd
00000360: 7868 883d 6fa0 01be a012 5fbd e293 eabd
00000370: 8669 6dbc 9620 dbbd b2e9 b5bd 89c8 023e
00000380: 13d2 77bc d7f8 463d a70c b93c 5c46 1cbd
00000390: f4c9 ac3b e53d ac39 ef97 f7bc da93 4f3d
000003a0: 4426 d93d fffd 28bc 89a8 be3c 9bdf b73d
000003b0: 4896 edbd dd55 27bb a19b 98bd e272 4fbd
000003c0: 6ca2 513c 5db6 803d 6b84 bb3c 6ea1 b7bd
000003d0: 2d13 b93d 35bf e1bc ca7c b23c b312 223d
000003e0: 6b35 5dbd cf3b d43d 97a7 943d b6c8 0b3e
000003f0: 183a 1d3d 4c4d 093e 6ea4 0e3e f3ac 4f3d

encoder1.gru.bias_ih_l0 f4 [144]
0.08256411 0.05716958 0.008579403 -0.021879636 0.06728652 0.14234336 0.07583738 -0.09096685
-0.07345988 0.12894012 -0.12809867 -0.090409555 0.17924394 0.016495695 0.040186934 0.026795723
-0.111962736 -0.09153255 0.14285076 -0.080970354 0.012134475 0.023759693 -0.11056671 -0.05436949
-0.12816724 0.1519061 -0.103738554 -0.06046727 0.12485987 0.028814193 0.08029995 -0.06003594
0.003828471 0.08086875 0.021393003 -0.10877044 0.1084814 0.08239131 -0.088333964 -0.08048642
0.0012272609 0.02665857 0.029385768 0.03587029 -0.047066297 0.061526734 0.10102144 -0.02531265
0.13107915 0.08498321 0.018709106 0.007018064 0.10215994 0.038152643 -0.04915784 -0.1010662
0.026445623 0.039774507 0.01079013 -0.0842436 -0.046997584 -0.1317038 -0.16059987 0.032539736
-0.04696603 -0.07960796 -0.06892582 -0.12037144 -0.1565356 -0.09183739 0.08717676 -0.030204825
0.03632846 0.046950437 0.0064189197 0.04256135 -0.011317401 0.00038759768 -0.009585207 0.03390699
0.012111521 0.05590141 -0.012050489 -0.14875206 0.107266605 -0.105181836 -0.021186115 -0.069058046
-0.016988918 0.08978708 0.07200165 -0.1083472 0.08748421 -0.062096152 -0.14209059 -0.04718021
-0.111538 0.004554461 -0.031344216 -0.11435189 0.01463394 0.07425907 0.0051203324 0.081887126
-0.13092223 -0.10647225 -0.12581953 -0.12835799 0.0037333856 -0.06132641 0.07270114 0.14918897
0.014163435 0.07259074 0.08544038 -0.10303621 0.11013948 -0.06387733 -0.085864626 -0.12942481
0.016973203 -0.11273027 0.051832788 0.007484785 -0.027483981 -0.052355733 -0.08520851 0.06978739
0.10133831 -0.066113345 -0.008903646 -0.046810217 0.073061064 -0.03881492 -0.06788638 0.13433531
0.11133524 0.17275563 0.11981888 0.1409076 0.09760094 -0.0032623438 -0.07242499 -0.09283271
00000000: 5f17 a93d a62a 6a3d a090 0c3c ec3c b3bc
00000010: 84cd 893d 75c2 113e a150 9b3d d44c babd
00000020: 2272 96bd e108 043e 4c2c 03be a528 b9bd
00000030: b98b 373e fb21 873c 0e9b 243d b482 db3c
00000040: b84c e5bd 6b75 bbbd 7847 123e c9d3 a5bd
00000050: adcf 463c b0a3 c23c cd70 e2bd 8bb2 5ebd
00000060: 463e 03be 468d 1b3e e174 d4bd 87ac 77bd
00000070: 88b6 ff3d be0b ec3c 4d74 a43d 3fe8 75bd
00000080: 16e7 7a3b 849e a53d 6140 af3c 09c3 debd
00000090: 7f2b de3d c6bc a83d 70e8 b4bd 10d6 a4bd
000000a0: 0bdc a03a 1363 da3c 6cba f03c baec 123d
000000b0: 97c8 40bd 7503 7c3d 54e4 ce3d 795c cfbc
000000c0: 9d39 063e ad0b ae3d d743 993c caf7 e53b
000000d0: 3b39 d13d f245 1c3d bb59 49bd ccfb cebd
000000e0: 7ea4 d83c 98ea 223d 16c9 303c e987 acbd
000000f0: 8a80 40bd 5cdd 06be 4b74 24be 6348 053d
00000100: 745f 40bd 8009 a3bd fb28 8dbd 4d85 f6bd
00000110: de4a 20be 3e15 bcbd bb89 b23d 1c70 f7bc
00000120: 27cd 143d 1a4f 403d cd55 d23b cf54 2e3d
00000130: 9f6c 39bc 7b36 cb39 460b 1dbc 0ee2 0a3d
00000140: 676f 463c e0f8 643d 6a6f 45bc 7652 18be
00000150: 98ae db3d 9369 d7bd 818e adbc 4e6e 8dbd
00000160: 582c 8bbc 4ae2 b73d 9a75 933d 23e5 ddbd
00000170: ec2a b33d 8958 7ebd 3280 11be 0940 41bd
00000180: 096e e4bd 973d 953b cb62 00bd 5331 eabd
00000190: 31c3 6f3c 2415 983d 76c8 a73b 70b4 a73d
000001a0: 7a10 06be 1f0e dabd d6d6 00be 4770 03be
000001b0: d1ab 743b 6731 7bbd 56e4 943d fec4 183e
000001c0: c10d 683c 74aa 943d 5efb ae3d a604 d3bd
000001d0: cf90 e13d 1ed2 82bd cbd9 afbd f087 04be
000001e0: 630b 8b3c 21df e6bd 9e4e 543d ed42 f53b
000001f0: 1626 e1bc f772 56bd cd81 aebd b1ec 8e3d
00000200: 768a cf3d 6f66 87bd 99e0 11bc 12bc 3fbd
00000210: 0aa1 953d 65fc 1ebd 0408 8bbd 328f 093e
00000220: bb03 e43d dae6 303e 9a63 f53d 154a 103e
00000230: 00e3 c73d 0ccd 55bb 8e53 94bd 131f bebd

encoder1.gru.bias_hh_l0 f4 [144]
-0.050778687 0.09412394 0.06532072 0.10652036 -0.0752515 0.11208381 -0.068230376 0.0402025
0.1323445 0.15586708 0.06778583 0.13712142 0.011496868 0.08599869 -0.06087317 0.02939373
0.13546687 -0.09199849 0.113052964 -0.056266855 -0.013058824 -0.07642418 0.04500133 -0.013503649
0.06123968 0.13513017 -0.038480174 0.003871674 0.06291729 -0.082081065 -0.047231935 0.081599765
0.068333715 -0.05218174 -0.013900525 -0.031349882 -0.051737767 -0.063682266 0.12265816 0.117660016
-0.08853595 0.11112191 -0.10786194 0.12937912 -0.13032025 0.0926896 0.062730335 -0.108600095
-0.0015693774 -0.1368066 0.036359634 -0.015069081 -0.14146943 0.02061071 -0.013638974 -0.06282331
-0.05571346 -0.08471022 -0.06783773 -0.10981725 0.009847082 -0.13979633 -0.0619146 -0.12951323
-0.0022184886 -0.065329604 -0.006781355 0.020797467 -0.104578644 -0.044439558 0.04086375 0.15994833
0.008622844 -0.06005525 -0.06919991 0.089977674 -0.10764615 -0.0849264 -0.11952128 -0.050817773
-0.00810439 0.08890122 -0.15875016 -0.14834906 0.020590007 0.059474826 0.091271766 0.04070774
0.08419798 0.13687159 0.12008759 -0.095437765 0.124871075 -0.06924251 -0.088552654 -0.22232752
-0.053168204 -0.05239076 -0.037070233 0.12076079 0.10355943 -0.0011566231 0.15245195 0.13466255
0.08591294 -0.11309383 -0.025637288 -0.01664113 0.15023567 -0.0011614533 -0.064121045 0.035102513
-0.08238908 0.12693767 -0.044633597 -0.14755474 -0.07557096 0.054201417 -0.09083872 -0.15102115
0.0397546 -0.08384322 0.03560696 0.053944632 0.15451394 -0.08825176 0.1322371 0.123238
0.017255377 0.066480756 -0.13107584 -0.011318434 0.06261034 0.107758716 0.120471925 0.12546793
0.05685245 0.020668274 0.025321914 -0.031489722 0.14405844 -0.07749293 -0.12294081 0.028987898
00000000: 50fd 4fbd 0dc4 c03d dfc6 853d 5927 da3d
00000010: 751d 9abd 328c e53d 5ebc 8bbd 60ab 243d
00000020: 5185 073e 9f9b 1f3e 4cd3 8a3d 8f69 0c3e
00000030: 5c5d 3c3c 1520 b03d 2556 79bd 1fcb f03c
00000040: d4b7 0a3e b469 bcbd 5088 e73d 1378 66bd
00000050: aef4 55bc 4884 9cbd 5153 383d 693e 5dbc
00000060: 75d6 7a3d 905f 0a3e 639d 1dbd e9bb 7d3b
00000070: c8da 803d 1e1a a8bd 4676 41bd c71d a73d
00000080: 8cf2 8b3d 85bc 55bd 07bf 63bc bc68 00bd
00000090: fbea 53bd d96b 82bd 3434 fb3d bcf7 f03d
000000a0: 5652 b5bd e293 e33d b9e6 dcbd f67b 043e
000000b0: ac72 05be 0cd4 bd3d c378 803d ba69 debd
000000c0: 91b3 cdba 0817 0cbe d7ed 143d 4fe4 76bc
000000d0: 5ddd 10be cbd7 a83c 0176 5fbc 82a9 80bd
000000e0: cc33 64bd 8d7c adbd 82ee 8abd dee7 e0bd
000000f0: a855 213c c526 0fbe 2a9a 7dbd 1e9f 04be
00000100: 1064 11bb 87cb 85bd 2136 debb 735f aa3c
00000110: 542d d6bd 4106 36bd bf60 273d 7fc9 233e
00000120: d446 0d3c 7efc 75bd afb8 8dbd 3746 b83d
00000130: 9675 dcbd e4ed adbd 93c7 f4bd 4c26 50bd
00000140: 47c8 04bc d811 b63d 678f 22be d1e8 17be
00000150: 60ac a83c e09b 733d b1ec ba3d 29bd 263d
00000160: fe6f ac3d 1128 0c3e 7bf0 f53d e074 c3bd
00000170: 68bc ff3d 04cf 8dbd 185b b5bd d3a9 63be
00000180: e7c6 59bd b297 56bd f5d6 17bd 6f51 f73d
00000190: f716 d43d d599 97ba 5d1c 1c3e fbe4 093e
000001a0: 20f3 af3d bd9d e7bd 4a05 d2bc fb52 88bc
000001b0: 61d7 193e e83b 98ba e551 83bd a7c7 0f3d
000001c0: 9bbb a8bd f3fb 013e b8d1 36bd 9718 17be
000001d0: f3c4 9abd 4e02 5e3d a709 babd 4aa5 1abe
000001e0: b8d5 223d feb5 abbd 9bd8 113d 0cf5 5c3d
000001f0: e738 1e3e 57bd b4bd 2a69 073e 3464 fc3d
00000200: 265b 8d3c 1027 883d bf38 06be f470 39bc
00000210: da39 803d 9ab0 dc3d fcb9 f63d aa7a 003e
00000220: 1dde 683d 8350 a93c e76f cf3c 5efb 00bd
00000230: 0e84 133e 9db4 9ebd 64c8 fbbd 0778 ed3c

encoder2.conv.weight f4 [16, 2, 1]
-0.19781019 -0.50091213 -0.27419853 -0.48095936 -0.29784492 -0.08839374 -0.08570169 0.5243127
0.074729286 -0.5714628 0.28933233 -0.4423001 0.52879494 -0.30800262 0.10452661 0.39021495
-0.65153354 0.69529134 0.6884441 -0.13593566 0.49619097 -0.0040504145 -0.16288698 -0.44373366
-0.07268272 -0.6435911 -0.20489305 -0.48998582 -0.39345768 0.048449475 0.06510364 0.30349702
00000000: c18e 4abe c73b 00bf c063 8cbe 4e40 f6be
00000010: 217f 98be c707 b5bd 5e84 afbd 5b39 063f
00000020: ab0b 993d 634b 12bf 5e23 943e 2975 e2be
00000030: 1b5f 073f 85b2 9dbe 0c12 d63d 41ca c73e
00000040: e7ca 26bf 9dfe 313f df3d 303f b832 0bbe
00000050: be0c fe3e 57b9 84bb d8cb 26be 0f31 e3be
00000060: aeda 94bd 63c2 24bf 7ccf 51be 6cdf fabe
00000070: 4973 c9be f572 463d 0f55 853d f663 9b3e

encoder2.conv.bias f4 [16]
0.031016804 -0.03773343 0.62538683 -0.15870273 -0.023642711 0.26531675 0.7335801 0.05815662
-0.6052234 -0.5246908 0.08586039 -0.6418519 -0.6244063 -0.11777643 -0.6677422 0.04380478
00000000: f416 fe3c 5e8e 1abd 5a19 203f f882 22be
00000010: 5cae c1bc 99d7 873e e8cb 3b3f a335 6e3d
00000020: ecef 1abf 2352 06bf 92d7 af3d 6850 24bf
00000030: 17d9 1fbf c534 f1bd 27f1 2abf a46c 333d

encoder2.gru.weight_ih_l0 f4 [144, 16]
0.08347573 0.04387301 0.0437043 0.18789905 0.111203924 0.11607108 0.009700582 0.106946066
0.13634633 -0.053081915 -0.006842585 0.019627204 0.107713826 0.047935292 0.13529618 -0.005813453
-0.009820706 -0.20825148 0.20293164 -0.16662082 -0.022735301 0.10832473 0.0125689 0.033284448
-0.1087749 -0.116171695 -0.014636647 -0.0044286908 -0.14097312 0.056987066 -0.1937441 -0.090250164
0.12461964 0.0071108723 0.07391138 -0.02764359 -0.016117804 0.1484543 0.17599562 -0.010355273
-0.00018742777 -0.070831336 0.046607025 0.09925929 0.14396705 0.032648765 -0.01851578 -0.112545095
0.068458 0.055731826 0.06919472 -0.09080537 0.03674957 0.11155582 0.1329902 0.06902663
0.08432684 -0.032417495 0.14586216 0.14291592 0.063106276 0.05302999 -0.06179875 0.04877511
-0.18393303 -0.06842937 -0.07474341 0.1347881 0.10534952 0.11022086 -0.1420743 0.026372522
0.1507967 0.041525505 0.0046582636 0.026044806 -0.116718955 0.04142409 -0.058259502 0.08716432
-0.026262958 -0.06063724 0.10145389 -0.066346794 0.13924237 -0.108084664 -0.005360685 0.25536966
0.020154161 -0.058569822 -0.103992246 -0.05427565 0.00873704 -0.041720167 -0.11724401 0.070932396
-0.05394582 -0.015234624 0.17672041 -0.06267623 0.0040157153 -0.036678057 -0.037767105 0.0493745
0.10874923 -0.1641717 -0.13319017 0.03215166 0.07086632 0.06113752 0.14546464 0.02840196
-0.073165186 -0.030601058 0.08804034 0.055278394 -0.09543567 0.109035656 -0.025958043 0.061228056
-0.1274209 0.08822522 0.104175515 -0.123378724 0.033518203 -0.11231512 0.05217803 0.0047174776
0.120121434 0.07788249 -0.05623826 0.22385561 -0.07360234 -0.051253393 0.020620799 0.013998461
0.243987 0.16173439 0.030546127 0.15863636 0.06460277 0.07419071 -0.1699099 0.24137416
-0.037532903 -0.008456858 -0.050585408 0.027447453 -0.020548923 -0.08212654 0.076310225 0.1326067
0.08962647 -0.020126121 0.035616145 -0.12124523 -0.074336424 -0.14191715 0.14593904 -0.012948885
0.03677083 0.011546927 -0.20525968 -0.055395674 -0.00566612 0.103668235 0.19002517 -0.006318642
0.08750345 -0.020624984 0.14903398 -0.033432044 0.071549885 0.09804075 -0.06736202 0.032473408
0.089239076 0.07734257 0.20861526 0.030959755 -0.09123994 0.08113902 -0.15402001 0.14749652
0.062698625 -0.14921044 0.08241956 0.055183362 0.014852421 0.010330744 -0.04985222 0.16238862
0.023035884 0.13009599 0.13200217 -0.07274952 0.1660759 0.046445116 -0.095691115 0.13398272
0.069646254 -0.004396751 0.104188114 0.09512239 0.05542994 0.18781522 -0.10673581 0.12872106
-0.014187304 0.06986809 -0.1541856 0.017001387 0.15842491 0.109933056 0.0034355568 -0.035495527
-0.046404764 -0.1183472 0.0722222 -0.02897453 -0.020824408 -0.028907763 -0.11495329 -0.088170916
0.117514834 -0.018325098 -0.07337566 0.023927452 0.1918682 -0.07218113 0.19234596 0.13655065
0.12211405 0.21383324 0.08001516 0.14506882 0.020507704 0.0454674 0.10895547 0.082616374
-0.0848426 0.05707112 0.119569 -0.09200921 0.00035117657 -0.0070616216 -0.129525 0.0060286405
-0.090859815 0.08533075 -0.108366065 -0.08264372 0.12764849 -0.022447936 -0.125284 0.091006845
00000000: 53f5 aa3d 2fb4 333d 4803 333d 9c68 403e
00000010: e2be e33d adb6 ed3d 31ef 1e3c 8a06 db3d
00000020: 5f9e 0b3e 6c6c 59bd c337 e0bb 3bc9 a03c
00000030: 1199 dc3d cc57 443d 158b 0a3e c77e bebb
00000040: 07e7 20bc e03f 55be 50cd 4f3e a69e 2abe
00000050: 623f babc 5bd9 dd3d caed 4d3c 4655 083d
00000060: 60c5 debd 6deb edbd 8cce 6fbc 8d1e 91bb
00000070: 425b 10be 456b 693d da64 46be 14d5 b8bd
00000080: 9538 ff3d 5202 e93b d95e 973d cf74 e2bc
00000090: 7c09 84bc 6704 183e 3238 343e 2aa9 29bc
000000a0: 4288 44b9 0510 91bd 02e7 3e3d 7448 cb3d
000000b0: 196c 133e b6ba 053d 68ae 97bc 0b7e e6bd
000000c0: b533 8c3d 0e47 643d f6b5 8d3d 2af8 b9bd
000000d0: b886 163d 6177 e43d 952e 083e d55d 8d3d
000000e0: 8db3 ac3d 35c8 04bd e45c 153e 8d58 123e
000000f0: dd3d 813d fa35 593d b020 7dbd 69c8 473d
00000100: f158 3cbe b324 8cbd 1313 99bd e405 0a3e
00000110: 7dc1 d73d 79bb e13d ed7b 11be 300b d83c
00000120: 736a 1a3e a616 2a3d 59a4 983b eb5b d53c
00000130: 590a efbd 4eac 293d 84a1 6ebd 3583 b23d
00000140: 6a25 d7bc c15e 78bd 0fc7 cf3d d4e0 87bd
00000150: 8d95 0e3e 7e5b ddbd afa8 afbb d0bf 823e
00000160: 571a a53c e9e6 6fbd e3f9 d4bd 2550 5ebd
00000170: cd25 0f3c c4e2 2abd a11d f0bd 0145 913d
00000180: 4bf6 5cbd a59a 79bc 32f6 343e 655c 80bd
00000190: 4396 833b bb3b 16bd aeb1 1abd ea3c 4a3d
000001a0: ebb7 de3d a01c 28be 0163 08be 76b1 033d
000001b0: 5c22 913d 566b 7a3d aff4 143e 3aab e83c
000001c0: a1d7 95bd 12af fabc 7e4e b43d 996b 623d
000001d0: c773 c3bd 164e df3d f6a5 d4bc 45ca 7a3d
000001e0: a07a 02be 6daf b43d f959 d53d fcad fcbd
000001f0: 624a 093d 7805 e6bd a1b8 553d 1295 9a3b
00000200: 3a02 f63d db80 9f3d 175a 66bd 683a 653e
00000210: d3bc 96bd 14ef 51bd f3ec a83c cd59 653c
00000220: bad7 793e b39d 253e df3b fa3c 9271 223e
00000230: 754e 843d 4df1 973d dcfc 2dbe ca2a 773e
00000240: 1abc 19bd a28e 0abc a532 4fbd 7bd9 e03c
00000250: 3756 a8bc f631 a8bd 8948 9c3d 0dca 073e
00000260: 158e b73d 89df a4bc 3ce2 113d 6b4f f8bd
00000270: b23d 98bd bb52 11be 0b71 153e 8f27 54bc
00000280: 039d 163d 522f 3d3c 982f 52be 93e6 62bd
00000290: dcaa b9bb 0350 d43d f595 423e 9c0c cfbb
000002a0: 0235 b33d baf5 a8bc 5d9c 183e 0af0 08bd
000002b0: bf88 923d 97c9 c83d 19f5 89bd d602 053d
000002c0: fac2 b63d c865 9e3d 3d9f 553e 509f fd3c
000002d0: 01dc babd 372c a63d 6cb7 1dbe 5409 173e
000002e0: 2368 803d 9fca 18be 96cb a83d f307 623d
000002f0: 9257 733c 4842 293c d731 4cbd 3449 263e
00000300: c0b5 bc3c e237 053e 942b 073e b3fd 94bd
00000310: cd0f 2a3e 3c3d 3e3d b4f9 c3bd c432 093e
00000320: b2a2 8e3d 9f12 90bb 9460 d53d 87cf c23d
00000330: 810a 633d a252 403e 4e98 dabd 74cf 033e
00000340: de71 68bc 0017 8f3d d4e2 1dbe 7e46 8b3c
00000350: 243a 223e 9524 e13d 1427 613b c263 11bd
00000360: ec12 3ebd 0460 f2bd 3ce9 933d fe5b edbc
00000370: f397 aabc f9cf ecbc a16c ebbd f492 b4bd
00000380: 9eab f03d 841e 96bc fa45 96bd 8103 c43c
00000390: 1979 443e b3d3 93bd 57f6 443e efd3 0b3e
000003a0: ee16 fa3d 1af7 5a3e fdde a33d ec8c 143e
000003b0: c6ff a73c 063c 3a3d 0c24 df3d c632 a93d
000003c0: f5c1 adbd 68c3 693d 98e0 f43d 536f bcbd
000003d0: 1f1e b839 2d65 e7bb 34a2 04be e78b c53b
000003e0: b614 babd e3c1 ae3d 07ef ddbd 1c41 a9bd
000003f0: 49b6 023e bce4 b7bc 734a 00be cc61 ba3d

encoder2.gru.weight_hh_l0 f4 [144, 48]
0.07448836 0.037076034 0.11478407 -0.11292121 -0.09220649 0.044944372 -0.054585338 -0.04589416
0.15756772 -0.069029436 0.06243218 -0.073836654 -0.088560194 -0.076989755 0.080093235 -0.19592014
0.12162871 -0.029726835 0.083361484 -0.052979644 -0.031184794 0.029226571 0.13220876 0.041746214
0.044065114 0.038549658 -0.0014544573 -0.07465611 0.018131299 -0.15143344 0.09288973 -0.07485615
-0.08455252 -0.036364686 0.16135561 -0.10539515 -0.06407199 -0.07624075 0.103792265 -0.11459854
-0.08608757 0.011459442 0.03635616 -0.056699306 0.1739816 0.034256607 -0.04114945 0.20402324
-0.0884707 -0.2526249 -0.051507033 -0.03320486 -0.09377248 -0.14522953 -0.08173882 0.015503476
0.10576545 0.029734239 -0.08230339 -0.011375138 -0.08178292 -0.11028483 -0.13581032 -0.06703912
0.0044836933 -0.10259616 0.04748679 0.071261816 -0.12415884 -0.13116264 0.1987654 -0.04231168
0.009445222 0.08312515 -0.11886941 -0.13830715 -0.11845232 -0.11656732 -0.050259784 -0.07945672
-0.009975566 -0.048209377 0.07734464 -0.026209468 0.0026500581 -0.104395114 0.06140497 0.13992919
-0.14443049 0.08759053 0.066178426 0.09121255 0.011834027 0.195286 -0.011185543 0.084452145
0.12682655 0.0900577 0.030291526 0.06899722 -0.11244489 0.0140832495 0.053172227 -0.07171117
0.07890174 0.21625796 -0.037191574 -0.16548298 -0.10346554 0.017934594 0.07405767 0.09385093
0.09436654 0.095571764 0.07309622 -0.19760245 -0.048331622 0.053096578 -0.00028786078 0.070990756
-0.18599506 -0.22736846 -0.05950564 0.17595011 0.04641577 0.047522414 -0.030847212 -0.12851232
-0.0129155675 -0.016765377 0.03187428 -0.08717885 0.035523817 -0.061465107 0.14980982 0.043729078
0.03767494 0.14777908 0.008098563 -0.080469094 0.14406613 0.21738364 -0.06288024 -0.07739798
0.08886617 0.18344288 -0.029872553 0.16292347 -0.08297659 -0.032918178 0.13084395 -0.1989062
-0.03347539 -0.032286867 0.046726096 0.051826537 -0.002158995 -0.027084472 0.01804158 0.06324595
-0.16865659 0.19237913 -0.037237022 0.08938079 0.00022157734 -0.07230364 -0.11819963 0.1375318
-0.10568103 0.089321256 0.09675047 -0.06704814 0.108899154 -0.062847935 0.05964589 0.079549275
-0.05740451 0.13963819 0.054511055 -0.038844835 -0.06188032 -0.028017765 0.06266529 -0.17210133
-0.010446196 -0.18857199 -0.11478537 0.068887584 0.11183756 -0.11741947 -0.15395415 0.15821823
0.16131501 0.01179692 -0.08887299 -0.003141513 0.05930262 -0.10629039 0.034273047 0.06547439
-0.09271433 0.09478191 -0.03808431 -0.08048611 0.07992166 -0.09811206 0.14684239 -0.11391531
-0.009277145 -0.009915583 0.0723788 0.037676036 -0.014547322 0.10427144 -0.0020384626 -0.0023683677
0.020821443 0.14563927 -0.06985236 0.039852526 0.0030382667 -0.010016286 0.102614634 0.011102313
-0.05873199 0.054935697 -0.03472407 0.006573201 0.12301647 -0.036741793 -0.04837107 0.092563465
0.11316594 -0.013764047 0.051772412 0.16994704 -0.06741193 -0.16593231 0.08658903 0.06992875
0.15652107 -0.025067981 0.16590178 0.23411962 -0.037711393 -0.044699308 0.18558899 -0.08618169
-0.0035411587 0.05447798 -0.044231527 -0.08841314 0.123527534 0.09628595 -0.06281768 -0.09846592
00000000: 5a8d 983d 0add 173d e913 eb3d 3c43 e7bd
00000010: c2d6 bcbd 9717 383d e094 5fbd 84fb 3bbd
00000020: 6f59 213e 4e5f 8dbd e3b8 7f3d ac37 97bd
00000030: 0c5f b5bd ceac 9dbd ec07 a43d 4a9f 48be
00000040: 7918 f93d b185 f3bc 6db9 aa3d 2f01 59bd
00000050: 4177 ffbc 906c ef3c bc61 073e 14fe 2a3d
00000060: 9f7d 343d 3fe6 1d3d 7da3 beba 4de5 98bd
00000070: 1788 943c 5e11 1bbe f93c be3d 2e4e 99bd
00000080: df29 adbd 23f3 14bd 683a 253e 6ad9 d7bd
00000090: 2d38 83bd 1c24 9cbd 0a91 d43d a4b2 eabd
000000a0: ae4e b0bd 62c0 3b3c 32ea 143d 883d 68bd
000000b0: 3c28 323e a850 0c3d 538c 28bd 78eb 503e
000000c0: 2030 b5bd 0d58 81be 0af9 52bd d201 08bd
000000d0: c90b c0bd 0db7 14be af66 a7bd 4b02 7e3c
000000e0: 8e9b d83d 3895 f33c ae8e a8bd c95e 3abc
000000f0: ce7d a7bd 03dd e1bd dc11 0bbe ce4b 89bd
00000100: f2eb 923b ef1d d2bd 8281 423d b7f1 913d
00000110: fd46 febd 804f 06be 2889 4b3e 034f 2dbd
00000120: 22c0 1a3c 853d aa3d ce71 f3bd 64a0 0dbe
00000130: 2197 f2bd d9ba eebd 34dd 4dbd 34ba a2bd
00000140: 8e70 23bc 3277 45bd de66 9e3d 3db5 d6bc
00000150: 99ac 2d3b 1bcd d5bd c783 7b3d 9949 0f3e
00000160: 96e5 13be aa62 b33d 8e88 873d a5cd ba3d
00000170: 82e3 413c 0ef9 473e 9143 37bc 3ff5 ac3d
00000180: d2de 013e 2c70 b83d ef25 f83c 6a4e 8d3d
00000190: 8249 e6bd 6ebd 663c 1fcb 593d 4edd 92bd
000001a0: 3c97 a13d ba72 5d3e 3156 18bd 5f74 29be
000001b0: bee5 d3bd 92eb 923c 8cab 973d eb34 c03d
000001c0: 3f43 c13d 21bb c33d 79b3 953d 4c58 4abe
000001d0: 61f7 45bd cc7b 593d 05ec 96b9 9a63 913d
000001e0: 7d75 3ebe 47d3 68be 30bc 73bd 442c 343e
000001f0: 761e 3e3d dda6 423d 4bb3 fcbc bc98 03be
00000200: d19b 53bc 8b57 89bc 9b8e 023d d38a b2bd
00000210: 6c81 113d d6c2 7bbd bf67 193e 431d 333d
00000220: 0a51 1a3d 6653 173e d6af 043c fbcc a4bd
00000230: 1286 133e d199 5e3e 5bc7 80bd d582 9ebd
00000240: 77ff b53d 73d8 3b3e 49b7 f4bc 69d5 263e
00000250: a1ef a9bd 36d5 06bd f5fb 053e 11ae 4bbe
00000260: 7e1d 09bd 3c3f 04bd dd63 3f3d 1048 543d
00000270: ed7d 0dbb 41e0 ddbc f0cb 933c 1887 813d
00000280: 50b4 2cbe 09ff 443e d985 18bd 470d b73d
00000290: 3757 6839 ee13 94bd a612 f2bd 23d5 0c3e
000002a0: 4c6f d8bd 10ee b63d 1c25 c63d 8950 89bd
000002b0: 8506 df3d 6bb6 80bd 404f 743d bbea a23d
000002c0: fe20 6bbd 50fd 0e3e fc46 5f3d c31b 1fbd
000002d0: 3876 7dbd 8385 e5bc a956 803d 553b 30be
000002e0: 8626 2bbc 0419 41be 9814 ebbd ef14 8d3d
000002f0: 170b e53d 9e79 f0bd 28a6 1dbe f603 223e
00000300: c32f 253e de47 413c 0b03 b6bd d8e1 4dbb
00000310: 4ee7 723d c7ae d9bd e561 0c3d 7017 863d
00000320: 03e1 bdbd 051d c23d 4bfe 1bbd e7d5 a4bd
00000330: f8ad a33d faee c8bd da5d 163e 6e4c e9bd
00000340: 2bff 17bc f874 22bc 563b 943d 3052 1a3d
00000350: e457 6ebc 448c d53d ba97 05bb 9e36 1bbb
00000360: bb91 aa3c 7622 153e c10e 8fbd 673c 233d
00000370: a81d 473b 591b 24bc 9f27 d23d 7ae6 353c
00000380: f590 70bd 4104 613d d43a 0ebd 0264 d73b
00000390: 0ff0 fb3d 907e 16bd be20 46bd ea91 bd3d
000003a0: 8bc3 e73d 9982 61bc 4f0f 543d 9906 2e3e
000003b0: 440f 8abd 29ea 29be 9755 b13d ce36 8f3d
000003c0: 0f47 203e 5e5b cdbc 28e2 293e 0ebd 6f3e
000003d0: 4377 1abd 9f16 37bd 0a0b 3e3e 0780 b0bd
000003e0: c912 68bb 4d24 5f3d 1e2c 35bd f311 b5bd
000003f0: 01fc fc3d 9131 c53d 8ea6 80bd 80a8 c9bd

encoder2.gru.bias_ih_l0 f4 [144]
-0.057075102 0.06383365 -0.13946079 0.14231633 -0.007915782 0.040294137 0.1483134 0.059910893
0.25601348 -0.10752546 0.024497777 0.17990206 0.08319318 0.12179436 -0.009649549 -0.064361915
0.221229 0.0978284 0.12035297 0.12849942 0.18682878 -0.012908437 0.17354293 0.11800992
0.06674228 0.030247917 0.046052203 0.09320988 0.020504719 0.13792242 -0.06334238 -0.05187481
0.13339677 0.037353147 0.07956834 -0.0050761006 0.12158356 -0.09483349 0.048709434 -0.11116612
0.023217116 0.031921066 0.06674203 0.0553049 0.021499222 0.033722162 -0.09182101 0.058640387
-0.11308788 -0.04240324 -0.17397867 -0.03058585 -0.10923587 -0.06913511 -0.049135946 0.11529271
-0.041952513 0.056215677 -0.04322546 0.1262514 0.108511716 -0.08440556 -0.08679847 -0.13117531
-0.1620026 0.09179738 -0.05464091 0.027186345 -0.20083165 -0.02843218 -0.004002184 0.117793895
-0.050016947 -0.059948213 -0.061853938 -0.13046834 0.04532781 -0.07455747 0.047836594 0.13401096
-0.06994362 -0.030184932 0.08102695 -0.08660428 -0.022416735 -0.06837765 0.006838225 0.0028491488
0.0073570837 -0.1484624 -0.12397316 0.085238084 0.13765387 0.07112493 -0.085229054 -0.0077019455
0.019661063 -0.1819938 0.13326526 0.11390977 -0.032338906 -0.11113003 -0.15060408 -0.055434152
0.017693847 0.045200236 0.08177807 -0.028451493 0.047354136 0.07686045 0.16357242 0.16311869
-0.08038048 -0.15720508 -0.14373879 -0.006236785 -0.057308283 0.04795621 0.13006687 0.11029693
-0.10906141 -0.10760634 0.09312566 0.023137787 -0.08876939 0.03275057 -0.03500881 -0.14416558
0.06479622 0.1505771 0.058057006 -0.09779101 0.19595128 -0.11124465 0.21889022 0.039744742
-0.059443094 -0.032759164 0.05522605 0.09916405 -0.08724485 -0.017980117 -0.0024590117 0.12275061
00000000: 95c7 69bd 37bb 823d cfce 0ebe 5fbb 113e
00000010: 32b1 01bc 770b 253d 78df 173e 2065 753d
00000020: 3314 833e 4f36 dcbd 90af c83c 3f38 383e
00000030: 3061 aa3d 526f f93d 2419 1ebc 2ed0 83bd
00000040: db89 623e 425a c83d 9e7b f63d 5a95 033e
00000050: 0b50 3f3e e97d 53bc 3db5 313e 2faf f13d
00000060: 2db0 883d 7bca f73c 3ca1 3c3d d2e4 be3d
00000070: 83f9 a73c 893b 0d3e a6b9 81bd ae7a 54bd
00000080: 2a99 083e 9dff 183d baf4 a23d 6b55 a6bb
00000090: cd00 f93d 1038 c2bd 8b83 473d 10ab e3bd
000000a0: d231 be3c aabf 023d 0cb0 883d 6487 623d
000000b0: 231f b03c 4020 0a3d a70c bcbd e730 703d
000000c0: 9e9a e7bd 05af 2dbd 7727 32be 2d8f fabc
000000d0: 0eb7 dfbd b596 8dbd c642 49bd 961e ec3d
000000e0: 66d6 2bbd 6942 663d 2e0d 31bd 0c48 013e
000000f0: 643b de3d d2dc acbd 65c3 b1bd d252 06be
00000100: 02e4 25be 4400 bc3d 26cf 5fbd e6b5 de3c
00000110: d0a6 4dbe 9aea e8bc c124 83bb ed3d f13d
00000120: 92de 4cbd 428c 75bd 8e5a 7dbd 7e99 05be
00000130: a7a9 393d 96b1 98bd 4ef0 433d 2b3a 093e
00000140: 9a3e 8fbd 6446 f7bc 75f1 a53d 965d b1bd
00000150: 4da3 b7bc 9509 8cbd 3013 e03b c9b8 3a3b
00000160: b113 f13b 8706 18be a4e5 fdbd 4e91 ae3d
00000170: 23f5 0c3e f3a9 913d 928c aebd 9a60 fcbb
00000180: 3d10 a13c 955c 3abe b076 083e 8749 e93d
00000190: cd75 04bd 2498 e3bd f537 1abe ec0e 63bd
000001a0: b0f2 903c e223 393d 437b a73d 1b13 e9bc
000001b0: 69f6 413d 0369 9d3d 877f 273e 9608 273e
000001c0: 859e a4bd 5efa 20be 4330 13be f25d ccbb
000001d0: 17bc 6abd bb6d 443d 4030 053e 5be3 e13d
000001e0: 975b dfbd b660 dcbd abb8 be3d 758b bd3c
000001f0: bacc b5bd 7625 063d 6665 0fbd 24a0 13be
00000200: e1b3 843d e230 1a3e 2fcd 6d3d a746 c8bd
00000210: 74a7 483e 3cd4 e3bd c224 603e 62cb 223d
00000220: 9a7a 73bd 792e 06bd b634 623d 8516 cb3d
00000230: 6ead b2bd 0a4b 93bc 5f27 21bb ac64 fb3d

encoder2.gru.bias_hh_l0 f4 [144]
-0.024146495 0.015532219 -0.12016384 0.12571973 0.06875066 0.036834467 0.07996995 -0.07320345
0.15826787 -0.09725244 -0.08486517 -0.08441299 -0.046109892 -0.011435801 -0.00028811928 -0.078770496
0.0074007064 -0.13466147 0.097688965 -0.062221143 -0.03496286 -0.11255469 0.06670494 0.19620423
0.14711814 -0.08732166 -0.048717465 0.1625405 0.08740725 0.05072344 0.07486343 0.014478608
-0.11166135 0.03168616 0.14064772 -0.060975585 0.16106586 0.10142253 0.07051802 -0.09535829
0.09927031 -0.09266442 0.22499856 -0.08245333 0.027233768 -0.030544586 0.025353357 0.100743376
-0.20097686 -0.23917392 0.019850928 0.07397676 0.032501493 -0.06853708 0.09661924 0.059377365
0.08887031 0.03138942 0.0750604 -0.053717338 -0.06586664 0.033672746 0.03682949 -0.07447994
0.03795844 -0.03348631 -0.017032148 0.14666349 -0.09146571 -0.1720775 -0.099149674 0.023243152
-0.016867595 -0.15379238 0.17604613 -0.03894248 0.060590565 -0.024078457 -0.09141701 0.0050228727
-0.1665673 -0.052893423 -0.07804346 -0.040054068 -0.0018969325 -0.14521475 -0.079792 0.0076464633
-0.01848852 0.015904913 0.021268917 0.18096432 0.1270466 -0.016637249 0.03825699 -0.006506178
-0.0116523085 -0.17415038 0.12482102 0.14953038 -0.07375235 -0.11567141 0.009254036 -0.055727497
0.13372484 0.096229896 -0.10636688 0.069396675 0.060836777 -0.11082223 -0.017914688 0.13244914
-0.06653415 -0.02392045 -0.11820989 0.024593756 -0.16641164 -0.10127811 0.04876512 0.0058670095
0.08161261 0.06877584 -0.08824009 -0.0699361 -0.16947234 0.22086596 -0.030904034 0.06027986
0.010616293 0.20852238 0.09600154 0.07235061 0.1630308 -0.13641816 0.14566848 0.07143404
-0.0544376 0.06808083 -0.026770514 0.087243654 -0.118332155 -0.10958273 0.116539426 0.082165465
00000000: dfce c5bc d97a 7e3c 7618 f6bd acbc 003e
00000010: 25cd 8c3d bddf 163d 49c7 a33d b1eb 95bd
00000020: f910 223e 4a2c c7bd cacd adbd b8e0 acbd
00000030: badd 3cbd 3a5d 3bbc b70e 97b9 6d52 a1bd
00000040: a081 f23b b2e4 09be 2711 c83d 99db 7ebd
00000050: 3735 0fbd 1383 e6bd 999c 883d c3e9 483e
00000060: 23a6 163e b3d5 b2bd f78b 47bd 0471 263e
00000070: 9302 b33d 62c3 4f3d ff51 993d af37 6d3c
00000080: b5ae e4bd 59c9 013d f505 103e 89c1 79bd
00000090: 73ee 243e 9eb6 cf3d c06b 903d 354b c3bd
000000a0: 3b4e cb3d d8c6 bdbd 0666 663e 4bdd a8bd
000000b0: 5a19 df3c a438 fabc d8b1 cf3c 8b52 ce3d
000000c0: e1cc 4dbe 02ea 74be 6a9e a23c 2181 973d
000000d0: 4920 053d 2b5d 8cbd 4fe0 c53d ae35 733d
000000e0: a301 b63d 3192 003d 44b9 993d b606 5cbd
000000f0: 17e5 86bd 6fec 093d 85da 163d f088 98bd
00000100: 4f7a 1b3d f128 09bd 0187 8bbc f42e 163e
00000110: 6052 bbbd 1635 30be fc0e cbbd 6c68 be3c
00000120: e92d 8abc c07b 1dbe 7045 343e 2682 1fbd
00000130: d02d 783d 2f40 c5bc d738 bbbd e996 a43b
00000140: 9e90 2abe c6a6 58bd 40d5 9fbd bc0f 24bd
00000150: 7ea2 f8ba 2db3 14be fd69 a3bd 2f8f fa3b
00000160: 3d75 97bc 054b 823c 273c ae3c b64e 393e
00000170: 8118 023e d74a 88bc 5db3 1c3d c731 d5bb
00000180: 53e9 3ebc 7a54 32be 2aa2 ff3d 7e1e 193e
00000190: 790b 97bd 22e5 ecbd 3d9e 173c 8442 64bd
000001a0: 2aef 083e 2e14 c53d e1d6 d9bd d81f 8e3d
000001b0: fc2f 793d c4f6 e2bd d3c1 92bc bfa0 073e
000001c0: 0e43 88bd d2f4 c3bc 0718 f2bd d878 c93c
000001d0: d067 2abe e66a cfbd efbd 473d 0b40 c03b
000001e0: 8324 a73d 59da 8c3d 38b7 b4bd a83a 8fbd
000001f0: 288a 2dbe b02a 623e 752a fdbc 04e8 763d
00000200: f6ef 2d3c e486 553e 759c c43d 8e2c 943d
00000210: 8cf1 263e 34b1 0bbe 1e2a 153e 034c 923d
00000220: f6f9 5ebd f66d 8b3d d64d dbbc cdac b23d
00000230: 2158 f2bd e96c e0bd 39ac ee3d 5e46 a83d

cvae.fc1.weight f4 [48, 96]
0.062532365 0.04997015 0.10001687 -0.09554921 0.07413725 0.104942955 0.07958514 -0.022015883
-0.042897865 -0.0058482112 -0.034185536 -0.06571361 0.018267404 -0.06548243 -0.07039352 0.01867793
-0.076683186 0.0064959032 0.06575349 0.09014269 -0.01723357 0.055729523 -0.036654238 -0.059064154
0.07930432 -0.097753786 -0.025495715 -0.04967218 -0.006795107 -0.062454395 -0.042089675 0.08850239
-0.07960341 0.0848434 -0.07887971 -0.09819825 -0.007575947 0.013745226 0.061570056 0.07121304
-0.029817643 -0.053030312 -0.06677154 -0.084472366 -0.018223548 0.044924475 -0.019256322 -0.018040454
-0.0012474934 0.087808795 -0.005043261 -0.07710444 0.06619254 0.055807427 -0.027191347 0.025988389
-0.02412157 0.046451945 0.009999873 0.05859313 0.04944368 0.07392428 0.056281976 0.06471514
-0.09751618 0.12744828 0.07336909 -0.09865132 -0.013293221 -0.0667166 -0.05460282 0.09050797
-0.06384685 -0.042503327 -0.0672322 0.03624284 -0.05845572 -0.087799355 0.003917166 -0.111539006
0.048257872 -0.04307637 -0.03802238 -0.006625594 -0.006636024 0.042558648 0.082400344 0.10237873
0.05373224 0.06190922 -0.06548718 -0.057213873 0.015319647 -0.001330368 0.0013993583 -0.123072274
0.07311265 0.019217093 -0.040061377 -0.006530495 0.07628339 -0.04482759 -0.004266294 0.0031297738
-0.046345316 -0.038407058 -0.0108341705 -0.06394745 0.055897515 0.056057725 -0.07206957 0.098745026
-0.015513267 -0.096405976 0.09524332 -0.019835496 -0.080731615 -0.058745753 -0.090551466 0.05755348
0.0073800692 0.003224695 0.08454122 -0.09939406 -0.07725707 0.054972026 -0.06655778 0.09804083
0.06892327 -0.030802676 -0.011707331 -0.06566253 -0.029181542 -0.05090987 -0.093063764 -0.11403581
0.100734115 0.017488299 0.01036938 -0.043198045 -0.024874019 -0.023354301 0.05493874 0.06035343
0.030670589 -0.0096394345 -0.019004399 -0.09226377 0.07228991 -0.051615283 -0.085806265 0.04411333
0.08314652 0.124282315 0.077160746 -0.08387222 0.01592655 0.025330326 -0.06163252 0.061379775
0.02661616 0.08449448 0.05991906 -0.043887082 0.096751966 0.08414429 -0.12608507 0.08502117
0.020020952 -0.0112143 0.006251671 0.067064546 0.008472614 -0.10764295 0.051703084 -0.10871311
-0.1391687 0.03982583 0.062064137 -0.0396373 -0.08136962 -0.026648581 -0.010451392 -0.011318559
-0.06247574 0.008501159 0.027222734 -0.07493887 0.09099413 -0.016029036 -0.004942428 -0.06519297
0.028367154 -0.012315137 0.024017753 -0.07396593 0.028932733 0.060840875 -0.07222843 0.013483332
-0.025153197 -0.018422116 0.088868 0.0693008 0.0385596 -0.070995376 0.0543344 0.10997219
-0.019667571 0.027611474 0.06771001 -0.05109742 0.012517459 -0.091967076 0.045982927 0.025685243
-0.020674763 -0.068998605 -0.055261645 -0.009990084 0.062776275 -0.009466495 -0.09960469 0.094247654
0.086283565 0.03698583 -0.11677817 -0.05122938 0.045974918 0.073320635 -0.056902364 -0.006595607
0.040088467 0.01741586 -0.088376075 -0.060418863 0.09809107 -0.015112278 0.024385968 0.08424358
0.11404348 -0.067422256 -0.025122192 0.06856204 -0.11918219 -0.0026369337 0.096553735 -0.01589265
-0.060886666 0.061504714 0.020411026 0.11293813 0.050613627 0.086096115 0.13485987 -0.022207234
00000000: f810 803d 80ad 4c3d a5d5 cc3d 4eaf c3bd
00000010: 45d5 973d 55ec d63d 89fd a23d a75a b4bc
00000020: acb5 2fbd 5aa2 bfbb 2206 0cbd db94 86bd
00000030: 86a5 953c a71b 86bd 7a2a 90bd 7502 993c
00000040: 130c 9dbd 96db d43b c4a9 863d bb9c b83d
00000050: 6a2d 8dbc a444 643d c122 16bd 41ed 71bd
00000060: 4e6a a23d 2333 c8bd 64dc d0bc 0e75 4bbd
00000070: 7da9 debb 2ed0 7fbd 3966 2cbd be40 b53d
00000080: 1d07 a3bd 60c2 ad3d af8b a1bd 2a1c c9bd
00000090: a63f f8bb a833 613c e230 7c3d 24d8 913d
000000a0: 2144 f4bc 5036 59bd 84bf 88bd d9ff acbd
000000b0: 8d49 95bc ba02 383d 6fbf 9dbc 93c9 93bc
000000c0: ef82 a3ba 19d5 b33d f141 a5bb efe8 9dbd
000000d0: f48f 873d 5496 643d 63c0 debc 9ae5 d43c
000000e0: 999a c5bc 6544 3e3d 82d6 233c 5aff 6f3d
000000f0: 7585 4a3d 9d65 973d ee87 663d 5f89 843d
00000100: 90b6 c7bd cd81 023e 8942 963d b409 cabd
00000110: cfcb 59bc b6a2 88bd 35a7 5fbd 3e5c b93d
00000120: 23c2 82bd f817 2ebd 09b1 89bd 5f73 143d
00000130: 446f 6fbd 26d0 b3bd 925b 803b 906e e4bd
00000140: 0caa 453d d970 30bd 5bbd 1bbd 831b d9bb
00000150: 0173 d9bb fa51 2e3d 83c1 a83d f1ab d13d
00000160: 5616 5c3d 8694 7d3d 251e 86bd 1859 6abd
00000170: 42ff 7a3c be5f aeba ac6a b73a 510d fcbd
00000180: 16bc 953d 2a6d 9d3c 6617 24bd c3fd d5bb
00000190: 773a 9c3d 239d 37bd 45cc 8bbb e41c 4d3b
000001a0: 96d4 3dbd b850 1dbd ce81 31bc e1f6 82bd
000001b0: cbf4 643d c99c 653d 3699 93bd d53a ca3d
000001c0: 5c2b 7ebc 7f70 c5bd ee0e c33d 0d7e a2bc
000001d0: 9e56 a5bd 639f 70bd 0c73 b9bd 33bd 6b3d
000001e0: 82d4 f13b 6855 533b f223 ad3d 1d8f cbbd
000001f0: f438 9ebd 592a 613d 724f 88bd a1c9 c83d
00000200: a527 8d3d e555 fcbc 1bd0 3fbc 147a 86bd
00000210: 210e efbc de86 50bd 3798 bebd 9b8b e9bd
00000220: b04d ce3d 9f43 8f3c 55e4 293c 6ff0 30bd
00000230: 99c4 cbbc 8551 bfbc 7207 613d 2935 773d
00000240: e340 fb3c b8ee 1dbc 1daf 9bbc caf4 bcbd
00000250: bb0c 943d 8c6a 53bd 32bb afbd 2eb0 343d
00000260: b948 aa3d ba87 fe3d 7406 9e3d 33c5 abbd
00000270: 6578 823c 8b81 cf3c 6272 7cbd 5c69 7b3d
00000280: 220a da3c 710b ad3d b06d 753d f1c2 33bd
00000290: e525 c63d d753 ac3d 721c 01be 941f ae3d
000002a0: fb02 a43c 2fbc 37bc d1da cc3b 2359 893d
000002b0: b8d0 0a3c e873 dcbd 9dc6 533d fba4 debd
000002c0: 3d82 0ebe 6920 233d f736 7e3d b95a 22bd
000002d0: 1ea5 a6bd 204e dabc 513c 2bbc 7a71 39bc
000002e0: 90e6 7fbd 7248 0b3c 3602 df3c 8d79 99bd
000002f0: 215b ba3d 534f 83bc 17f4 a1bb e483 85bd
00000300: 3c62 e83c 6ec5 49bc e1c0 c43c 737b 97bd
00000310: 5704 ed3c 4834 793d 80ec 93bd 31e9 5c3c
00000320: 140e cebc fae9 96bc 6d00 b63d 94ed 8d3d
00000330: acf0 1d3d 0666 91bd bf8d 5e3d 1939 e13d
00000340: e31d a1bc 7531 e23c 8cab 8a3d 874b 51bd
00000350: 0716 4d3c 3c59 bcbd 9858 3c3d dc69 d23c
00000360: 1f5e a9bc 244f 8dbd 095a 62bd 73ad 23bc
00000370: d990 803d 5c19 1bbc 8bfd cbbd ea04 c13d
00000380: 70b5 b03d 747e 173d 6529 efbd e6d5 51bd
00000390: 3250 3c3d 2129 963d 7412 69bd f61f d8bb
000003a0: ce33 243d b5ab 8e3c 84fe b4bd c579 77bd
000003b0: f9e3 c83d 7d99 77bc 15c5 c73c e687 ac3d
000003c0: a18f e93d ae14 8abd 0ecd cdbc 416a 8c3d
000003d0: cb15 f4bd 68d0 2cbb f7bd c53d 4d31 82bc
000003e0: 4c64 79bd 5eec 7b3d 0635 a73c 1b4c e73d
000003f0: 3c50 4f3d 2953 b03d b518 0a3e f2eb b5bc
