save/sample_generator.pt (torch_old, 184132 bytes, 26 tensors)

encoder1.conv.weight f4 [16, 2, 3]
00000000: f65a 93be 37ee a9be 11bd aa3e f797 d3bd
00000010: b860 36be 5568 27bd a104 9ebe 6b51 b63e
00000020: 80cc 2d3e d7c7 adbc c3c4 74bd 6392 923e
00000030: 96ab c4bd ec4d bb3e ad05 db3e 0f8f 8dbe
00000040: 5872 c73e 45db 583e 7016 cfbe ffdd 063d
00000050: 37fb 14be 8b3b c33e 396c 2ebc 147a 3b3e
00000060: f0d0 6dbe 2b6e 7d3e 0392 33be e644 52be
00000070: 9bda 923e 31d0 96be c1f7 973d 72cd be3e
00000080: 1d0c c23e 48a5 8c3d 60dc bcbd 3471 b23b
00000090: 7247 c3bc b893 263d 5fb3 2b3e bc94 843d
000000a0: af64 c1bd df25 803d 81a4 a7bd ea2d 04be
000000b0: 05d7 a6be 9ac3 af3e dcad e93d 9b38 9cbe
000000c0: 04c3 c03d 1c97 77be 43e0 6d3e 0df4 873e
000000d0: 09e0 abbd 8c0a bebd 03a5 11be 7db8 a83d
000000e0: 9dae b93e d106 3ebe c1d4 b3bd ca58 3ebe
000000f0: 09f8 8abe 1011 cf3c 97f9 423e d699 ae3d
00000100: 53a1 aabd d0e6 6abe 351b 9fbe 5bbf 6e3e
00000110: 79e3 ff3c 01fb a53e 5f3c 81be 663c 6c3e
00000120: 4e0b 59be aa42 7d3e 1774 393b a110 25be
00000130: 832a 91be 1eae e0bc b040 32be 85d3 023d
00000140: 112e b4be 5cb1 30bd 503d 0ebd a8d4 9ebd
00000150: e379 85be 143c 8cbd 0da6 9e3e f3a0 7bbe
00000160: 6b56 cc3e 29e9 7c3e f97e 97be cef7 d63e
00000170: 74bf c23e 86d4 63be c70d bb3d a31e 263e
-0.28780335 -0.33189556 0.3334737 -0.10331719 -0.17810333 -0.040870983 -0.30862907 0.35608992
0.16972542 -0.021213455 -0.05975796 0.2862731 -0.0960304 0.36582887 0.42777768 -0.27648208
0.38954425 0.21177395 -0.40446806 0.032926556 -0.14548956 0.38131365 -0.0106459195 0.18308288
-0.23224235 0.24749057 -0.17536168 -0.20534095 0.28682408 -0.29455712 0.07420302 0.37266117
0.37899867 0.068674624 -0.09221721 0.005445624 -0.023837779 0.04066822 0.16767643 0.06473681
-0.09443032 0.06257223 -0.081856735 -0.1290814 -0.32585922 0.3432892 0.11410114 -0.30511937
0.09412196 -0.24178737 0.2323008 0.26553383 -0.08392341 -0.092793554 -0.14223103 0.08238313
0.36266032 -0.18557288 -0.08780814 -0.18588558 -0.2714236 0.02527669 0.19040523 0.085254356
-0.083315514 -0.2293961 -0.31075445 0.23315184 0.031236397 0.32418063 -0.25241372 0.23069915
-0.21195719 0.24732462 0.0028297955 -0.16119625 -0.28352746 -0.027426776 -0.17407489 0.031940002
-0.35191396 -0.043137893 -0.03472644 -0.07755405 -0.26069555 -0.068473965 0.30986062 -0.24573116
0.39909682 0.24698319 -0.2958906 0.41985935 0.38036692 -0.2224904 0.09133487 0.16222624

encoder1.conv.bias f4 [16]
00000000: 2020 84be 056f 453e 8568 903e 7c83 973e
00000010: 65fe b2be 929b c53d 880d b03e edd7 cb3e
00000020: 6395 d03c 3af3 73be 5890 c33e 56f7 2abd
00000030: f4cc 673e e964 1f3d d49a bbbe bc60 27be
-0.2580576 0.19280632 0.28204742 0.29592502 -0.34959713 0.09648813 0.34385324 0.39813176
0.025461858 -0.23823252 0.38196063 -0.041739784 0.22636777 0.038914595 -0.36641562 -0.16345495

encoder1.gru.weight_ih_l0 f4 [144, 16]
00000000: 7f8a c53d fc5e 8a3d 2b75 953a 4378 dcbd
00000010: cc40 0b3e b91c 023e bbce 103e 0a89 5b3d
00000020: 91b0 bc3b 9103 fbbd 5ab8 d43d b4f1 4bbd
00000030: a990 c3bd 8225 b0bd 06c3 bdbc 1964 3e3d
00000040: bbe9 933d 301c eb3d 5567 e5bd 0293 d93d
00000050: 4bed f73d 3c41 f6bd 8414 893d a7d8 cd3d
00000060: f213 b9bc e60b 7e3d 2f58 853d aa0f 0c3d
00000070: 4c76 afbd 1b7c 343d 1cca c33d 2ce9 0c3e
00000080: 5c9c f8bd 29cd a2bd 9a80 14bd d2fd aa3d
00000090: 9c95 22bc acde e2bc f9fa c63d 3578 b3bd
000000a0: a199 1bbe f5b1 e83d c5c7 213e 7cde 13bd
000000b0: 3375 ad3d 1c68 a9bd 01af a93d a82d ba3d
000000c0: bb98 ce3d e401 9c3d 7c4f 0b3e 8f78 b5bd
000000d0: 9640 3f3c ac0d f8bd 8d04 d9bd a4a4 aa3d
000000e0: 5436 e3bd 22af 303d d5b6 cbbd 2d49 e4bd
000000f0: f49e f63d 596e 653d 2e2b 143e acb8 dbbd
00000100: dc95 0bbe 9b89 883d a866 5bbd 88f3 ecbd
00000110: 4ee4 dbbc 125c 42bd f12b a63d 4836 f23d
00000120: 9895 09be fcd8 f63d ab5d fa3c d7dd 81bd
00000130: 92f8 073c 1a4c 91bc 6b06 b4bc 604f 57bd
00000140: 7169 61bc 4807 053e 7615 5dbd 9c93 febc
00000150: 8a8e b53d 7999 c8bd d618 893d c7d9 bcbc
00000160: 28b4 21bd a2ef fbbd e29f 23be 0bd7 fe3d
00000170: 7530 1fbe 92d0 01be fc4b 043e b930 db3c
00000180: 81b8 223d c9ec d03c 70c5 953d 8f92 883d
00000190: cfe5 7f3d 89f5 893d c31e 133e 01b0 5cbd
000001a0: 18f1 76bd c989 f03c 11f5 023d 4a2f 56bd
000001b0: b817 a03d 7576 0f3d 5cc5 c83d d00e 19be
000001c0: ceb5 a43c c69a 8e3d 24f2 dfbd 421f 43bc
000001d0: 8b90 db3d 6091 8f3d 6d3f b7bd 78fa afbd
000001e0: 67f9 7ebc 6bae 5a3d 70bf 773c ffe1 463d
000001f0: 5548 223e 8ab4 283d 76df 3d3d 3eb6 b83d
00000200: ba53 9d3d 3541 0e3e 7bbd b53d 5599 11bd
00000210: d8dc e3bc 2446 97bd 5513 dbbc 8a11 953d
00000220: fb00 7cbd 009b 1a3c 48d3 393d 1aee 633d
00000230: 44d4 f7bd 3f42 373c e9e0 00bc 35d0 1c3e
00000240: 7842 82bd 6901 e53d ecd1 2f3c beab 03bd
00000250: 1215 353c 929d ae3d b96b 213d 5500 223d
00000260: 2025 a73c 0671 8f3d 7287 07bd 842c 993d
00000270: 262a 2bbb d240 fc3d c096 8cbd c6db d3bd
00000280: 7b15 0a3e 828b 7cbd aa71 e83c 412d 34bd
00000290: 247f 04bd 26d1 293c f742 3fbd fcef 0cbe
000002a0: 43b4 18bd 76b4 e83c 2b0b 023e 70f0 33bd
000002b0: 011f 82bd 1be7 afbc a033 de3d c05e 173d
000002c0: b995 1b3e cec5 d03d fadc 00bd 1890 00bc
000002d0: 8874 88bd 20d2 4a3b 785d 063e 5763 21bd
000002e0: 0bd0 0dbc dc65 d6bd b1cd ea3d d370 3bbd
000002f0: 7546 7cbd 59f8 d63c a3a3 eb3d f731 c13d
00000300: 55ac c7bd ed0a 683d c5f1 053e 333d 033e
00000310: dfd9 0c3e 4226 d9bd d579 793d 8c37 1a3d
00000320: d74e bb3d dbbe b9bd 9cea bcbd 8b16 8e3d
00000330: a86e ccbd 6eed 073e d21a 06be a787 123d
00000340: 7d7c b2bd 9774 d13d e743 c6bd 697b 60bc
00000350: ac8c 273d 12e5 e8bb 741d f93d 0d9a 953d
00000360: b768 62bd 046c c5bd bad2 10be e913 f7bd
00000370: 5b85 74bd 792e 07bc 2265 0cbe e28f 80bd
00000380: a166 85bb 35c0 51bc 9424 173e fbc8 9aba
00000390: 1e09 a0bd 6390 c7bc b158 193e 1a22 d73d
000003a0: 34c1 a438 a46f 0cbd 8271 7a3c 14bb 8bbc
000003b0: 057d 763d aa73 b1bc 200c 1d3c 2112 a8bc
000003c0: 994a a63d 3803 1cbd 8fa8 81bd e28c dc3d
000003d0: a383 5cbd a35c 203d 516a 9bbc 0bc7 4b3c
000003e0: 9320 c73d ff93 9b3d 5c26 a13d 1283 193e
000003f0: a5d7 133d ec5c a7bd 567e 84bd e589 95bb
0.09645557 0.06756398 0.0011402717 -0.107651256 0.13598937 0.1270627 0.14141361 0.053597488
0.005758353 -0.122565396 0.10386725 -0.049791053 -0.09549076 -0.08600904 -0.023164283 0.04648218
0.07222315 0.11479986 -0.1120135 0.10623743 0.12105807 -0.12024161 0.06693366 0.10051089
-0.022592518 0.062023066 0.0651096 0.034194626 -0.08567485 0.04406367 0.09560034 0.13760823
-0.12139198 -0.079492874 -0.036255457 0.08349194 -0.009923365 -0.027694069 0.09715838 -0.08763162
-0.15195324 0.113620676 0.15798862 -0.03610085 0.084696196 -0.082718104 0.082853325 0.090907395
0.10087725 0.07617548 0.1360454 -0.08860885 0.011673113 -0.12111983 -0.10596571 0.08332184
-0.11094347 0.04313577 -0.09946982 -0.1114677 0.12042037 0.05601344 0.14469597 -0.10728583
-0.13631386 0.06666871 -0.053564698 -0.115698874 -0.026842263 -0.047451086 0.0811385 0.118267596
-0.13435972 0.12053105 0.030562242 -0.06341141 0.00829901 -0.017736483 -0.021975717 -0.052565932
-0.013758049 0.12991059 -0.053975545 -0.031076245 0.08865078 -0.097948976 0.0669419 -0.023053063
-0.03947845 -0.12301566 -0.15978959 0.1244336 -0.15545829 -0.1267722 0.1291961 0.026756631
0.039726738 0.025503533 0.07313049 0.06668579 0.062475022 0.06736285 0.14367203 -0.053878788
-0.06028852 0.029362576 0.031971995 -0.052291192 0.07817024 0.03502508 0.09803268 -0.14947057
0.020106222 0.069631144 -0.109348565 -0.011909308 0.10720929 0.0701015 -0.089476444 -0.08592695
-0.015562392 0.053388994 0.015121326 0.04855537 0.15847905 0.0411878 0.046355687 0.09019135
0.07681985 0.13892062 0.08874031 -0.03554662 -0.027815267 -0.07386425 -0.026742617 0.07278736
-0.061524373 0.009436369 0.04536751 0.055646993 -0.12101033 0.011185228 -0.007866123 0.153138
-0.06360334 0.111819096 0.010731202 -0.032146208 0.011052387 0.08526148 0.039409373 0.039551098
0.020403445 0.070039794 -0.033088155 0.07479194 -0.0026117652 0.12317051 -0.06864691 -0.10344653
0.13484757 -0.061656483 0.028374512 -0.04398847 -0.032347813 0.010364806 -0.046694722 -0.13763422
-0.037281286 0.028406363 0.12699573 -0.04393047 -0.0635357 -0.021472504 0.108496904 0.036955595
0.15193833 0.10193978 -0.03146074 -0.007846855 -0.066628516 0.0030947998 0.13121593 -0.03940138
-0.008655558 -0.10468647 0.11465014 -0.045761894 -0.06159063 0.026241468 0.115058206 0.09433358
-0.097496666 0.056651045 0.13080509 0.12816314 0.13754986 -0.10603 0.060907204 0.03765063
0.09145897 -0.09069606 -0.09224436 0.069378935 -0.099820435 0.13274166 -0.13096169 0.0357739
-0.087151505 0.10227316 -0.0968092 -0.013701298 0.04090564 -0.0071073854 0.12163821 0.073047735
-0.055275645 -0.09639743 -0.14142886 -0.120643444 -0.05969749 -0.008250826 -0.13710454 -0.062774435
-0.004071072 -0.012802173 0.14760047 -0.0011809164 -0.07814239 -0.024360841 0.1497524 0.10504551
7.856116e-05 -0.034286156 0.015285851 -0.01705698 0.06017782 -0.021661598 0.00958541 -0.020516457
0.08119697 -0.038089007 -0.06330978 0.10769059 -0.053836476 0.039150845 -0.018971594 0.012437592
0.0972301 0.075965874 0.078686446 0.14991406 0.036094327 -0.0817202 -0.06469409 -0.0045635574

encoder1.gru.weight_hh_l0 f4 [144, 48]
00000000: 190f 27bd dc94 eebd 96f1 afbd d771 28be
00000010: 2b13 bcbd e895 09bd b79f 8f3c 8ffa cabd
00000020: cd5d efbd 017a febc a782 f0bd ac29 bbbd
00000030: 2e1e 093e 7253 0d3e a4ae 2e3e 7e3d 963d
00000040: 157e 02bd cfe8 073e e8bf 71bd ea10 503a
00000050: 197a 613d 9d1c 02be 69ad 00be d2f2 153c
00000060: 0def 7b3d ff37 e73d 65f5 b43c ac2e f13d
00000070: db95 21bc 46df 733d 155e 123d 2936 e0bd
00000080: 3634 19be ad10 b6bd e749 a73d f573 f0bd
00000090: c9c4 8bbd f871 27be 8e9b 0c3e f502 d9bc
000000a0: 0819 4f3d 2c6e e8bc 9ecb 833b 7957 723d
000000b0: 219d 8ebd 5665 cabd e3d9 233e 6a31 ea3d
000000c0: 39b4 da3c 527d dd3c 6b01 833d 0817 c0bd
000000d0: 57da c4bd b028 2f3d f5d0 cd3d 2a9a ffbd
000000e0: c9b2 bfbd 930d e23d 0c7a 23bd 8d5d e23c
000000f0: af21 083d 866d 0e3e 220f 8f3c ad0b f7bd
00000100: eb89 f4bd 1086 c4bd 6325 a9bc 68be a53d
00000110: 28af 423d f82d 993d 5c92 bf3c 9300 0e3d
00000120: ca9c a83d cd02 44bd 0b91 56bd eab9 eebd
00000130: 9a33 0abe b9c0 273e 5e7a 843c 6408 053d
00000140: 9ed8 433d 7d48 88bd bf86 06bd 6134 a83c
00000150: c1cc af3d ae43 14be 372c ec3c 5d81 6a3c
00000160: 1a38 b13c 6292 72bd 2f42 a3bd 5fa5 d3bd
00000170: 908c 59bd 4da0 ddbd 7abc 843d f80a 383d
00000180: c41e d1bd 88fd 5c3d 270e bc3d 2ee2 563d
00000190: e9a8 133e 246a 9abd 2c6b f93d 590f 22be
000001a0: 9951 8e3d 3df2 cd3c ccc0 893d edb1 85bc
000001b0: 9210 65bd a40f cebd 3065 cabd c186 b3bd
000001c0: 98f9 24be c221 46bc ca02 c53d 4953 a23d
000001d0: 3395 bd3d ab66 033e 6401 a93d 7c1a 0cbd
000001e0: f244 ec3c 6712 69bc 22cb 1b3e 895a 8cbd
000001f0: 2a20 13be 7267 143e b81b f8bd 6ae0 e0bd
00000200: cfc5 8d3c d478 943d 1dc3 eebc d967 e3bc
00000210: 1a30 febc e880 afbc 5a0c 983d 96e3 7bbd
00000220: 77c6 c0bd 0fb7 92bd 3f2a 083d 6d1b 9abd
00000230: 6e4f 113e fce1 2dbd 9a5d 97bb 2318 843d
00000240: fa16 f0bb e047 cc3c 89e9 b73d 67d9 373d
00000250: d3b8 0ebe f120 a9bd 17cd d93d 5e8d 1bbd
00000260: c790 b7bd 2739 ea3d 9974 273d 00ce a23c
00000270: 4c02 963c caaf 86bd 172a bb3d 63aa e1bd
00000280: 85bb c33d 8a68 fe3d a55b 123e 8d39 eabd
00000290: 79b4 f53d f5f7 eb3d a4a0 19bb 6da3 a73d
000002a0: e250 293e d3f7 0f3e 70c6 8cbd c298 1abe
000002b0: 0a35 0d3e 39eb e53d ec3b 273d 8fcc afbc
000002c0: 8279 9b3d dec7 11bd 5ccc acbd 39a9 b1bd
000002d0: b607 9bbd a6e2 0dbe 65fd a4bd 2b87 043e
000002e0: f240 d03d 50f9 8d3d a74b 05be 0fe9 bc3d
000002f0: caf4 943d e232 e13d 0960 14be 3a5c a9bd
00000300: f58b 1f3d 68bf 603d eeac 17bd 3ab2 cd3d
00000310: 0d0e 4cbd 6667 d2bd 8f7d cc3d 4886 af3d
00000320: 9cde 0cbe 8e37 a2bd 15bc bfbd 1395 023e
00000330: 6c17 f4bd 1a2e 76bd 2072 b93b 467e e53d
00000340: 21e6 3a3d f066 c1bd 9255 c63c 928e d7bd
00000350: e3e9 03bc f1a4 03be 7d6c e63d 0c93 e43d
00000360: b26a 05be 6673 8d3d 55ab 10be b323 d2bd
00000370: 4402 02bd 32ef 0a3d bdeb a4bd f51b 2c3d
00000380: f6cd dd3d 8477 0fbe 6916 b9bc bea6 ccbd
00000390: 0a3b 79bd bef2 823d d348 faba 4497 a4bd
000003a0: 7641 a6bd 4d9c 553c ca49 4dbb 2a0c df3d
000003b0: 6f4a 7ebd 2346 3e3d c522 ac3d 7d54 443b
000003c0: 8ba4 03be d079 a2bd 6af5 fcbc 6f08 73bd
000003d0: eb17 f23c 774c 03be ea10 82bd ebe7 033e
000003e0: c841 513d 9ee7 5abc 1255 a53c 836a f23d
000003f0: 42de 933c 63da f9bd 8b23 aabd 32bd 87bd
-0.040785883 -0.116494864 -0.08591001 -0.16449676 -0.091833435 -0.033590227 0.017532213 -0.099110715
-0.11687813 -0.031064035 -0.1174367 -0.09138808 0.13390419 0.13801363 0.17058808 0.073359475
-0.031858522 0.13272403 -0.059020907 0.00079370907 0.055048082 -0.12706228 -0.1256615 0.009152131
0.061507273 0.11289977 0.02208967 0.1177648 -0.0098623885 0.059539102 0.035734255 -0.1094783
-0.14961323 -0.088898994 0.08168393 -0.11740867 -0.06824643 -0.1635207 0.13731214 -0.026490668
0.05056098 -0.028372847 0.004022076 0.05916545 -0.06963564 -0.098826095 0.16001086 0.11435206
0.026697265 0.027037296 0.06396755 -0.09379393 -0.096119575 0.042763412 0.10049621 -0.12480576
-0.093602724 0.11037745 -0.039911315 0.0276325 0.03323525 0.13908967 0.01746327 -0.12062774
-0.11940368 -0.09595883 -0.02064771 0.08092958 0.047530323 0.07479471 0.02338522 0.034668516
0.0823303 -0.047854234 -0.052384418 -0.11656554 -0.13496247 0.16382112 0.01617163 0.032478705
0.047814004 -0.06654451 -0.032843348 0.020532789 0.085839756 -0.14478943 0.028829677 0.014313069
0.021633197 -0.059221633 -0.07971608 -0.103342764 -0.053112566 -0.108215906 0.064812616 0.044932336
-0.10210946 0.053952724 0.09182387 0.052461796 0.14419903 -0.07539776 0.121786445 -0.15826167
0.06949157 0.025139922 0.06726226 -0.016320193 -0.055924006 -0.10061577 -0.09882581 -0.08765937
-0.16110837 -0.012093009 0.096196726 0.07926042 0.09256973 0.12832133 0.08252218 -0.034204945
0.02884147 -0.014225579 0.15214208 -0.06853206 -0.14367738 0.14492586 -0.12114662 -0.109803036
0.017306237 0.07249609 -0.029145772 -0.02775948 -0.031028796 -0.021423772 0.07424231 -0.06149634
-0.09412854 -0.07163822 0.033243414 -0.07524762 0.14190456 -0.042451844 -0.0046193125 0.06449916
-0.007326958 0.024936616 0.0898009 0.044885065 -0.13937692 -0.08258236 0.10634821 -0.037976615
-0.08963161 0.11436682 0.04088268 0.01987362 0.018311642 -0.06576498 0.091388874 -0.11018827
0.09557251 0.12422283 0.14292772 -0.11436758 0.11997313 0.115219034 -0.0023441697 0.08185468
0.1653476 0.14059381 -0.068737864 -0.15097335 0.13789764 0.11226506 0.04082863 -0.021459846
0.07591535 -0.035591 -0.08437416 -0.08674855 -0.0756983 -0.13855991 -0.08056144 0.12942187
0.10168637 0.06932318 -0.1301714 0.0922414 0.07273252 0.10996033 -0.1448976 -0.08269544
0.038951833 0.05487004 -0.037030153 0.1004376 -0.049818087 -0.10273628 0.09984886 0.08570534
-0.13756794 -0.079207525 -0.09362046 0.1275218 -0.1191853 -0.06010256 0.0056593567 0.11205725
0.045629624 -0.09443462 0.024210725 -0.1052524 -0.008051368 -0.12855889 0.11251161 0.111608595
-0.13028982 0.06906776 -0.14127858 -0.10260715 -0.031740442 0.03391952 -0.08052776 0.04201885
0.108302996 -0.14010435 -0.022593694 -0.09992741 -0.06084732 0.06393956 -0.001909519 -0.08036664
-0.081179544 0.013037753 -0.00313245 0.10890992 -0.062082704 0.046453606 0.08405069 0.0029957586
-0.12855737 -0.0793339 -0.030878741 -0.059334215 0.02955242 -0.12822138 -0.06350882 0.12881438
0.051088125 -0.013360886 0.020182166 0.11836722 0.018050317 -0.12199857 -0.083075605 -0.06627883

encoder1.gru.bias_ih_l0 f4 [144]
00000000: c5fd d33d 461e 03be 755d db3d 94c1 1b3e
00000010: 7600 05be a0fb b1bd b9ca 9e3d 3c76 57bd
00000020: 6ae1 debc b805 103d ff83 703c 6b2e d13c
00000030: 91b0 033e 4ff1 cfbd bafb 6abd 7205 ce3c
00000040: 4fbd 053d 7f6a 0d3e 7ce2 083e bb31 123d
00000050: 0d59 bf3d ced1 dbbc 3c25 8ebd cead 233e
00000060: d037 8e3b 7cdc 023e f67a 243d 641e 2a3e
00000070: 5ad0 253d 8b8e 8abd 2dbd 2b3e fa70 0cbd
00000080: 3157 07be 75a4 d33b 033c c83a ff9f 0cbe
00000090: a13b 9d3d e01a 0abe 46c8 fe3b a8be 113e
000000a0: 836b 4e3d 0531 aa3d c271 babc 34d3 fb3d
000000b0: 35b2 68bd 92e3 4abd e159 f3bd efd7 fe3d
000000c0: cd0b bf3d 1cf3 113d eb38 a6bd a585 c1bd
000000d0: d50a fabd 0152 a83d 5b32 a0bd ac07 01be
000000e0: 3071 22bd de15 a3bd 1466 d63c 0a7e 433d
000000f0: fa56 1f3d fe45 e93d ed3a 973d 7526 363d
00000100: 694b 9dbc 6343 b0bc 865e c43d 9e08 733d
00000110: 520b 8abd 054b 5f3a 94c2 993c 2b4d f03d
00000120: 7ce8 c6bc 33df 5b3d fd85 a33d f44e dfbd
00000130: 0729 403d 94aa cbbd 65be fd3c 5a56 fb3d
00000140: 0cbb fe3c bd7e 8b3c 0055 d7bd 5b6b 1a3d
00000150: 9647 9bbd d100 033e 0f20 c33d f69d 973d
00000160: ce5a 0ebe 46e2 ad3d ed72 963d ee93 6e3c
00000170: 7615 26be 0313 41bd 6193 c4bc 3131 033e
00000180: 4927 d7bd 0a4a 0bbe e4ac 0f3e d779 89bb
00000190: 48c5 703d c1df bc3d 704c 743d c53f 0a3e
000001a0: c066 003e ea33 e9bd e8ec 1c3c de48 8a3d
000001b0: c565 b83d d3cd cdbc 0e05 3bbd 18e9 453d
000001c0: 7183 9cbc 0d6e 4dbd 133f 053e 3f81 f5bd
000001d0: 5a29 8b3d 8466 63bd 99cd ec3c 8702 b7bd
000001e0: 37d3 dfbc a547 a53d b746 34bd d61d e0bd
000001f0: dde4 82bd 8d6f 05be c713 04be 88e5 92bd
00000200: 6e77 033d 8d98 053e eb7e 31bd ca05 6ebd
00000210: 5c5b c6bc 5b7e 813c f0d6 c13d e96b d13d
00000220: 4c95 1cbd 47df df3c 1365 34bd a2b3 333d
00000230: b390 ddbd af10 a5bd e691 e73d 089e c43c
0.10351137 -0.12804517 0.10711185 0.15210563 -0.12988457 -0.08690572 0.0775351 -0.05260299
-0.027207095 0.035161704 0.014679908 0.02553483 0.12860323 -0.10153448 -0.05736897 0.02514908
0.032651242 0.13810156 0.13367647 0.035691958 0.09343157 -0.026833441 -0.06940696 0.1598427
0.0043401495 0.1277942 0.040156327 0.16613156 0.040481903 -0.06765469 0.16771384 -0.03428743
-0.13216855 0.006458814 0.0015276674 -0.13732909 0.07677389 -0.13486814 0.0077753393 0.14232886
0.0503955 0.08310131 -0.022759322 0.12296143 -0.056810576 -0.049533434 -0.118823774 0.1244353
0.09328423 0.035632238 -0.08116325 -0.09449319 -0.12209097 0.08218766 -0.078221045 -0.12600583
-0.039658725 -0.07963155 0.026171722 0.047727622 0.038901307 0.11390303 0.07384286 0.04447027
-0.019200997 -0.021516507 0.095883414 0.05933439 -0.067404404 0.00085179537 0.01876954 0.117334686
-0.024280779 0.053679656 0.079845406 -0.10903731 0.046914127 -0.099446446 0.030974576 0.1227233
0.03109505 0.017028207 -0.10514259 0.03770004 -0.07582013 0.1279328 0.09527599 0.074031755
-0.13901827 0.08490424 0.07346139 0.014561636 -0.16219124 -0.04713727 -0.023996057 0.12811734
-0.1050554 -0.13602462 0.14030796 -0.0041954326 0.058781892 0.09222365 0.05964321 0.13500889
0.12539196 -0.11386855 0.009577967 0.067521796 0.09003786 -0.025122559 -0.045659117 0.048318
-0.019105645 -0.05015378 0.13012342 -0.11987542 0.067949966 -0.05551769 0.02890663 -0.08936029
-0.027322395 0.08070306 -0.04401275 -0.10943191 -0.063913085 -0.13030834 -0.1289817 -0.07172686
0.03209632 0.13046475 -0.04333393 -0.05811099 -0.024213485 0.015807321 0.09464824 0.1022566
-0.038228318 0.027328147 -0.044041704 0.043872483 -0.10818615 -0.08059823 0.11307125 0.024001136

encoder1.gru.bias_hh_l0 f4 [144]
00000000: f41a 213e 87e9 4ebd a445 36bd 3418 043e
00000010: b2f5 c1bd 86b3 283d 3699 893d 83fa 013e
00000020: 0237 9c3c efa0 993b f067 6dbb 451a d1bd
00000030: 2a63 e53d 2ea0 2f3c a295 ab3a 1406 263d
00000040: 6e5f dabd 590f 86bd b02a fb3c 8a2e 403d
00000050: 1270 64bd 2e6d 32bd a6f7 143e fab4 abbc
00000060: 38c3 083e 5887 8fbd 14fd 303e 591e 793d
00000070: 2315 2e3e 006b af3d 5408 d93d d64b 16bd
00000080: 7ac3 a0bd c8c6 793c 0849 c3bd 0c16 49bd
00000090: 781a fbbd b8f7 ceb9 4dd9 c13d efab 273e
000000a0: be16 bcbd ed08 e6bd 637f 04be db69 573d
000000b0: 086b e9bd 0935 103e 1841 3a3d 1911 06be
000000c0: 655e a53d d267 d0bc f7dd 6b3d 81ff 393d
000000d0: d8c5 1bbe 3399 b1bc a46e 00bc d5f8 153d
000000e0: a883 a23d a2c3 713b accc 3bbc f60f 803d
000000f0: 6fb1 0ebe 3daa c93d adca c13d 7220 ca3d
00000100: 00fc 063d d31c 843d 9564 02bd b4a2 573d
00000110: a0cb b1bd 8f4e b43d d64f cc3b 19fc e6bc
00000120: 8c37 97bc 3912 19be 3870 a6bd b6d6 aa39
00000130: d026 d3bd e7cd 8b3b f2d0 00bd e30c 99bd
00000140: e719 f3bd e082 753d ac7e e5bc ff30 09bb
00000150: fda8 22bd ca8b 72bd 0a9d dabd dafc efbd
00000160: 6fa3 b23d 8aa0 2bbd affa fbbd 81f1 eb3c
00000170: a0e9 25be b08a 393d 157e fdbd f8a8 f5bd
00000180: 3976 4b3c ef25 aabd 1024 a0bd 55f9 033c
00000190: ffdc a33d 831b ff3d e995 243c 2f61 ebbd
000001a0: 97c5 9c3d 2761 ffbd c7d7 0a3e 6d41 2a3d
000001b0: ee35 c2bd 69f7 163c 629c 193d 88ab b43d
000001c0: a2d0 9dbb bdd1 da3d 93f6 073e ff9f 06be
000001d0: 152f 0fbe d838 ebbd c71f 1bbe 999c f83d
000001e0: 7b9b dbbd f121 aa3d ea55 953b d791 bdbd
000001f0: c15a ee3d a270 5cbd 94a8 50bd d9e9 10be
00000200: ce5f 183d f13f 1cbd 1e35 063e c08b 87bd
00000210: 4931 073e b5b5 0abe 30f9 1a3d a0c9 a53d
00000220: ab75 ffbd a30a 2f3d 582f 34bd 624b d33c
00000230: 546e d5bd f017 4a3d 19b2 993d 0e32 5c3d
0.15732938 -0.050515678 -0.04450001 0.12899858 -0.09470691 0.041186832 0.06718676 0.12693219
0.019069199 0.004688374 -0.0036225282 -0.10210089 0.11200555 0.010719342 0.0013090859 0.04053314
-0.10662733 -0.06545896 0.030660003 0.046919383 -0.05577094 -0.043561153 0.14547595 -0.02096032
0.1335572 -0.07008237 0.17284042 0.060819957 0.1700025 0.085653305 0.105972916 -0.036693417
-0.07849784 0.015245147 -0.09535414 -0.04909329 -0.12260908 -0.00039475947 0.09465275 0.16374181
-0.09184025 -0.11232171 -0.12939219 0.052591186 -0.11397368 0.14082731 0.045472234 -0.1309246
0.08074645 -0.02544013 0.05758473 0.045409683 -0.1521219 -0.021679496 -0.007838879 0.036614258
0.07935268 0.0036890288 -0.011462372 0.06253044 -0.13934873 0.098469235 0.094624855 0.0986947
0.03295517 0.0645081 -0.031834204 0.0526454 -0.086814165 0.08804046 0.006235103 -0.028196381
-0.018459104 -0.14948358 -0.08126873 0.000325849 -0.10310137 0.004266489 -0.031449266 -0.07473161
-0.11870175 0.059939265 -0.028014503 -0.0020933745 -0.03971194 -0.059215344 -0.10674484 -0.117181495
0.08722579 -0.04190115 -0.123036735 0.028801681 -0.16202402 0.04529828 -0.12377564 -0.11995119
0.012418323 -0.083080165 -0.078193784 0.008055051 0.08001136 0.12456419 0.010045507 -0.11493146
0.07654875 -0.12469702 0.13558875 0.0415663 -0.094829425 0.009214261 0.037502654 0.088217795
-0.0048161307 0.10684536 0.13277654 -0.13146971 -0.13982804 -0.114854515 -0.15148841 0.12139244
-0.10723015 0.08307255 0.004557361 -0.09256332 0.11638404 -0.053818353 -0.05094202 -0.14151706
0.03720074 -0.038146917 0.131062 -0.06618452 0.13202395 -0.13545878 0.0378353 0.080950975
-0.12473615 0.042734753 -0.043990463 0.025792781 -0.10421434 0.049339235 0.075046726 0.053758673

encoder2.conv.weight f4 [16, 2, 1]
00000000: 1ecb 143f e540 4e3e 7ca4 55be 47c0 f2be
00000010: 62e2 563e 8292 2abf 056b 2dbf f6b6 35be
00000020: d5d8 e8be 098d 323f 258e 0a3f b6c0 a4be
00000030: 689f e23e 3eb7 dbbe fbb0 f93e cc32 26bf
00000040: 28bc 04be 43b4 1ebf 60bf 123e e955 ac3e
00000050: 80d9 943e a7df 99bc db7a 943e f4b3 b83e
00000060: 6cc1 edbe b583 143e 84e8 32bf b6ed 0b3f
00000070: 5a7d 533e 3c1f dbbb 6efa 29be c33d 5e3e
0.5812243 0.20141943 -0.20863527 -0.4741232 0.20984796 -0.66629803 -0.67741424 -0.17745575
-0.4547793 0.6974645 0.54123145 -0.32178277 0.44262242 -0.4291324 0.48767838 -0.6492126
-0.12962401 -0.6199381 0.14330816 0.33659294 0.2907219 -0.018783404 0.2899998 0.36074793
-0.46436632 0.14503367 -0.6988604 0.54659593 0.20653287 -0.006687073 -0.16599438 0.21703248

encoder2.conv.bias f4 [16]
00000000: 4458 3abe 7587 c2be d168 2abe 37a6 c73e
00000010: a147 1c3f 3514 52bd 4438 febd 57ac 0ebf
00000020: eb68 d4bd 10cc e9be 577b 4c3e 7da3 013f
00000030: d406 a13e 26ca 9b3e 5175 33be 07e2 62bc
-0.18197733 -0.3799397 -0.16641547 0.38994 0.610468 -0.051288802 -0.124130756 -0.5573172
-0.10371574 -0.456635 0.19968925 0.5064009 0.31450522 0.30427665 -0.17525221 -0.013847834

encoder2.gru.weight_ih_l0 f4 [144, 16]
00000000: d805 7f3d 3d2b ae3d e8c9 fabd 2b2c 8fbd
00000010: 25b8 f43d f91f 85bd f611 80bd 85be d9bd
00000020: 9910 4ebd c76f 3d3d 63be 51bd e477 003e
00000030: 1009 3c3d 8bb1 c3bd 7596 ee3d febe 98bd
00000040: 40a5 4abb 736c 01bd 630d ebbd b07a 313c
00000050: 3c85 c4bc b5e0 123c 2b3c a7bd 28b3 9cbd
00000060: f2a5 6e3b 407b 52bd cba9 febd 41d8 a23b
00000070: 575f 8cbd f5a2 c33d d0f6 f4bd 0fa9 9cbd
00000080: a7ca 383d 3faf 0f3c 520b 57bd 8369 833d
00000090: ba2e a73c 8840 aa3a facd edbb 3ef1 56bd
000000a0: 8bff e0bd aa31 ca3d b93a 193d a0f6 fabd
000000b0: d4f5 01be 03db 29bd 1807 573d cbf4 efbd
000000c0: 37cd 9bbd f823 e43d 05d4 af3c c59d e6bc
000000d0: 5d9b da3d b098 9e3d 475b d43d 8875 8dbd
000000e0: ecd0 cb3d f982 963d e9db f9ba 1ea5 d03a
000000f0: 1f15 0c3e 2030 323d a349 04be 1665 153d
00000100: e0a4 05bd 667b 613c a2e4 cc3d aab4 213e
00000110: 5847 c43d 1402 04be 7595 ffbd 873b ef3d
00000120: 756d dd3d 56ee 6fbd 19b9 123e ae6f 8bbd
00000130: 4161 3abd 88f3 dd3d 50fc c43c 9899 1fbc
00000140: 1348 8a3d 6a59 1b3d fdeb 00be 3182 213d
00000150: 8fcc b23d a384 f1bc e4f9 de3d 0408 14bd
00000160: 1794 f53d 5812 123d 1789 d43c 5459 afbd
00000170: 4845 0bbe 2946 573d 68f4 10bd 0b53 acbd
00000180: a769 ff3d 0485 b0bd dfae 9739 9f0a 973d
00000190: 3e33 18bc 0fa7 0b3e 80c5 ba3d 81a1 a8bd
000001a0: d2e3 eebd f1eb 063e 67cd 673d 6f2b 343d
000001b0: 02e8 043e f167 303d b5cc 8bbd fd91 16bc
000001c0: f3d6 8fbc 9beb b4bd a4d3 ad3d a3de 9e3d
000001d0: fd49 aabd 1501 b43b 469c 02be 97b2 08be
000001e0: 44e8 123e f1f4 cbbd d172 ca3d ade4 86bd
000001f0: 7dd7 dbbd ba75 da3d 4d83 b7bd 17bf 273d
00000200: 58ce cabc c299 6dbd 279a 423d 5d8d 5ebb
00000210: 1679 d7bd efc4 b13d adf0 073e 75fd 4dbc
00000220: 3073 e53d 05fb 3ebd 17da bcbc d450 093e
00000230: d78a 0ebd 3871 0c3e 4c67 823d 859b 143e
00000240: b8a2 e33d 0e1c 133e fb4d cd3c 195d d6bd
00000250: a715 d33d 2d34 0e3d 0c77 603d 6bd4 db3d
00000260: 501f 0ebe 2a1c f0bd 1d13 3c3d e392 a03b
00000270: e4bd adbc e2ac 7f3d 5298 ff3d 4438 83bc
00000280: 2fe0 3a3d d2bf 6bbd eab2 a4bd 8be1 a53d
00000290: b295 f8bd 7c31 603a 5a48 0ebe a786 803d
000002a0: fd3a dd3d 3c98 01be a34e e8bd e5c5 cebd
000002b0: 11bb 6d3d 156f 6b3d f492 9dbd 452e aabd
000002c0: d131 e93d 121c bfbd 68ef a7bb ce53 193e
000002d0: 449c 61bd 86cb b73d 415d d6bd 578a 14bd
000002e0: 3ab6 9cbd 5ac1 eb3d 97ac f2bd abbf 6fbd
000002f0: 8d9f 223e 2b16 aebb 1171 0a3d fec7 343d
00000300: adeb 0c3e 57b4 20be 3cf4 09be 37b0 bcbc
00000310: 31d9 62bd 7046 0ebe e3a0 133a 9d35 0dbe
00000320: 569b 5ebb af9e 13be 2837 373c 5621 8fbd
00000330: 73b3 4c3d af02 4a3d 5be0 8cbc b87f 05bd
00000340: 3294 6abd ea64 df3d 870e 993d 261c 96bd
00000350: 69ec 1f3d 2824 32bb b525 073e 6702 33bd
00000360: 9e87 52bd f896 c5bd 8a95 09be 27c8 ec3d
00000370: 9a26 c53d 6372 8bbd 121f 073e 8dd6 a7bd
00000380: a186 8abd 1592 3ebc 2de6 87bb 5cc4 013e
00000390: f3b1 a8bc 3ee9 9cbb ee65 8ebc 1492 043e
000003a0: 0f4c 04be 132a 0d3e 861d 2dbc 2017 01be
000003b0: 3c48 0f3d 5a38 eabd a481 f83d aec1 e7bd
000003c0: 0d4a 4ebd 123e 76bd 446b cd3b 7330 c4bd
000003d0: 6b47 0abd 56a8 093e 5acc f93d 2835 ffbd
000003e0: 5692 fa3c f2b7 ad3d 214a f3bd 34b6 76bd
000003f0: 5433 013d 7572 263c 0eed fd3c 0c07 92bd
0.062261432 0.08504341 -0.12245542 -0.06990846 0.11949185 -0.06500239 -0.06253426 -0.10632042
-0.050308798 0.046249177 -0.051206958 0.12545735 0.04590708 -0.09555348 0.11649791 -0.07458304
-0.003092125 -0.031597566 -0.11477163 0.010832474 -0.023989312 0.008964707 -0.08165773 -0.07651359
0.003641483 -0.05138707 -0.12434729 0.004969627 -0.06854122 0.09552566 -0.11961138 -0.07649433
0.04511514 0.008769809 -0.05250103 0.06416609 0.020408023 0.0012989203 -0.0072572203 -0.05247616
-0.10986241 0.09872754 0.037409518 -0.12254071 -0.12691432 -0.04146863 0.052497 -0.117166124
-0.07607501 0.11139673 0.021463403 -0.028151402 0.106741644 0.077439666 0.10368972 -0.06907183
0.09951958 0.073492 -0.0019062731 0.0015918349 0.13679932 0.043502927 -0.12918715 0.036473356
-0.03262794 0.013762331 0.10004546 0.15791574 0.0958392 -0.12891418 -0.124796785 0.11681276
0.10811893 -0.058576904 0.14328422 -0.068084106 -0.045502905 0.108374655 0.024046093 -0.009741209
0.06752028 0.03792707 -0.12590022 0.0394308 0.08730423 -0.029482191 0.108875066 -0.036140457
0.119911365 0.035662025 0.025944276 -0.0856196 -0.13600647 0.052557144 -0.035389334 -0.08414277
0.124713235 -0.08619121 0.00028931253 0.07375073 -0.009289561 0.13637947 0.091197014 -0.082339294
-0.11664547 0.13175942 0.05659237 0.043986734 0.12979129 0.043067876 -0.06826154 -0.00919008
-0.01755855 -0.08834001 0.08487633 0.07757308 -0.083148934 0.005493293 -0.12754926 -0.13349377
0.14346415 -0.09958828 0.09885181 -0.06586585 -0.107344605 0.10666986 -0.089605905 0.04095372
-0.024756595 -0.058007963 0.047510292 -0.003395877 -0.10521142 0.0868014 0.13275404 -0.012572636
0.11203611 -0.04662611 -0.023053212 0.1340974 -0.034800377 0.13715065 0.063673586 0.14512451
0.111150205 0.14366171 0.025061598 -0.10466976 0.10306864 0.034717727 0.054801032 0.10733875
-0.13879132 -0.11724122 0.045916665 0.0049003228 -0.021208711 0.062420733 0.12480225 -0.01601804
0.045623954 -0.05755598 -0.08041938 0.080996595 -0.12137927 0.00085522956 -0.13894787 0.06275683
0.10802267 -0.12655729 -0.11343124 -0.10096339 0.05803973 0.057478983 -0.07694045 -0.083096065
0.11386455 -0.09331526 -0.005124975 0.14973375 -0.055080667 0.08974366 -0.104670055 -0.036264744
-0.076519445 0.11511488 -0.11849325 -0.0585324 0.15881176 -0.005312701 0.033799235 0.04413604
0.13761778 -0.15693794 -0.13472074 -0.023033245 -0.05538291 -0.13894057 0.0005631579 -0.13789983
-0.00339671 -0.14416002 0.011182584 -0.0698878 0.049975824 0.049318966 -0.017196825 -0.032592505
-0.057270236 0.1090792 0.07473474 -0.07329588 0.039043818 -0.0027182195 0.13197978 -0.043703463
-0.051398866 -0.09647936 -0.13435951 0.115616135 0.09626503 -0.06808927 0.13195446 -0.08195219
-0.0676396 -0.011631508 -0.004147312 0.12672561 -0.020592665 -0.004788547 -0.017382588 0.1294635
-0.12919639 0.13785581 -0.010566121 -0.12606478 0.034980997 -0.114365295 0.12134102 -0.11316238
-0.05036359 -0.06011779 0.0062688906 -0.095795535 -0.033759516 0.13443121 0.1219718 -0.124613106
0.030587357 0.084823504 -0.11879373 -0.060232356 0.03154309 0.010159125 0.030996826 -0.0713025

encoder2.gru.weight_hh_l0 f4 [144, 48]
00000000: d9fe 02be a0ad 08bb 1ce6 b53d 509e a33d
00000010: 133d 1c3e 8dc2 b53d 62b4 a3bd a671 43bb
00000020: 4ffd 2c3d 232c 723c 67cf ac3d 3985 bf3d
00000030: 98ee 0abe 75cc a0bd 3687 80bd 289d 2cbd
00000040: 764e 893d 6159 abbd da71 b1bd c910 2abd
00000050: 1e96 38bb 9726 8cbd b4df 8fbd 87e2 d63d
00000060: 3904 b03d f0a7 bbbd 6907 753c 4495 2b3d
00000070: e503 d5bb 180b 08bd 5686 403d be41 d0bd
00000080: 0ee8 c23d 360b c53d 0d6c 78bd 7c27 f23d
00000090: 0de9 09bc e0e9 223d d0d5 96bd e365 903d
000000a0: 2c65 97bd 9ef9 90bd cd23 9abd a814 333d
000000b0: 4c75 733d b3fc b33d 2761 c1bc b1c5 bb3d
000000c0: 8f39 2a3c e32e 38bd ae5d 9bbc 8671 913d
000000d0: d301 3f3d d35f c2bc 66b0 f93d 2cdc 8cbd
000000e0: d39b f93d e1cc 5a3a 112d 6bbd 9dfb 853d
000000f0: a186 6b3d a29a ebbd f882 2b3c db27 96bc
00000100: 7269 d8bd 0c26 bf3d ef92 c0bd 36ff ea3d
00000110: 9b02 b3bd a3ad 5e3b 5fc2 08be 1ede f5bd
00000120: 4c01 42bb c26f f1bc ef6b a13d f4b7 f13c
00000130: 0aff e2bd d858 c8bc b17b a03d 819e 883d
00000140: 4c74 d13d 6019 02be 97fa c73d 22e9 9b3c
00000150: e987 77bd 2d05 54bb 0bdf 9ebd 0d6b 33bb
00000160: 5d9b 7d3b 0d6f d13d 1b86 9dbd 773b 753d
00000170: 99e5 ffbd 610a adbd bde3 603d eae4 94bd
00000180: 6875 3abc 0055 15be 1ae9 45bd 35e5 d93d
00000190: 4ce1 323d 13fb e83d 38a0 9ebd 1176 3e3d
000001a0: 5b9c 063e 5eec 68bd 3243 fb3d ee4e d33c
000001b0: a30f babd f776 f03c aa19 063e 3f64 ce3d
000001c0: 0143 93bd 0ae5 013e a047 a4bc a603 fb3c
000001d0: b2c0 96bd 9c86 bd3d 3334 e83b 1c65 063e
000001e0: 1b1b 33bd 4e34 06be 84cd 133e 4179 80bd
000001f0: af9d 97bd 68a9 3abd d8e9 23ba 7388 bfbd
00000200: 0a77 0e3e de27 a7bd 0a68 1c3d 0dfb d43d
00000210: 6828 3ebd 5056 eebd 6ab7 0a3c bafd ad3d
00000220: 2229 4dbd e231 27bd b1cb 193c 2771 96bd
00000230: 455c 60bd 04a0 d73d d991 e13c 1433 f53c
00000240: 7440 313d 6740 9abd 0c21 e43c cb31 c0bd
00000250: 2693 bebd 356f f83c 982a fa3d bcc4 83bd
00000260: 17b3 743c 4ee5 d7bd 7284 e5bd b1e2 323d
00000270: b83e 553d 0336 aa3c 6b97 c83d c4f4 99bd
00000280: abd6 5bbc 37bf b3bd 6225 00be 53ec 41bd
00000290: cb57 8b3b aa9a a7bd d9d1 5abd 0fd0 913d
000002a0: df1a ed3d 7176 353c a711 ecbc 328d 50bd
000002b0: b2f1 bebd e15d 063e 9232 fcba 8ed5 dcbd
000002c0: 1f43 91bc 69eb 563d 1f0b 6fbb f4b1 45ba
000002d0: 4289 bf3d 901e 953b 5d15 903d f64c 583d
000002e0: 7a40 58bd e4f3 33bd 1b5c c8bd c758 d0bd
000002f0: 5a32 353d 852d 92bd 1792 a4bc 25bc 6f3c
00000300: de82 0c3d 6c90 a03d 4aa1 c93d 99e2 083e
00000310: e3f7 a43c cd73 343e d668 933d 2900 acbd
00000320: aec4 1e3d 4ffd 88bd b5bd 6e3d f9ac b43d
00000330: 2b66 f13c 5e18 b6bd 8988 1f3e 6efc 6fbd
00000340: af76 b5bc c8d1 023e acce ce3d ae9e ecbd
00000350: 98b3 073e 666f 043d 7f6c cf3b b439 8b3d
00000360: bb18 073d ace7 af3c 3409 303d f1ca afbb
00000370: ba5d 8abd b75a 0abd 7689 823c 4e4b 90bd
00000380: daab d03d c0fe 363e 793f 003e 194b 873c
00000390: a0bd 2d3d 24a3 0d3e 8ff6 85bd 4bbb 0d3d
000003a0: df08 673d 71a5 e93c eb1a 41bc 6777 ea3c
000003b0: 064c 1dbd ccd6 e73c acfe ee3c 5629 183c
000003c0: 8457 e8bd ac04 0a3d 6ff4 673d b485 cdbd
000003d0: 038d a8bd ee89 f9bd b661 40bd a91f 1dbe
000003e0: 919f 943d 066b 00bc 0ff4 6d3d b53b e83d
000003f0: c3ce b5bc 99f7 edbc 4ae1 bf3d 4650 9abc
-0.12792529 -0.0020855442 0.088817805 0.0798918 0.15257673 0.08874998 -0.0799339 -0.0029822378
0.04223376 0.014781031 0.08437996 0.09351582 -0.13567579 -0.07851497 -0.062757894 -0.042142063
0.06704418 -0.08366657 -0.086642936 -0.041519914 -0.0028165649 -0.06843298 -0.0702509 0.104924254
0.085945554 -0.09162891 0.01495538 0.041890398 -0.0065007084 -0.033213705 0.047003113 -0.10168789
0.09516917 0.09621279 -0.06064992 0.11823937 -0.00841738 0.03977382 -0.07365 0.07050683
-0.07392344 -0.07078861 -0.0752636 0.04372087 0.059438035 0.08788433 -0.023605896 0.09168566
0.0103897 -0.04496659 -0.018965568 0.07101731 0.0466326 -0.023727333 0.121918485 -0.06877932
0.12187924 0.00083465694 -0.057416026 0.06542132 0.05750144 -0.11504103 0.010468237 -0.018329551
-0.10566987 0.09333429 -0.09403025 0.11474459 -0.08740731 0.0033978007 -0.13355397 -0.12005256
-0.0029602824 -0.029472236 0.07881915 0.029506661 -0.11083801 -0.024456427 0.07836092 0.06670857
0.1022726 -0.12704992 0.09764593 0.019032065 -0.06043235 -0.0032351718 -0.07757386 -0.002737704
0.003869734 0.102262594 -0.07691594 0.059871163 -0.12494964 -0.08449245 0.05490469 -0.072702244
-0.011380531 -0.14583206 -0.048318006 0.10639421 0.04367189 0.113760136 -0.07745403 0.046499316
0.13145582 -0.056866042 0.12268676 0.025794473 -0.09085014 0.029353602 0.13095728 0.10077714
-0.07190514 0.12685028 -0.020053685 0.030641388 -0.073609725 0.0925419 0.0070863008 0.13124508
-0.04372702 -0.1310589 0.14433867 -0.06273127 -0.07403123 -0.045571715 -0.0006252802 -0.093521975
0.13912597 -0.08161901 0.038185157 0.10399447 -0.046425253 -0.116375566 0.008466581 0.0849566
-0.050088055 -0.040819056 0.009386943 -0.07345801 -0.054775495 0.105285674 0.027535366 0.029931583
0.043274358 -0.07531815 0.02784779 -0.09384497 -0.0930541 0.030326465 0.12215155 -0.064340085
0.0149352765 -0.10541783 -0.112069026 0.04367322 0.052061766 0.020777708 0.09794506 -0.075173885
-0.01341788 -0.08776706 -0.1251426 -0.047344517 0.004252409 -0.08183797 -0.053422783 0.07119762
0.11577391 0.011075602 -0.028817011 -0.050915904 -0.093234435 0.1312175 -0.0019241145 -0.1078292
-0.017732201 0.0524706 -0.0036475135 -0.00075414707 0.09352352 0.0045507625 0.07035325 0.05280777
-0.052795865 -0.043933764 -0.09783193 -0.10173183 0.044237472 -0.071375884 -0.020089192 0.0146322595
0.034304492 0.07840046 0.098452166 0.1336769 0.020137733 0.176223 0.0719773 -0.08398468
0.038761787 -0.0668894 0.058286387 0.088220544 0.029467663 -0.088913664 0.15579428 -0.058590345
-0.02215132 0.12775338 0.10098013 -0.11553703 0.13252103 0.0323328 0.0063300724 0.067981154
0.03298257 0.021472774 0.042977527 -0.0053647687 -0.06756158 -0.03377792 0.015934687 -0.07045613
0.10189028 0.17870617 0.12524213 0.016515302 0.04241717 0.13831764 -0.06541168 0.034602445
0.056404945 0.028521271 -0.011786203 0.028621389 -0.03840258 0.028300665 0.029174171 0.009287199
-0.11344817 0.03369586 0.056629594 -0.100352675 -0.08230021 -0.12184511 -0.046968184 -0.15344109
0.072569974 -0.007838016 0.05809408 0.11339513 -0.022193318 -0.029048728 0.09369142 -0.018837105

encoder2.gru.bias_ih_l0 f4 [144]
00000000: 1237 e33c fd15 b73b 69ed e3bd ce5f 79bc
00000010: 9955 af3d bc4e b33d 4599 08bd 339f dc3b
00000020: 8edf a23c 6158 79bc 750f a4bd 6cbb 24bd
00000030: d417 b63d 72f9 973d 5f79 35bc 5069 0ebd
00000040: 645c 7fbd 1a4a 22bd 98fa 8a3b 5bfc aebc
00000050: 60ad 0c3d d5e1 353d 43d1 24bc e45f 18bd
00000060: 32e7 b43d 840e b23d ff8e 4e3d 7fb0 3e3d
00000070: fee1 89bc 7521 ad3d 56b4 07bd bb1d 0bbe
00000080: 221b 9ebd b171 bd3d db8d e03d 199f 3dbd
00000090: 5d46 0c3d b340 a9bd 44d9 8cbd 65ae f03a
000000a0: 6539 013d 524b b13b 3af6 b2bc 454d 7a3c
000000b0: 4915 67bd 99ed a53d 6a3d 0bbe d25c 3dbd
000000c0: 7127 6d3d 7bd8 8b3c 8384 73bc 69b4 29bd
000000d0: 2271 083e b70c 243d f39a 033e de68 c0bd
000000e0: 1fe7 fb3c 9dd3 b83c 34f1 0ebc 50c1 7cbd
000000f0: 541a cebd ae40 6bbc 3d6f bb3d 515e 17bd
00000100: 3036 123c 90cd e43d 3f2e 0ebe 4d27 913d
00000110: d3f0 ecbd 8560 bebc 3877 e13d d794 3a3d
00000120: c9b5 07bd 8664 863d cdd4 dc3d bef7 12be
00000130: 427e 44bd 678b a23d ebe6 b83d eca6 afbc
00000140: d22c 2fbc 68b3 75bd 4343 eb3d bb17 f53d
00000150: 0c09 1b3d b20b 533d 0c18 db3c 0c12 16bd
00000160: 2ec1 75bc f8cc ddbd b192 a2bd 5d89 d0bd
00000170: f584 d13d a442 1b3d 9242 d93d 24fc 8cbd
00000180: 5d26 4c3d b5f2 e73d 5e39 a5bc d162 213e
00000190: 19ed 86bd 2f7e e3bd 065b a8bc 8be5 a8bd
000001a0: 82e2 d23c 8159 02bd b32e e63d 5f47 0abe
000001b0: ed62 f2b9 9e3e d9bb eab7 1b3e 6123 0d3d
000001c0: 27cb 9dbd 7d8d 0a3e 3b82 8abd 185b c13c
000001d0: 980b 443d b6e6 9dbd f35f 1fbd 5b69 4b3d
000001e0: 2060 b43d 4b2a 5abd 905d b93d 85f3 cfbd
000001f0: b441 293e f9e1 15bd 0249 17be 82b5 4c3d
00000200: f16e cabd 2cde 203e 0a8c 853c be64 8f3d
00000210: 4a59 57bc 4308 bd3d 666e 00be 68ad 94bd
00000220: 4c9c 703c 8037 5dbd 13bf 2dbc fde2 1cbd
00000230: ab86 1cbe 3fba babd c794 963d d19f b83d
0.02773622 0.005587338 -0.11129267 -0.0152205955 0.08561248 0.08755252 -0.033349294 0.006732845
0.01988199 -0.015218825 -0.08010761 -0.040217802 0.088912636 0.07420625 -0.0110763 -0.034768403
-0.06234397 -0.03962145 0.004241299 -0.021360567 0.03434503 0.044404823 -0.0100596575 -0.037200823
0.088331595 0.08694175 0.05042934 0.04655504 -0.016831394 0.08453647 -0.033130966 -0.1358556
-0.07720019 0.092502005 0.10964557 -0.046294305 0.03424679 -0.082642935 -0.06877378 0.001836252
0.031548876 0.00541059 -0.021845926 0.015277212 -0.056416783 0.08101959 -0.13597646 -0.0462311
0.057898942 0.017071 -0.014863136 -0.04143182 0.13324407 0.04005119 0.12852077 -0.09395002
0.030749856 0.022561843 -0.0087244995 -0.061707795 -0.100636154 -0.014358683 0.091520764 -0.03695518
0.008924052 0.111720204 -0.13884829 0.07087574 -0.11569371 -0.023239383 0.11009067 0.0455521
-0.03313235 0.06562142 0.10782776 -0.14352319 -0.04797197 0.07936745 0.09028419 -0.0214419
-0.010691838 -0.05998555 0.114874385 0.11967417 0.037850425 0.051524825 0.026744865 -0.036638305
-0.014999671 -0.1083011 -0.079381354 -0.1018245 0.10230438 0.03790535 0.106084004 -0.068840295
0.049841274 0.113255896 -0.020168956 0.15760352 -0.065881915 -0.11108052 -0.020551216 -0.08246907
0.025742773 -0.03182364 0.11239376 -0.13503788 -0.00046231542 -0.006629779 0.15206876 0.034457568
-0.07704764 0.13530536 -0.06763121 0.023603007 0.04786262 -0.0771002 -0.038909864 0.04966102
0.08807397 -0.05326299 0.09051049 -0.101538695 0.1652897 -0.036592457 -0.14773944 0.049977787
-0.09884442 0.15709752 0.016302127 0.07001637 -0.013143847 0.092300914 -0.12542114 -0.07259637
0.014685702 -0.054008007 -0.010604638 -0.03830241 -0.15285747 -0.09117555 0.07352596 0.090148576

encoder2.gru.bias_hh_l0 f4 [144]
00000000: 4cb1 fabd 220c 063e abb4 9bbc c787 85bc
00000010: aae7 c03d 4c8e 0dbd 1fe2 e03d e48d a3bc
00000020: 9f9b f63c 731c b53c b8f3 8e3d cfec b63d
00000030: 08ae 913c 4600 82bd 230c d7bd ce1b 7b3d
00000040: fd78 ca3d 2415 64bd 05f6 79bd 0785 ec3d
00000050: 1cc9 10bd d823 fbbd 7653 cf3b 9977 c63d
00000060: 4667 aebd 918e 433d 75bf 69bd f034 8e3d
00000070: 656c 7ebc 5c09 c7bd 440c 593d a136 58bd
00000080: 9101 abbd 090d 463d eb9c 863d 597e 4b3d
00000090: 9507 2c3d a1a0 b9bd 6071 1b3e f318 cabd
000000a0: dae6 6ebd 83c6 89bc c55d c83d 85a1 863d
000000b0: dee1 d93c 58fe 05be 62d7 f23c 6871 ab3d
000000c0: 26d7 8f3d 2cd6 6ebd e7fe 9cbd e4be e93c
000000d0: 4e71 97bd 3e7d 8abd 8a2b 68bd c0d1 0bbd
000000e0: 7c4e c9bb 5f00 963b dc89 153e 3168 0bbe
000000f0: 06f4 aa3d 5cf9 02be cf70 0fbe 7b95 803d
00000100: f16a 953d 467c 973d d76b 08be d680 003c
00000110: 1c0f 12be 8e35 abbc 61af c3bd 4c18 92bc
00000120: 649d 323c ff03 0c3d f1ea b73c d266 f7bd
00000130: 0c9f 053e 96be 7b3c 5af0 1abe cc15 22bd
00000140: 203a ca3d 6b77 cbbd dc57 303d 1d8c ccbd
00000150: e6c2 c63d 6e31 a1bd 8e21 213d 1717 b13d
00000160: 81f1 31bd f6e3 803d 39a3 063e d578 d6bc
00000170: d7bd bf3d 7035 2a3d 75ef 553d 23fd b7ba
00000180: a692 9a3d 5ab1 33bd 4d51 5cbc e8fd 8dbd
00000190: c802 013c a111 1b3e cf9f 023e a3f4 0f3e
000001a0: ed1f e5bd 9985 243d 880e 213a ec2d 653d
000001b0: c2ae 973d 99a4 053e 754b 0e3e 3bfd 253e
000001c0: e093 a3bc c2ec cfbd d9a4 42bc 154e 23bd
000001d0: 508e c3bd 53bb 02be 50b4 22bd 4c8b 0d3e
000001e0: b94e 11bd 1014 11be deb6 34be 0619 07be
000001f0: 2221 a73d 9be8 9fbd 0c09 a4bd 4d51 f13c
00000200: 2287 11be 2996 973d f429 febd e57e 99bd
00000210: 11a6 8ebd d213 983d 43f9 a6bd ec6f 91bd
00000220: 5f95 22bd e1f3 203e 9b4f 4abe f759 233e
00000230: dfb5 eebd 5dcf fabd 55e8 06be 0426 d93d
-0.12240848 0.13090566 -0.019007048 -0.016300095 0.094191864 -0.034559533 0.10980629 -0.01996512
0.030103503 0.022108292 0.069800794 0.089318864 0.01778318 -0.063477084 -0.10500362 0.061305813
0.09886358 -0.055684224 -0.061025638 0.115488105 -0.035348043 -0.12262696 0.006327088 0.0969078
-0.085157916 0.047743384 -0.057067353 0.06943691 -0.015528773 -0.09718582 0.052990213 -0.052786473
-0.08349908 0.048352275 0.065728985 0.04968104 0.04199942 -0.09063841 0.15179968 -0.0986804
-0.058325626 -0.01681829 0.0978351 0.06573776 0.02659696 -0.13085306 0.029643718 0.0837124
0.07023458 -0.05830972 -0.07665806 0.028533407 -0.07394658 -0.06762169 -0.056682147 -0.03413558
-0.0061433893 0.004577681 0.1460337 -0.13613965 0.08347325 -0.12790436 -0.14007877 0.06278511
0.07295788 0.0739675 -0.13322388 0.007843217 -0.14263576 -0.02089956 -0.09554935 -0.017833851
0.010901783 0.0341835 0.022450896 -0.12080158 0.13048953 0.015365263 -0.1513075 -0.03957157
0.09874368 -0.099348865 0.04305254 -0.09987662 0.09705143 -0.07870756 0.03933864 0.08646982
-0.043443207 0.0629348 0.13148202 -0.026180664 0.09362381 0.04155487 0.052230317 -0.0014037233
0.07547502 -0.043870308 -0.013447118 -0.069331944 0.007874198 0.15143444 0.12756275 0.14058165
-0.1118773 0.04016647 0.0006143828 0.055951998 0.07406379 0.1305107 0.13895972 0.16209881
-0.019967973 -0.1015258 -0.011880123 -0.039869387 -0.09548628 -0.12766771 -0.03972274 0.13822669
-0.035475466 -0.1416781 -0.17647883 -0.1319314 0.081606165 -0.07808038 -0.08009538 0.029457713
-0.14211705 0.07401688 -0.12410346 -0.07494906 -0.069652684 0.074256554 -0.08153012 -0.071014255
-0.039693233 0.15718032 -0.1975693 0.15952288 -0.11655783 -0.12246583 -0.13174565 0.10602954

cvae.fc1.weight f4 [48, 96]
00000000: 1bc1 843d 5faf 91bd 38fb 75bd 6a4d 263d
00000010: 6857 00bc d985 a4bd 3f3f ad3d 62d9 86bd
00000020: c870 e7bc 552c 2ebd ddee c8bb 2f01 33bc
00000030: dc21 a4bc 9030 10bd 9694 be3c 05d5 40bd
00000040: e6dc 1ebd 3b0d 9a3d 1963 923d 8697 8e3d
00000050: b2b6 8a3c 42d6 df3c 2c2b 97bd 6d16 983d
00000060: a0e5 77bc 4348 5dbd fc2d d4bd b8d9 3dbd
00000070: d311 583d 297e 5e3d 95e4 b43c 9ea8 c13c
00000080: 7472 c2bd 882f 61bd 27bd a5bd 186a 5a3c
00000090: 1719 00bd 8963 b6bd e44d 69bd 905b 9bbc
000000a0: 9c00 d73b 21c0 353d cdf1 c0bd fb57 913d
000000b0: 21e7 923b 9a7a 8f3c f8f2 b9bd 70b2 ff3c
000000c0: b595 b83d 1caf dfbd ef8d c53d fed3 3a3c
000000d0: 1213 b33d d1d0 d8bc 2b89 79bd 9a81 3bbc
000000e0: 15db ad3d 7501 3f3b 8c94 90bd d0f2 30bd
000000f0: 3fe6 a0bd 2d56 be3d 0f43 58bd d6ea 3dbd
00000100: b523 9d3d 38a4 7c3d 3056 dcbd 091e 053b
00000110: 614e ec3c 0fcd a2bd f603 4f3d 961d 9a3d
00000120: 2d11 973d 9b02 febc 2bc6 c0bd 6f86 fa3b
00000130: 663e a73d 29e4 8abc 46f5 623d 6407 823b
00000140: 482c e83c dcc7 053d 75cf f5bd b0bb 263d
00000150: 0929 cabd 2dbb 353d 450d cfbd 2e42 74bd
00000160: 2b80 02bd 73c0 983c f5d1 7c3d e68c 09bc
00000170: 4623 cdbd 9011 c83d b8b6 413d dd20 833d
00000180: 621b a33b 2180 97bd efef 61bd f7c7 193d
00000190: cdb5 9dbb 6d68 c43d b232 84bc 9e0b 1c3d
000001a0: 6a98 32bd 1650 733d 41a8 a5bd f2a4 343b
000001b0: c00a 803d 4a7b c3bd 5b42 84bd 9868 b33d
000001c0: b8f6 36bd adb2 73bd a5bb b23d 0c5d cdbd
000001d0: 5d5a 09bd 353f 94bd 229f 9a3d 720e 8abc
000001e0: 765b e43c 4890 2f3d 82f2 d9bc cb91 8abd
000001f0: edab a63d 497f 4c3d 3ea9 0c3d 8809 7d3d
00000200: 34a6 7abd d3ad 3dbd 598f efbc 472f bc3d
00000210: dfe3 adbd 4ac2 c9bd 2443 50bd 125f a23d
00000220: 19c9 7f3d 10b5 c2bd 7715 66bd d3c8 80bd
00000230: edf4 c8bd c157 8ebd 8379 a8bd 2c62 61bd
00000240: 4329 713b 2977 b13d 6ffb ed3c b6da 67bb
00000250: 9c3e 89bd 96dd ac3d fed8 9e3c e2a1 28bd
00000260: bd68 783d 32c7 443d 5b67 dfbc ceb0 ba3d
00000270: 8dfd 32bd 0659 a9bd 6e36 033c a40d ecbc
00000280: defd cc3b d34f 543d 916c 14bc e1fb 6f3d
00000290: 8bbd c1bc f4cc 9abc 0a51 86bd 6c63 c2bd
000002a0: c3f1 b1bd fbc9 37bd c703 a1bd e734 a3bd
000002b0: dc37 cd3c f845 4d3d 225d 5fbd 6fe0 a53d
000002c0: 422e d63d 1933 70bd 3b74 5b3b 1711 a43d
000002d0: 09bd 223d 662c 9fbd 6ed0 7fbd 2aa8 ddbc
000002e0: c2e5 dcbd 48c3 d03d 3cf3 fd3c ad30 b83d
000002f0: 6d59 023b 69f1 c0bc 9c00 8fbc c65f 65bc
00000300: 07c4 babd 7508 12bd b5f5 b33b 879f bd3c
00000310: 0d76 90bd 58e6 93bd 7b60 fcbc 6ae8 36bc
00000320: 8c4f ec3c 68e3 0b3d 9368 cb3d 13a9 97bd
00000330: b59b 8e3d 1b5c 44bd 5d26 823d e4e7 863d
00000340: b1ec 71bd 002f 643d d62c 963c 0e58 d7bd
00000350: 09c5 af3d 9e13 4abd 29a1 b4bd 9549 af3d
00000360: c816 be3b 024c e53c 12d9 513c 7c98 c83c
00000370: 757e afbd 5eee 5bbd 09ef 45bd 60fa 4c3d
00000380: 3d9f 903c b707 483b 4dcb b7bd 1d37 60bd
00000390: 65dd ed3c 95f5 afbd a108 933d 5caa 603d
000003a0: 6af9 c93d 5fb0 e43c 4466 9b3d 01a8 303d
000003b0: 612c 1abd 6e50 93bc 8c7d 093d be00 823d
000003c0: 8f3b dbbc 92f5 7fbc 7328 8e3d 72aa 37bd
000003d0: 4827 b2bd 09de 6fbc ee75 bebc 18b2 143d
000003e0: ae39 aa3d 02a1 713d 5f41 adbd 206a bb3c
000003f0: dd8c f3bc a378 933d 2bd3 663d b93a 54bc
0.064821444 -0.071135275 -0.060054034 0.04060117 -0.007833339 -0.08033342 0.08459329 -0.06584431
-0.02825202 -0.042522747 -0.0061319903 -0.010925575 -0.020035677 -0.035202563 0.02326421 -0.04707815
-0.038784884 0.07522055 0.07147808 0.069624946 0.016932819 0.027323846 -0.07381281 0.074261524
-0.01513043 -0.054023992 -0.10360333 -0.04635021 0.052751373 0.054319534 0.022081653 0.023639973
-0.094944865 -0.05497697 -0.080927186 0.013330959 -0.031273928 -0.089057036 -0.056959048 -0.018964559
0.006561352 0.04437268 -0.0942112 0.07096859 0.004483119 0.017514516 -0.09079546 0.031213015
0.09012929 -0.10922071 0.09646212 0.011403082 0.08743872 -0.026466759 -0.06092183 -0.011444474
0.08489052 0.0029145156 -0.07059583 -0.043200314 -0.07856416 0.092937805 -0.052798327 -0.046366535
0.07672826 0.06168005 -0.107586265 0.0020312092 0.028845968 -0.07949268 0.050540887 0.07525174
0.07376323 -0.031007102 -0.094127975 0.0076454203 0.081661984 -0.016954498 0.055409692 0.003968166
0.028341427 0.032661304 -0.1200246 0.040706336 -0.09871108 0.044367958 -0.10109953 -0.059633426
-0.03186051 0.018646454 0.061723668 -0.008395409 -0.100164935 0.09768975 0.047293395 0.064027525
0.0049776295 -0.073974855 -0.05516046 0.037544217 -0.004812932 0.0959023 -0.016137455 0.038097017
-0.043602385 0.059402548 -0.080887325 0.0027564135 0.062520504 -0.09545 -0.06457969 0.08760184
-0.044668883 -0.05949657 0.087271966 -0.10027513 -0.033533443 -0.07238618 0.075498834 -0.016852591
0.027875643 0.042862207 -0.026604895 -0.06766089 0.08138261 0.049926076 0.03434109 0.061776668
-0.06119366 -0.04630835 -0.029243158 0.09188705 -0.084907286 -0.09851511 -0.05084528 0.079282895
0.06244764 -0.09507191 -0.056172814 -0.06288304 -0.09812341 -0.069503315 -0.082263015 -0.055025265
0.0036798276 0.08665306 0.029050557 -0.0035378165 -0.06701395 0.08440702 0.01939058 -0.04117001
0.06064676 0.04804153 -0.027270963 0.09115754 -0.043698836 -0.08268933 0.0080085825 -0.028815098
0.0062558493 0.05183394 -0.009059087 0.05858982 -0.023649951 -0.018896557 -0.06558426 -0.094916195
-0.086886905 -0.044870358 -0.078620486 -0.07969075 0.02505105 0.050115556 -0.054532178 0.08099448
0.10458042 -0.05864248 0.0033486027 0.08011072 0.03973106 -0.0777214 -0.062454633 -0.027057726
-0.1078601 0.10193497 0.030999772 0.08993659 0.0019889728 -0.023552613 -0.017456345 -0.013999885
-0.091194205 -0.035652597 0.005491937 0.023147358 -0.070537664 -0.07221669 -0.030807724 -0.01116381
0.028846525 0.03415242 0.09932055 -0.07405295 0.069632925 -0.0479394 0.063549735 0.065871984
-0.059063617 0.055708885 0.018331926 -0.10514842 0.08582503 -0.049335115 -0.08819801 0.085589565
0.0058010556 0.027990345 0.012808101 0.024486773 -0.08569042 -0.05369412 -0.048323665 0.050043464
0.017654056 0.0030522177 -0.089743234 -0.05474006 0.029036233 -0.08591763 0.0717938 0.054849967
0.09862025 0.027916132 0.07587865 0.04312897 -0.03763998 -0.017982688 0.033566996 0.06347798
-0.026761798 -0.015622513 0.06941309 -0.044840284 -0.086988986 -0.01464034 -0.023249593 0.036302656
0.08311783 0.05899144 -0.08459734 0.022877753 -0.029730255 0.07200744 0.05635373 -0.012953454
