save/sample_generator.pt (torch_old, 184160 bytes, 26 tensors)

encoder1.conv.weight f4 [16, 2, 3]
00000000: f63a 813f 8a77 5c3f e5d2 583f 832a f23e
00000010: 30ba 5e3e e19a efbd c22c e73d 6f94 6fbe
00000020: 7612 43be 4f62 8dbd a650 76be 385a c6be
00000030: f054 24be a729 c1bd 1e3f 7a3e 8542 bcbe
00000040: 0be7 eebe e2a3 193d d053 92be 8fdb 783e
00000050: 08bf 2a3c 0978 93bd 77de 14bf 1f2a 00bf
00000060: b652 27be 1dc3 6fbe d556 a4be 127b c23d
00000070: bbe4 94be 9f4c 1bbe e3fe 39bd fa81 143d
00000080: 5c45 4d3e ef19 07bf 66ea de3d 49c7 debe
00000090: d5e9 993e f6c3 9d3e 2902 88be c8b1 6b3d
000000a0: db20 d0be c949 08bf e2fa 2e3e 734f 23be
000000b0: 57e3 073d 5325 ce3c 874b 9dbe 2d13 8c3e
000000c0: 2af8 1abf 4c66 afbe 0145 53bc 33ab 203e
000000d0: cda0 d73e 1d34 bcbe 0f02 abbc 81dd 08bf
000000e0: 479b 6bbe d17b fbbb ef6a 073f d773 183f
000000f0: f272 a0be 3dd4 023e cf69 7d3e 28f2 6dbe
00000100: 9a57 a9bd f28e 58be c65c ce3d 3712 b2be
00000110: 8b67 c73d d998 ccbe 15f4 8cbe acb5 12bf
00000120: 81e9 a13c c882 743d abd0 673d f8ce debe
00000130: 9dc4 1abf aa25 81be 5c67 313c a83c 153e
00000140: 6e0d eabe ecc9 a6be 2748 b2be a683 2dbe
00000150: 2fb2 313c 49be 623e 8d48 8abe b393 05bf
00000160: 42cf 24be 25ce f1bd 788c 88be 69be 8dbe
00000170: 5ed3 d13d c3da 553e 8474 cabe 72ed a8be
1.0096118 0.861199 0.846968 0.4729806 0.21750712 -0.11699463 0.11287834 -0.23396467
-0.19050011 -0.069035165 -0.24054202 -0.38740706 -0.16048026 -0.09431773 0.2443814 -0.367695
-0.46660647 0.037509806 -0.2857957 0.24302505 0.010421522 -0.07200629 -0.58151954 -0.5006427
-0.16340145 -0.23414274 -0.32097498 0.0949613 -0.29080757 -0.15165947 -0.045409095 0.036256768
0.2004599 -0.52773947 0.10884552 -0.43511418 0.30061212 0.3081357 -0.26564148 0.057542592
-0.40650067 -0.5323759 0.17087892 -0.15948276 0.033175793 0.025164282 -0.30721685 0.2735838
-0.6053492 -0.34257734 -0.01289487 0.15690307 0.4211487 -0.3675851 -0.020875005 -0.5346299
-0.23008452 -0.007674672 0.5289754 0.5955176 -0.31337696 0.12776275 0.24747394 -0.23236907
-0.08268662 -0.2114828 0.10076289 -0.34779522 0.09736546 -0.39960364 -0.2752997 -0.5730846
0.019764664 0.059695035 0.056595486 -0.4351728 -0.6045626 -0.25224048 0.010827865 0.1457392
-0.4571337 -0.3257593 -0.34820673 -0.16944751 0.010845705 0.221429 -0.27008477 -0.52178496
-0.16094688 -0.11806897 -0.2666967 -0.27684334 0.10245393 0.20884232 -0.3954202 -0.32993656

encoder1.conv.bias f4 [16]
00000000: 599c a13e ce2c 653d 48c0 dbbe c1cc bbbe
00000010: d95a 49be f6b2 a1be 4d22 d7bb f722 adbe
00000020: f6ea a8be 6156 41bd 6b6f 87be 8847 8cbe
00000030: a038 9f3b a907 febd 790a 81be 322e febe
0.31564596 0.055950932 -0.42920136 -0.36679652 -0.19663562 -0.3158185 -0.0065653683 -0.3381574
-0.3299176 -0.047201518 -0.26452193 -0.27398324 0.004859045 -0.12403805 -0.25203303 -0.4964462

encoder1.gru.weight_ih_l0 f4 [144, 16]
00000000: 4dd4 90be 5703 49be 5ed5 86bc 4a1d 26bd
00000010: e67d 0ebe b855 8abe 7a5a bbbe 1e68 a0be
00000020: 63ec 913d 950c 03be 051e a3be d274 40bd
00000030: d579 0bbd da48 5e3d c864 533d 7aad 24bd
00000040: cac1 583c 49f5 a43d 7e14 5bbc 99f1 1c3c
00000050: 3ee2 bf3d 46e3 543d 15b4 34be a450 fb3c
00000060: 360d b33c ef6a 733d 56b2 d63c bcbd 7dbc
00000070: b768 d5bd 01b8 6c3e 34b2 7d3d 9f6c fc3d
00000080: f297 b8bd b579 89bd a9c3 33bd 9991 bf3c
00000090: 84cc 90be 44d7 87bd 9ced a3bd e6e0 833e
000000a0: 742b 10be 296d cabd 0f22 30bd ec82 1abe
000000b0: 1f3f b63c 7ee5 babc d1db a1bd 87f1 f5bd
000000c0: 767b f4bd 4e57 c2bd 2b67 0c3d a151 f53d
000000d0: b8df 57be 3eec 053e 1b85 19be 9320 debd
000000e0: 0e4f 6dbe efc1 4d3e 642c 6f3d 85eb d6bd
000000f0: 4d6e 9abd e629 b1be bd36 57be 1261 2cbd
00000100: 553f 9bbd 467d a2be 187e 87be 009f 04be
00000110: 9ec4 a93c 32ba b6bd 0c28 d1bd da06 83be
00000120: 521d 8e3d 71b5 a63d a856 92bd 5e2d 0fbe
00000130: 5142 05bc afd3 66be 7075 1cbd 8bc7 47be
00000140: 84fb 8ebd e447 50be 5391 c43d 96f4 b6bd
00000150: 63bd 0bbe a479 b03d 036d 8bbd 0048 283c
00000160: 3962 dfbd 1107 63be 1059 93bd ee17 703d
00000170: aba4 41be 139e 17be 50bc 7f3c 0ef1 0c3c
00000180: 1556 01be 2740 26be c243 923c 6237 41be
00000190: 197b 4abe 1431 223d 3ea0 57be 2f46 62be
000001a0: 9380 33be c742 62bd 8676 3abe 24d8 5bbe
000001b0: 7458 40be ced2 95be c05c 36be a3cb afbd
000001c0: 9195 42be bb7b 02bb 7bde 23be 5c4c 7cbe
000001d0: e1f7 1f3c 9c26 83be 1f1f 86bd 8d66 86be
000001e0: 571e 24be e7c1 9fbe 7cc4 88be 931a 46bd
000001f0: 396c 9f3b 0a9b 26be dac9 64be e9f2 de3d
00000200: 77b7 f23e 2e14 683e cacf ad3e fb39 933e
00000210: ff3f 53be bceb d93e 22ba 093f 6fb3 bdbc
00000220: 4312 85be 88e9 60be 88cb d73e 5cfe 24bd
00000230: 3731 65bc a4bd 123d a4c6 1c3e e6c3 6bbd
00000240: 2f2c 07be 5e76 b0bd 349b 30be 3cf5 2cbe
00000250: 3844 8fbe cc43 a8be 8c88 67bd e638 8cbe
00000260: a60b eebd 65aa 58be 654d 61be 264e 3abe
00000270: 7e3b c63d 7039 20be c128 56be 1803 3bbe
00000280: 5c8a 81bd 7d95 4dbe 656e 67be 5697 6fbe
00000290: c6d7 dfbd 442c 99be e2d1 abbe db80 15be
000002a0: 1eab b8bd dbad 013e 91d8 0abe 3407 adbd
000002b0: db9c 823d 545f 823c d9c6 51be 8030 9dbd
000002c0: 4f88 e0bd 3643 83be f82c 90be 3b12 24be
000002d0: b2d7 e9bd 9957 c2be fcce a4be 952f b8bd
000002e0: a440 773c b82f b93d 0df3 bebe 51fa 5fbd
000002f0: e69b 6cbe 1fc5 12be 5ee0 41be 9398 5dbe
00000300: 8fa3 71bd a3ab a6bd 0450 1abe 6af4 59be
00000310: a5af f6bd 0db7 71bd eeed 0fbe 5365 0bbe
00000320: 86a7 a13d 612c 11be b8e5 9bbd 3003 d7bd
00000330: d0b3 bd3c ea30 0f3d 7b67 68bd d8e8 7d3c
00000340: 6729 02bd 4d66 b33d 19f7 3bbd 1bbe 17bd
00000350: e5b9 0cbe efca 783d 48a7 3839 dd01 9cbe
00000360: f2c6 8dbe 6d83 dabe ac13 123d 35cd d2bd
00000370: eb90 f63d 31c3 0cbe e52d 303e 29c9 79bd
00000380: 8a4a 2fbd 4797 64be a0b3 413d 4786 84be
00000390: a7ce 33be f593 67be 2c3d 03bd 3e5d 993d
000003a0: 850e 5e3d daef c8bd 6f99 053d 999f 513d
000003b0: 7e91 3dbd 030f 233c 68df d9bd 885d 0bbe
000003c0: 804b 8c3e cddc acbd ffca 89bc c7fa 30bd
000003d0: f985 74be 6763 17be c82d 083d 8b47 a03c
000003e0: ce44 89be 6f03 00bd 4e25 88bd 21f3 4ebe
000003f0: e98c 81be 69d1 6bbe f27a afbe f31a 01be
-0.28286973 -0.1963018 -0.016459163 -0.040555276 -0.13915214 -0.27018523 -0.36592466 -0.31329435
0.07125165 -0.12797768 -0.3185884 -0.04698641 -0.034051735 0.054268695 0.051609784 -0.040204503
0.013229797 0.08054597 -0.013371585 0.009579086 0.09369324 0.051974557 -0.17646821 0.0306781
0.021856885 0.05942815 0.026208084 -0.015487131 -0.104203634 0.23117067 0.061937526 0.12325405
-0.09013356 -0.06712667 -0.043887768 0.023384856 -0.28281033 -0.066328555 -0.08004305 0.2575752
-0.14079076 -0.09884102 -0.04300123 -0.15089005 0.022246895 -0.022814509 -0.07903255 -0.12008958
-0.11937611 -0.09489308 0.034278076 0.1197846 -0.21081436 0.130784 -0.14992182 -0.10846057
-0.23174688 0.20093511 0.058391944 -0.104941405 -0.075405695 -0.34602278 -0.21016975 -0.04208476
-0.07580439 -0.317362 -0.2646339 -0.12951279 0.020723637 -0.08922233 -0.102127165 -0.25591165
0.06939186 0.08140076 -0.071454346 -0.1398215 -0.008133487 -0.22541688 -0.038197935 -0.19509713
-0.069815665 -0.20339924 0.09598031 -0.0893337 -0.13646464 0.08616951 -0.06807902 0.010271072
-0.10907406 -0.22170664 -0.07194722 0.05861657 -0.18910472 -0.14806394 0.015608862 0.008602394
-0.12630494 -0.1623541 0.017854575 -0.18868783 -0.1977352 0.039597586 -0.21057221 -0.22097085
-0.17529516 -0.055239465 -0.18209276 -0.2146917 -0.18783742 -0.29262394 -0.17808819 -0.085837625
-0.19002368 -0.0019910175 -0.16002838 -0.24638504 0.009763689 -0.25615394 -0.06548905 -0.26250115
-0.16027199 -0.31202623 -0.26712406 -0.048365187 0.004865196 -0.1627008 -0.22342625 0.10886175
0.47405598 0.22663948 0.33947593 0.28755173 -0.20629881 0.42562664 0.5379964 -0.02315685
-0.25990495 -0.21964085 0.4214747 -0.04028164 -0.0139887845 0.035825387 0.1531015 -0.05755987
-0.13200448 -0.08616327 -0.17246705 -0.16890424 -0.27981734 -0.32864225 -0.056526706 -0.2738716
-0.116233155 -0.2115875 -0.2200218 -0.18193874 0.09679316 -0.1564691 -0.20913984 -0.18262899
-0.06325218 -0.20076557 -0.22600706 -0.23397574 -0.109298274 -0.29916584 -0.33558565 -0.14599936
-0.09017013 0.12663977 -0.13559176 -0.084486395 0.06377574 0.015914597 -0.2048601 -0.07675266
-0.10963499 -0.25637215 -0.28159308 -0.1602258 -0.11418094 -0.37957457 -0.32189167 -0.089934506
0.015091095 0.09042305 -0.37294808 -0.05468208 -0.23106346 -0.14333008 -0.18933246 -0.21640234
-0.058993872 -0.08138206 -0.15069586 -0.21284643 -0.1204522 -0.05901246 -0.14055607 -0.13612871
0.07893281 -0.14177085 -0.07612175 -0.10498655 0.02315703 0.034958757 -0.05673931 0.015497409
-0.031777766 0.08759747 -0.045889948 -0.037046533 -0.13742788 0.060740408 0.00017609925 -0.30470172
-0.27690846 -0.42678395 0.03566329 -0.102930464 0.1203936 -0.13746335 0.17205007 -0.060982857
-0.042795695 -0.22323333 0.047290444 -0.25883695 -0.175593 -0.22615035 -0.03204076 0.07488488
0.054213066 -0.09811373 0.03261703 0.051177595 -0.04628133 0.00995231 -0.106383145 -0.13609898
0.27401352 -0.08440552 -0.016820429 -0.04320791 -0.23879232 -0.14784013 0.033246785 0.019565364
-0.26810306 -0.031253275 -0.0664774 -0.20209934 -0.25302818 -0.23029102 -0.34273487 -0.12607937

encoder1.gru.weight_hh_l0 f4 [144, 48]
00000000: 0eff 013e 4a62 f7bc 9077 2e3d 15d7 b1be
00000010: 1127 32be fc74 26bd c4c3 e33e 40ad 233d
00000020: 82c3 a33e 55e2 883e 6d06 99be a76b 0a3e
00000030: 3103 ad3e 0688 0fbf b89b 00be df66 7a3e
00000040: 64d8 f43d de74 c53c f3c3 07be dfe4 b23e
00000050: 67c7 863e 05a7 14be 7bb0 ebbd cd22 c63d
00000060: f622 95be cfa7 0d3e 3214 8d3e cf7b 223d
00000070: 892d 243e a6af b73d 8a0a 1dbe 1516 433d
00000080: 0398 64be 8b50 c9bc abc4 5e3e 8c02 e4bd
00000090: 9a09 083e 8f31 0bbd 5241 b43e 70fb 1fbe
000000a0: 29d5 fdbe 6625 99bd b6ad 433e c352 acbc
000000b0: 7b17 73be ef0b e3bd 9334 c33d 336a b2bc
000000c0: 415f 9f3d 6e28 eb3c f39f 793d 61bc f0bd
000000d0: d07b 48be 8721 08be a6c2 f33d 1c7e 4a3e
000000e0: b1eb 243d 7bb8 d7bd f06d d5bd 21b2 18be
000000f0: 31b3 5d3e e107 dcbd da6e af3c ec7e ee3c
00000100: 162b 6e3e 9b9c 04be 7837 39bd a53e ea3d
00000110: ad44 4f3e 0b26 c9bd 8023 a43c d0dd 033e
00000120: b742 1d3c 60db 2e3e 5c29 f7bd 8b92 80be
00000130: 3d33 aebd 6962 b93d d315 163d b83c 333e
00000140: c1af 94bd 5b7d f9bd 70cc 073e b185 69bd
00000150: 41a8 aa3d ddad 1cbe d6ba 113e ac39 fcbc
00000160: 5f8f 8bbd bffa 45bd 3021 e43d c7db 883e
00000170: 9dfb 17bc 4a90 503a 7f74 4b3e 67d4 adbd
00000180: 37c4 333b d4bb e8bd 31b7 b0bc de00 fbbd
00000190: cab5 663d b3d1 883e 2400 00be dd77 44be
000001a0: d4b2 7fbe 3d0d c0be 29ce 66be 492b fa3d
000001b0: 5a7f a1be f7f1 c63e 5c1f c43d f9f3 d63b
000001c0: ac3e 16ba 9f91 283d ece6 35be 2467 9abe
000001d0: 4689 15be 8785 31be 3f63 b3bd 70be 133e
000001e0: 919d 27be cfd8 5d3e 34ef e73d c0d9 dcbd
000001f0: 5b62 893e 72d3 95bc 4b01 163e 8604 50be
00000200: 1d1e fa3b 5984 a03e fa99 c3bc 0817 a03e
00000210: 2fa6 703e f468 50bd dcf8 8fbe 5026 003e
00000220: b780 823d 3df6 63be dd60 883e 352a b5be
00000230: 7354 ffbd 37a9 203e 7ed6 ac3d 8567 b33d
00000240: 0a90 55be 7e59 9dbc 7f94 2f3d 9383 8c3e
00000250: ce2d 7a3d 2063 3c3c 61fd 44be bc7a 61bd
00000260: 6793 bc3e e0e1 ab3c 0324 ffbc bf41 8bbd
00000270: 1def 963d 1157 59be cb39 d63d 4116 6fbc
00000280: 75c5 8b3d e105 a33d d03f e1bd 61eb 973a
00000290: 739c debd e5ba 77bd 10bf 2ebc c1aa 60be
000002a0: 26a6 183e 604f a1bc 4a73 593d 86f5 a6bd
000002b0: 2160 c23e 43ee 743e da65 abbc 5600 aebe
000002c0: 0188 aebd 9cc1 95bd 23cb 1b3d 4156 ec3c
000002d0: da27 5e3e 16d6 243d cf02 6fbe e7c7 133d
000002e0: 6e94 16be 7aaa a63e 907b dabc 450e 463e
000002f0: 9665 bf3c 88dd de3b 030c 65be 2ab6 a63e
00000300: 2584 ba3d c43b 77bc 9bd2 0f3e 79e6 08bf
00000310: 05ff 1f3d 29d5 023c a954 e63e 3ee1 afbd
00000320: 4c65 903e 16df 3e3e 98ff 92bc eb20 763d
00000330: 92b1 ca3d bcc9 99be 33b1 4dbe 29d1 df3d
00000340: 765a 1dbe 54e7 71be c413 c1be 67a6 193e
00000350: d67d 983e 6c44 7abe d7d8 5ebe 5e84 763e
00000360: ec33 7dbe 1a4d b83e ea97 8a3e 1e96 023c
00000370: bb28 d63d 0c1a 513e 4e93 bbbd 6dd8 a0bd
00000380: 75ea 39be a3dc 90bd 2320 913e 27cc 243d
00000390: be2c d63e 90e6 b73d 1f45 0f3e 6d11 903d
000003a0: 87d7 e9be a609 90bd 172d 003e 0ca1 c8bc
000003b0: 1fd3 80bd ba61 22be 6162 293e e548 6f3d
000003c0: 8623 333e b444 403d bf6e bb3d 64b8 5cbe
000003d0: 77df 52be f550 9c3d 23c7 4b3e 0276 83bd
000003e0: 269f 053e 6e75 823e e84f dbbd 90f6 563e
000003f0: 98df 493e 7bb7 95be a00c 71bd 13cf c23e
0.12694952 -0.030198235 0.042594492 -0.34734407 -0.17397715 -0.04063891 0.44485295 0.039960146
0.31985098 0.26735178 -0.29887715 0.13517629 0.33791497 -0.5606693 -0.12559402 0.24453305
0.11955336 0.024103578 -0.13258342 0.3494024 0.26324007 -0.14516838 -0.1150827 0.096746065
-0.29128236 0.13833545 0.2755447 0.039668854 0.16032995 0.08969049 -0.15336052 0.04762848
-0.22323613 -0.024574539 0.2175471 -0.11133298 0.13284913 -0.03398281 0.35206085 -0.1562326
-0.4957669 -0.07477836 0.19109234 -0.021035558 -0.23739426 -0.110862605 0.09531512 -0.021779155
0.0778184 0.028705802 0.060943555 -0.117546804 -0.1957848 -0.1329404 0.119023606 0.1977467
0.040263835 -0.10533234 -0.104213595 -0.14911701 0.21650387 -0.1074369 0.021415163 0.029113255
0.23258623 -0.12950365 -0.045218915 0.1143773 0.20241041 -0.09821709 0.020036459 0.12877584
0.009598426 0.17075872 -0.120684355 -0.25111803 -0.08505867 0.090519734 0.036641907 0.17503631
-0.07260085 -0.12182113 0.1326158 -0.057012264 0.08332873 -0.15300699 0.14231429 -0.030789219
-0.06814455 -0.048334833 0.111391425 0.26730177 -0.009276298 0.0007956071 0.19868658 -0.08487778
0.0027430186 -0.1136395 -0.021571727 -0.12256025 0.05632571 0.26722488 -0.12500054 -0.19186349
-0.24970561 -0.375101 -0.22539581 0.12215287 -0.31542474 0.3885648 0.09576294 0.0065598455
-0.0005731385 0.0411545 -0.17763871 -0.30156815 -0.14603147 -0.17336093 -0.08759164 0.14428115
-0.163687 0.21664737 0.11324921 -0.1078372 0.26832852 -0.018289302 0.1464893 -0.20314226
0.0076329843 0.31350973 -0.023877133 0.3126757 0.23500894 -0.05088134 -0.28119552 0.12514615
0.06372207 -0.22261901 0.266364 -0.35383764 -0.12467279 0.1568955 0.08439349 0.08759979
-0.20855728 -0.019207712 0.042866226 0.27444133 0.06107884 0.011498243 -0.19237281 -0.05504869
0.3683121 0.020981729 -0.031145101 -0.067996494 0.07369826 -0.2122462 0.10460242 -0.014592708
0.06824771 0.07960106 -0.109984994 0.0011590534 -0.10869684 -0.06048097 -0.01066567 -0.21940137
0.1490713 -0.01969117 0.053088464 -0.08152299 0.37963966 0.23919015 -0.02092259 -0.3398463
-0.085220344 -0.07312319 0.038035523 0.028849723 0.2169489 0.04024323 -0.23340915 0.036079314
-0.14705059 0.32551938 -0.026670247 0.19341381 0.02336387 0.006801311 -0.22367863 0.32560855
0.09107236 -0.015089933 0.14045183 -0.53476673 0.039061565 0.007985392 0.44986466 -0.085878834
0.28202283 0.18639788 -0.017944142 0.060089987 0.0989715 -0.30036724 -0.20087127 0.10928566
-0.1536654 -0.23623401 -0.37710392 0.15004884 0.29783505 -0.24440163 -0.21762405 0.24073932
-0.24726838 0.35996324 0.27069026 0.007970361 0.104569875 0.20420092 -0.091589555 -0.0785378
-0.18155845 -0.07073333 0.2834483 0.040233757 0.4183101 0.08979523 0.13991211 0.07034574
-0.45672247 -0.0703309 0.125172 -0.024490856 -0.06290268 -0.15857592 0.16541435 0.058419127
0.1749402 0.04694052 0.091519825 -0.21554714 -0.20593058 0.07632629 0.19900183 -0.064189926
0.13048992 0.25480217 -0.107086 0.20992494 0.197142 -0.29241547 -0.05884993 0.3804861

encoder1.gru.bias_ih_l0 f4 [144]
00000000: 239e 89be 31d8 90be bcdc f4bc 6f99 9c3c
00000010: ffd9 94be 6c1b 19be dc3a ccbe 4c66 14be
00000020: 9a61 413e ac73 bfbe 93df c6bd 4692 9ebd
00000030: 9f51 a0be d7cd 8cbd f136 71be 0fcf c63d
00000040: cd2b 9ebe 5c64 66bd 381a 64bd c493 83be
00000050: 8647 39be 0451 86be 2128 a8be f3b1 28be
00000060: 5cd9 85be 3a29 dcbd ea7d d6be bcff c5bd
00000070: 529a 9bbd e5c4 6bbe d313 813b 9254 72be
00000080: cab1 75be 4a69 c3bd 8da0 8abe afa8 36be
00000090: 6c52 99be fff3 2cbe 4dcc a4be 3581 21be
000000a0: 2e4a 7fbd a8ba c63d 6f35 afbe 216d a9be
000000b0: bb70 ddbe 1e3c 28be c23e 5dbe 022a 96be
000000c0: e861 983e 21fd a43e c685 eb3e 4de2 0d3f
000000d0: 0510 263e abfb fabd b87b 8cbe 43fb e63e
000000e0: 32d7 a1be d6ce 24be 90e9 823e e912 5fbe
000000f0: 4591 72be 1ce1 5fbd c323 483e b05e c03e
00000100: 4548 a9bd 968a 963e 6b37 5abe 1a84 9f3d
00000110: 6bec 73be afbe dfbe 0f27 c9bd 7361 bcbd
00000120: 74af 01be 3a21 0b3e 4a56 55bd c615 35be
00000130: 41fc 8fbe d745 16be 305f 0e3f d830 ec3e
00000140: cf43 ac3e a26b abbe 9692 81bd 162f acbd
00000150: ec5b 0bbe a70d c93e c6f8 40bd 5736 393e
00000160: 834a 1e3f f3a8 003e 8c42 39be 6e6c 353d
00000170: b646 82bd 1244 243f e707 9d3c 9134 fcbd
00000180: 4300 9c3e b703 5f3e 69fa 313d 8f73 993e
00000190: 6894 ab3d 7be5 a93d dc9f 0bbe b075 25be
000001a0: 91e8 61be a06c 8ebe 90dc b93d 1647 5cbe
000001b0: 5ab4 acbe ff34 b43e 7add dfbc 41a4 9fbd
000001c0: 8e80 c53c 042d 223e fb67 273e 7cd2 8bbe
000001d0: 43c9 4bbe 4e8e fd3d 5a6c 87bd 2a7e 39bd
000001e0: f2e9 d0bc 0132 3fbe 4d55 41be bcbb f1ba
000001f0: ab92 cc3d 8a5b cabc 54cf 7c3d 2e61 e9bd
00000200: a4e8 7a3d 9238 81bd 4e33 43be c61e a83d
00000210: 8676 3dbe 733b 923d 1ed7 f7bd f5c6 8c3d
00000220: a388 e33e f103 973d fc1e 44bd 77c2 c6be
00000230: e666 d8bb e6ea 373d 5c14 dcbd d341 78bd
-0.2687846 -0.2828994 -0.02989041 0.019116132 -0.29072568 -0.14951867 -0.39888656 -0.14492148
0.18884888 -0.37392938 -0.09710612 -0.07742743 -0.31312272 -0.06875198 -0.23556115 0.09707462
-0.30892792 -0.056248054 -0.055689067 -0.25698674 -0.1809369 -0.26233685 -0.32843116 -0.16474132
-0.26142395 -0.10750051 -0.4189294 -0.09667918 -0.07597794 -0.23024328 0.003939131 -0.23665074
-0.23993602 -0.09541567 -0.27075616 -0.17837785 -0.29945695 -0.16889952 -0.3218712 -0.15771945
-0.062326603 0.097035706 -0.34220454 -0.3309107 -0.4325007 -0.16429183 -0.21605971 -0.29328924
0.29762197 0.32224372 0.460005 0.5542343 0.16217048 -0.12255033 -0.2743814 0.45113572
-0.31609493 -0.16094527 0.2556882 -0.21784557 -0.23688228 -0.05465804 0.19544892 0.3757224
-0.082657374 0.29402608 -0.21310203 0.07788868 -0.23820655 -0.43700168 -0.09821903 -0.091982745
-0.12664586 0.13586894 -0.052084245 -0.17684087 -0.28122142 -0.1467508 0.55613995 0.46131015
0.33645484 -0.33480555 -0.06326787 -0.084074184 -0.13609284 0.39268228 -0.04711225 0.18087135
0.61832446 0.12564449 -0.18091792 0.04429286 -0.06361143 0.6416637 0.019168807 -0.12314714
0.3046895 0.21778761 0.0434517 0.29970977 0.083779156 0.08295723 -0.136352 -0.16158175
-0.22061373 -0.2781725 0.09075272 -0.21511492 -0.33731347 0.35196683 -0.027327288 -0.07795001
0.024109151 0.15837485 0.16348259 -0.27309024 -0.19900994 0.12380658 -0.06612463 -0.045286335
-0.025502179 -0.18671419 -0.18880196 -0.001844279 0.09988912 -0.024701852 0.06172116 -0.11395489
0.06125702 -0.06309618 -0.1906254 0.082089946 -0.18502244 0.07140245 -0.12101577 0.068738855
0.44440183 0.07373799 -0.04788111 -0.3882024 -0.0066040633 0.04490175 -0.10746071 -0.06060965

encoder1.gru.bias_hh_l0 f4 [144]
00000000: 8278 47be 8081 37be fab0 f03c 464d 0bbe
00000010: 4f7a 05bf 8d5b 8ebe 05ec b1be c89a d2bb
00000020: d6e9 463e a1ef 94be 68f3 65be 8c0d 3b3d
00000030: 94a9 c9be 36a8 b63d 9315 b0be 348f a8bd
00000040: bb83 7ebe dd71 9dbd 4f61 dd3d f348 a2be
00000050: 165a 41be a6b3 80be d28e a4be 9679 afbd
00000060: af70 6ebe 3904 ddbc ed84 07bf 366d c9bd
00000070: c193 7ebe d1f2 adbe d440 97bd 3e24 53be
00000080: b9ab 7dbe b84a 8fbe 4a3a 87be 81e8 dabc
00000090: f586 4bbe 70a4 23be 4521 70be bd7a 13be
000000a0: e24b 8f3d 8db0 87bd 485d 30be 18b7 25be
000000b0: d6c1 d7be bb58 303d f21b 3ebd 2103 52be
000000c0: 24d9 473e c787 ce3e 2c2f d73e 314b f73e
000000d0: 5247 ae3c 2146 20be af08 4fbe 94d2 a53e
000000e0: d0a8 72be b7e7 53be 8177 c23e 81d6 afbe
000000f0: 7179 19be 2a4d 6c3c 462e 0d3e 0e00 153e
00000100: 9e25 59bb e1b1 7d3e a2de 5abe bc25 58bd
00000110: 62bf 81be 3afa 85be 9085 fbbd 0e51 21be
00000120: a204 d9bd 8667 bb3e ed75 c13c 121d 16bc
00000130: 8a5c 0fbd 681b d9bd 110c ba3e ac82 093f
00000140: 5e86 973e f679 9ebe 6805 16bd ad62 47bd
00000150: 3004 78be 91a6 f93e c80d 92ba ad4f 62bd
00000160: 172e 453f b967 653d 282a 4bbe 5766 08be
00000170: 2dc3 7cbc a43c 293f d53b 04bd 0668 2dbe
00000180: a5fc 26bd 907b c83d dd03 903c 7e9a e83d
00000190: b333 0a3d c4df 02be 820b 45be 1ca5 b7bd
000001a0: b32f 18be e298 20be 15c7 3d3e 3b1a eabd
000001b0: 1b3e f73c 57a8 4a3e ad9e 213d 5b1a bfbd
000001c0: 6285 cabd f052 823d 3b7b 823c 42fd 20be
000001d0: fbff 8b3d e9c3 ee3c 58c5 853d 9f31 2bbe
000001e0: d15f 783c e415 22be f276 503c 9c73 40bd
000001f0: 3eea 173e 2d94 cdbc ed67 ea3d 1256 d2bd
00000200: 4a31 a1bd 91a4 c4bd 1d72 ffbd a5c1 8ebc
00000210: c1e2 85bd 141f e0bd c669 d6bd d4ca 6d3d
00000220: 6ce4 d43c 9c83 353e b509 90bb 4e4a 3dbe
00000230: 9d73 2c3d 6c06 d33d bff9 85bb 92e0 ae3d
-0.19479564 -0.17920494 0.029381264 -0.13603696 -0.52139753 -0.27804223 -0.3475038 -0.006427143
0.19425139 -0.29089072 -0.22456133 0.045667216 -0.3938719 0.089188024 -0.3439146 -0.08230439
-0.24854939 -0.07687733 0.10809576 -0.3169628 -0.18882021 -0.2513706 -0.32140213 -0.085681126
-0.23285173 -0.026979553 -0.52937204 -0.098352835 -0.24861051 -0.33974317 -0.07385412 -0.20619294
-0.24772538 -0.27986693 -0.2641166 -0.026722195 -0.19875701 -0.15980697 -0.23450191 -0.1440229
0.069968954 -0.06625471 -0.17223084 -0.16183126 -0.42140073 0.04305337 -0.04641337 -0.20509006
0.19516426 0.40337965 0.42028177 0.48299554 0.021274243 -0.15651752 -0.20218156 0.3238722
-0.2369721 -0.20693861 0.379818 -0.3434334 -0.14987732 0.014422694 0.13787183 0.14550802
-0.0033133994 0.24774887 -0.2137399 -0.05277036 -0.25341326 -0.2616747 -0.122813344 -0.15753576
-0.10596587 0.3660242 0.023615802 -0.009162204 -0.03500036 -0.106009305 0.3633733 0.53715014
0.29594702 -0.30952424 -0.03662625 -0.04867809 -0.24220347 0.48759893 -0.0011143023 -0.055251766
0.7702345 0.05600712 -0.198403 -0.1332029 -0.015427393 0.66108155 -0.032283623 -0.16934213
-0.040768284 0.09789193 0.017579967 0.11357592 0.03374071 -0.12780672 -0.19242671 -0.08967039
-0.14861946 -0.1568332 0.18532975 -0.11430784 0.030180981 0.19790779 0.039457966 -0.09331199
-0.09888722 0.06363475 0.015927901 -0.1572161 0.06835934 0.029146152 0.06531781 -0.16718148
0.015159563 -0.15828663 0.012723671 -0.046985254 0.1483545 -0.02509507 0.114456035 -0.10270323
-0.07870729 -0.09601701 -0.12472937 -0.017426321 -0.065373905 -0.10943428 -0.104693934 0.05805476
0.025987826 0.17725986 -0.0043956884 -0.18485376 0.042102445 0.10303959 -0.00408861 0.08538927

encoder2.conv.weight f4 [16, 2, 1]
00000000: e56c b33e 54cd 31bf 7b21 35be 8dad bf3e
00000010: dcff b9bd ae69 973e 4e44 0ebf 4f89 57bc
00000020: 93e3 bcbe 2613 c73e 03b0 07bf ecf3 40be
00000030: d681 93bd ac41 ddbe 43e4 10bf 9cfd 383d
00000040: 9141 bb3e 1a1a f7bc e4db 09be 81b2 89be
00000050: 404c 32bf 334a 6a3e 8d4c 7d3e 50e0 08bf
00000060: 7116 9ebe 4b29 15bf 5e34 443f 2279 0d3f
00000070: 1c23 763e 6ded e0be 6836 873e 8b8d 003f
0.35044017 -0.6945393 -0.17688553 0.37437096 -0.090820044 0.29572815 -0.55572975 -0.0131552955
-0.36892375 0.38881797 -0.5300295 -0.18843049 -0.072024986 -0.43214166 -0.565983 0.045163736
0.3657346 -0.030163813 -0.13462788 -0.26894 -0.696476 0.22879867 0.24736233 -0.53467274
-0.30876496 -0.58266133 0.76642406 0.5526296 0.2403683 -0.43931141 0.26408696 0.5021598

encoder2.conv.bias f4 [16]
00000000: 33f1 e73d 8b05 02bf 1654 863e 85db 37bf
00000010: c094 0e3f 223a 3c3f 7918 183c 8646 f8be
00000020: 1e2f 4abe 9a99 2ebf 5aa3 03bf 7a5d ce3e
00000030: 5ab6 87be 556f 423f b9b7 f4be 7b29 e13e
0.11325302 -0.5078971 0.26236027 -0.71819335 0.55695724 0.73526204 0.0092831785 -0.48491305
-0.19744536 -0.6820313 -0.5142113 0.40305692 -0.2650631 0.7595113 -0.4779642 0.4397696

encoder2.gru.weight_ih_l0 f4 [144, 16]
00000000: 5f99 8c3e a8eb b8bd d360 abbd a23b 95bd
00000010: d553 7abc 2f72 93bd 1ade df3d 9f3b d1bd
00000020: 99bb 783d e309 133e 8fff 8b3c 3ec2 8a3e
00000030: 392b e6bd 07af 9abd dccd 763e 7266 6abe
00000040: d4b2 32be 852c ebbd ad5d 25bd 8b37 9ebd
00000050: 0370 b9bc cf5d f23d 3b6d 2fbd 469f 2b3e
00000060: e271 d1bd 6fe0 f63b d1f4 52bd 1cb3 9dbc
00000070: 9fa7 843c 733c 28be 8299 e6bc ed18 01be
00000080: f5b1 343d c0a4 543d b3aa fbbd 80f1 3f3d
00000090: d5fe 9fbc b42f d9bd 98ae 3b3e 2983 14be
000000a0: 9759 0ebe 1b0b cd3d 6114 3b3c 682b 3b3d
000000b0: ba26 093c 580b 67bd c4bf 963c 3b0f 99bc
000000c0: ca23 183d 2e12 663e f7bb 103c 768c 073e
000000d0: 9ced 003e b6c3 123e b682 873d 5a2f 043e
000000e0: 57cd bc3d f8f2 383e 13e4 313e c329 41bd
000000f0: 6538 4fbd a026 2b3e 011f 52bd 39e0 f83d
00000100: 3c1f 443e 82b7 203e 4386 b9bc f684 ddbc
00000110: db90 003e 71ef 5e3d 2bfc 073e bcf8 2dbd
00000120: 20fe f9bd 373c 423d c160 cd3d 511d 793d
00000130: ac0f 6b3c 489a 35bd 1bbb b33d 1533 1d3d
00000140: 4e60 6ebd 6ee1 82bc 567d 54be 0da4 56be
00000150: 2ed6 52be a8ce bcbd 7f70 adbd 490b 23bd
00000160: afda afbd 4da2 dbbc 3632 a2bd 8478 0cbc
00000170: d1e7 47be 1da9 20be 6736 97bc 8ba3 bcbb
00000180: 328f efbc 5fbd b8bc 4a17 c4bb 4758 683d
00000190: 25fc ab3d 7180 883d b692 243e 3929 e83c
000001a0: 3e31 af3c 5bb5 5d3e 1e11 0d3e a771 023e
000001b0: f838 3b3e 0347 0bbe b792 b43d 257c 2ebe
000001c0: b47a 263b 34c6 82bd ba34 a9bd 29e7 81bd
000001d0: ca30 cdbc 3aa0 9cbd 4666 16bd 6823 ae3d
000001e0: 01ae 363e b978 413d b445 2b3e 94d8 b93d
000001f0: 09bd 7bbc a327 ff3d b895 d93c 9a60 213e
00000200: a6ba db3d 9e7d 4a3e 3094 9a3d e078 553e
00000210: d2d8 273e 007a dc3d e5b1 e53d f300 9a3d
00000220: 053f 493e d598 df3d 976b 043d 6df2 3f3e
00000230: 04d9 623e d8f9 913d 0b3d 983d 85d2 0b3d
00000240: 94e2 9bba ea3a bc3d ab34 f63c a5be 023e
00000250: b657 6dbd dac5 9fbb f55a 3a3d c420 0c3e
00000260: 24d6 87bd c1ce d43d 7207 79bd ae17 88bd
00000270: ab90 173e 0e2c 4ebe dc98 1bbe 65f6 08be
00000280: b205 013e dddd 493e d9f1 35bd 8279 153d
00000290: ccdf e8bb a221 dd3c 6bab 7a3d 50ce 59bd
000002a0: d9c7 e0bd b305 003e 78d1 f9bc ba58 083d
000002b0: 90a0 d13d 649d 37be 5381 373c f5c4 983d
000002c0: aed0 17bd e362 1dbd 996d 11be 9e8f 25be
000002d0: d656 d33d 30c1 edbd 6f91 8b3d bc92 67bd
000002e0: 6e5a 87bd 8f8f 113d f9b9 de3d 9eab 8cbb
000002f0: c626 7abd f6c2 3abe ca91 30be 1e21 c4bd
00000300: e4ea b8bd f13b 44be 062a 10be ff37 67bd
00000310: 2262 71bd d00d 923d 6a78 a93c 5a37 86bd
00000320: c393 113d c5e4 3ebe 81eb 08bd 4d77 85bc
00000330: c379 c4bd 7cdf 5dbd 1a33 383b dca2 1bbe
00000340: 8b12 233e 980d 2e3d fc70 88bc ef9a 21bc
00000350: 43f1 f4bc 230b cd3d 50d7 913d ee46 883d
00000360: f145 92bb 516b 053e 5585 093e 4ad2 93bd
00000370: cc77 2bbd 7a03 293e dac3 003e 7829 cebb
00000380: 24bc debd 2361 84bc a8ad 9dbc 8c7b 1cbe
00000390: 38aa 3abe aade 2b3c ccaa babd aa62 43be
000003a0: d5ec 08be 9b3c 503d 5387 01be b709 17be
000003b0: 53e6 153d 65ae febd ad25 dcbc e0a1 e4bd
000003c0: bed0 21be 1e4a 71bd c2d2 4fbd a078 4fbe
000003d0: 41e1 2a3c ef47 813b 02f7 c8bc c4bf abbd
000003e0: 3f3f 273b 9ee1 7cbd 3393 83bd 8c8d c5bd
000003f0: 7250 83bd 145f f1bd e1f6 05bc 16df 96bd
0.27460763 -0.09029323 -0.08368077 -0.07286765 -0.015278776 -0.07199513 0.109310344 -0.1021645
0.060725782 0.1435924 0.017089633 0.2710132 -0.11238713 -0.07552915 0.24101967 -0.22890642
-0.1745103 -0.11483101 -0.04037254 -0.07725438 -0.02263642 0.11834299 -0.04282878 0.16759977
-0.102267995 0.007534079 -0.051503006 -0.019250445 0.01619321 -0.1642931 -0.02814937 -0.12607165
0.044115026 0.05191493 -0.12288418 0.04686117 -0.019530693 -0.10604802 0.18328321 -0.14503159
-0.13901363 0.10011884 0.011418433 0.045695692 0.00837105 -0.056407303 0.018401988 -0.01868402
0.037143506 0.22467873 0.008833877 0.13237175 0.12590641 0.1433247 0.06616728 0.12908688
0.09218853 0.18061435 0.1737216 -0.047158968 -0.05059089 0.16713953 -0.0512991 0.12152142
0.1915254 0.15695003 -0.022647029 -0.02704094 0.12555258 0.054427568 0.13279788 -0.04247354
-0.122066736 0.047420707 0.1002822 0.060818974 0.014346998 -0.044336587 0.08775922 0.038378794
-0.058197312 -0.015976634 -0.20750937 -0.20961018 -0.20589516 -0.09219104 -0.084687226 -0.039805684
-0.085866325 -0.02681079 -0.07919733 -0.008573655 -0.19522025 -0.15689512 -0.018458558 -0.0057568005
-0.029243086 -0.022551237 -0.0059842216 0.056724813 0.08397702 0.06665123 0.16071591 0.028339969
0.021385785 0.21651213 0.13776061 0.12738667 0.1828345 -0.13601308 0.08817046 -0.17039545
0.0025402727 -0.063854605 -0.0826201 -0.063429184 -0.025047679 -0.07647748 -0.03671863 0.08502847
0.17839815 0.04723427 0.16725808 0.09074512 -0.015364894 0.12458732 0.02656065 0.15759507
0.1072896 0.19774482 0.07547796 0.20846891 0.16391304 0.10765457 0.11215571 0.07519712
0.19652946 0.10917822 0.03232917 0.18744822 0.22153097 0.07127732 0.07433518 0.034136314
-0.0011893087 0.091909245 0.03005441 0.12768038 -0.057944976 -0.0048758807 0.0454969 0.13684374
-0.06632641 0.10390998 -0.060798116 -0.066451415 0.1480128 -0.20133993 -0.1519503 -0.13375242
0.12599829 0.1971354 -0.044420097 0.036492832 -0.007106757 0.026993576 0.061198633 -0.05317527
-0.10975618 0.12502174 -0.03049539 0.03328774 0.10235703 -0.17931134 0.011200267 0.074594416
-0.037064247 -0.038424384 -0.14201964 -0.16168067 0.10319297 -0.11609113 0.06814849 -0.05653642
-0.06609045 0.0355373 0.10875315 -0.0042929193 -0.061072133 -0.18238434 -0.17243114 -0.09576629
-0.09029177 -0.19163491 -0.1407853 -0.056449886 -0.058931477 0.07131541 0.0206873 -0.06553526
0.035541307 -0.18641956 -0.03342772 -0.016292239 -0.09593537 -0.05416821 0.002810663 -0.15198845
0.15925042 0.042493433 -0.016655438 -0.009863599 -0.029900199 0.1001189 0.07121146 0.06654154
-0.004463904 0.13029219 0.13429768 -0.07217844 -0.041862294 0.16505232 0.12574711 -0.0062915646
-0.10875729 -0.0161596 -0.019247845 -0.15281504 -0.18228996 0.010490099 -0.09114608 -0.19080606
-0.13371594 0.050839048 -0.12649278 -0.147498 0.036596607 -0.12435607 -0.026873434 -0.11163688
-0.15802285 -0.058908574 -0.050738104 -0.20260859 0.010429681 0.0039453427 -0.024531845 -0.08386186
0.0025519875 -0.061738603 -0.064245604 -0.096461385 -0.06411828 -0.11785713 -0.008176536 -0.07366769

encoder2.gru.weight_hh_l0 f4 [144, 48]
00000000: 79a5 503e 0588 4e3d 4e91 ddbd 72ba fbbd
00000010: 5247 9bbe 6fa6 5a3d ebf1 893d 602e 573d
00000020: 00f7 7e3d b188 063d c6ec 68bd 2a6e 82be
00000030: 78c9 113e 1a1e c2bd cafd 14be 4d14 f2bc
00000040: 0eeb 41bd 4066 d53d 453b 813d 5cef dabc
00000050: e9cc 6b3d 18a5 583e 80c2 bc3d e861 34bd
00000060: f379 933e c130 7bbc 5e25 2d3d a9f6 88bd
00000070: 31dd 3a3d 7b06 933e afce f03d beec c0bd
00000080: 54e2 283c 0dad 84bd 0798 ff3d c553 793d
00000090: ad0e 863c ad70 653d 316a 313e 93b8 80be
000000a0: 3a3c be3d 7001 87bd ef53 533d abe9 a9bd
000000b0: 479a 94bd b6c4 16be 803e 96bd d6e1 383d
000000c0: f5f9 0dbd a845 643e 24be 203e 2ea8 003e
000000d0: aaf8 5a3e 7198 6abc eddc 9a3d 7fa2 b8bd
000000e0: 755e 073d f646 b1bd 10c3 90bc 856a 363e
000000f0: a191 eebd 3244 37bc 6552 19be bad3 5a3e
00000100: 1e2c 60be cf11 1e3d 9e25 44be c42b 053e
00000110: d670 7b3e 5a6c 733d dd16 1fbe 67ec 23bb
00000120: 9508 91bd a22f 4dbd f2f1 d13c 4c2f 26bc
00000130: 0fbc 45be fb51 84bd 2c9b 45bd e7c9 0bbc
00000140: 5dc2 6ebe 10da c43d 4764 f8bc 9ac3 a23d
00000150: f3a1 5a3e 152f 683d 1288 d7bd 7752 ae3c
00000160: d6ce 45be 0554 48bd b641 c1bd 25d5 073e
00000170: 04ef 633c 4bec 40bd 0e80 0fbe 00a6 a9bd
00000180: ab04 23be 8a04 90bd c1f0 8f3d df0d 943d
00000190: b0ff b43c a26e 74bc 33bc 2f3d 2ae1 bdbd
000001a0: 2e2a 0e3d c3a0 66bd f44c b53c f702 34bd
000001b0: 121c 06be 4ac5 eebd b8db 99bd fb93 94bd
000001c0: c36e 3d3d f074 e2bd b9f2 3ebe 8a67 a53d
000001d0: 52b9 eb3d 4ef2 0bbd cfca 07be e327 47be
000001e0: af41 4cbd 7c61 c93d 2652 4b3c e199 ae3d
000001f0: a2db 163d 89eb 68bc 3267 6bbc aab2 c2bc
00000200: ddfb c93d 6c94 b0bd 6b59 79be 3a35 453d
00000210: c512 7e3d d576 253d 7ad7 81bc 1d6e 33bd
00000220: 0a7d 0bbd 196b 94bd 1fd4 80bd dd8e 253e
00000230: c002 c9bd 6644 1fbd b52c 993d 48fa 4a3d
00000240: 3d7c 103e 088f 293e a20d 5dbb ab6a c93d
00000250: aa5a 0cbe 3aec 9bbd 1f63 59be 76ba 073d
00000260: b440 8abd 5af3 bdbd daec 65bd 08f9 1d3e
00000270: 6d2d 7f3d 3b65 69be ef50 343e 77ce 513c
00000280: 65c1 6c3e 224f c9bd 4168 103e ee8f ce3d
00000290: ec9f 00be 135e 4b3d aa91 533d 3529 973d
000002a0: 9111 33be ab87 db3c e5a8 cebd 0dd2 67bd
000002b0: 937f 103e c08c bb3d 9ed9 a1bb ef97 5d3d
000002c0: a04e 793e 531b 193e 987a e9bd 3994 47bd
000002d0: c607 703d 65e3 c7bd fc22 0abe 611b 743d
000002e0: a85c 4ebc 2ca0 a83d d6be 02be fa94 9b3c
000002f0: 0f7c 553e d6bc 873d 0806 823c b6dd 5ebd
00000300: 393a 153e be1e 323e bd2d 273e aea9 d1bb
00000310: c9a3 a13b 72e7 403e 6738 83be 1c13 2b3e
00000320: e66b 283d 4012 0cbd 95f1 1e3c 5129 563e
00000330: ac81 a8bd 5ba0 573d b482 bebd 2bdd debd
00000340: 6568 573e df19 bebb 45f9 d5bd b3aa 363e
00000350: 4f93 f5bd 122e 813c 1ca3 fa3d a0e4 10be
00000360: 0f39 733d 6502 783e cf6b 243d 565e 343e
00000370: 65f9 803d c428 973c 40a0 483e 52be 3d3d
00000380: 77c7 57bb 19c2 4fbe c4fd 2dbd dfae bbbd
00000390: 5d2e dcbd 9705 bd3c 7e41 b4bd 963a 17be
000003a0: aad6 913c fc6d 8b3d f46e 163e b6c9 b03d
000003b0: 4c01 363e 9176 213e 8de4 0dbc 19b7 dc3d
000003c0: 5404 7ebd e6b4 333d f4a1 393c fddc 83bd
000003d0: 00fc d0bd 6e88 513e 3c52 683d 866e 62be
000003e0: 8ddd 143e 04ff 23bd 76fc 913d 9880 553d
000003f0: e704 6abe e886 8c3e 9eb2 58be 80de 803d
0.20375623 0.050422687 -0.1081873 -0.12291421 -0.3032785 0.05338138 0.06735595 0.05253446
0.062247276 0.032845203 -0.05686643 -0.25474674 0.1423701 -0.09478398 -0.14549938 -0.029550696
-0.047343306 0.10419893 0.06310133 -0.026725464 0.057568464 0.21156728 0.092167854 -0.044038683
0.28803977 -0.015331448 0.042271964 -0.06687672 0.0456211 0.28715882 0.11758172 -0.09420155
0.010307867 -0.06478319 0.12480169 0.060870904 0.01636442 0.05601566 0.17325665 -0.2514082
0.09288831 -0.06592071 0.051593717 -0.08296522 -0.072559886 -0.14723477 -0.0733614 0.04513725
-0.034662206 0.22292197 0.15697533 0.12564155 0.2138392 -0.014318571 0.075616695 -0.09015369
0.033049066 -0.08656113 -0.017671138 0.17814071 -0.1164887 -0.011185693 -0.14972837 0.2136983
-0.2189183 0.038591202 -0.19154975 0.13004977 0.24554762 0.059429504 -0.15536065 -0.0025012733
-0.07081715 -0.050094254 0.025628064 -0.010143112 -0.1931002 -0.06460949 -0.048243687 -0.008532024
-0.23316331 0.096119046 -0.030321253 0.07947464 0.21350841 0.056685526 -0.10524 0.021279557
-0.19317183 -0.048908252 -0.094363615 0.13264902 0.013911966 -0.047100347 -0.14013693 -0.08283615
-0.1591975 -0.07032116 0.07028342 0.07229208 0.022094578 -0.014918955 0.04290409 -0.09271462
0.034708194 -0.056305658 0.02213142 -0.04394814 -0.13096645 -0.11658724 -0.07512611 -0.072547875
0.04624821 -0.1105746 -0.18647279 0.08076389 0.115099564 -0.034166627 -0.13260959 -0.1944881
-0.04986733 0.09833047 0.012409722 0.08525444 0.036830552 -0.014216312 -0.014367865 -0.023766834
0.09862492 -0.08622059 -0.24350516 0.048146464 0.06202962 0.04039653 -0.015849818 -0.043806184
-0.034054793 -0.0724699 -0.06290459 0.1616778 -0.09814978 -0.03888359 0.0747923 0.049555093
0.14109893 0.16558468 -0.003373005 0.098347984 -0.1370646 -0.07613416 -0.21229218 0.033136807
-0.067506224 -0.09274931 -0.056134082 0.15427029 0.06229918 -0.22792523 0.17608999 0.012805573
0.23120649 -0.098295465 0.1410227 0.10086046 -0.12561005 0.049650263 0.051652588 0.073809065
-0.1748717 0.02679809 -0.10090808 -0.056596804 0.14111166 0.09157705 -0.004939272 0.054099973
0.243464 0.1495183 -0.11400336 -0.04872534 0.058601163 -0.09760169 -0.13489908 0.059596423
-0.012595333 0.08233675 -0.1276811 0.018991936 0.20848106 0.066278145 0.015872017 -0.05441066
0.14572991 0.1739454 0.16326042 -0.006398401 0.004932855 0.1883829 -0.2562897 0.16706508
0.041118525 -0.034197092 0.009701152 0.20914198 -0.08227858 0.05264316 -0.093022734 -0.10882028
0.21035917 -0.005801424 -0.10447935 0.17838554 -0.119909875 0.015769038 0.12238142 -0.14149714
0.059380587 0.24219663 0.040141877 0.17614111 0.06297568 0.018452056 0.1959238 0.04632408
-0.0032925287 -0.20288886 -0.042478338 -0.091642134 -0.107510306 0.023073955 -0.08801554 -0.14768443
0.017802555 0.06808087 0.14690763 0.08632223 0.17773932 0.15767886 -0.008660448 0.107771106
-0.062015846 0.04387369 0.011330117 -0.064386345 -0.10204315 0.204622 0.05671905 -0.22112474
0.1453764 -0.040038124 0.07128231 0.05212459 -0.22853433 0.27446675 -0.21161887 0.062924385

encoder2.gru.bias_ih_l0 f4 [144]
00000000: c7e1 e9bc 787c d4bc 3bc7 583d 2ac5 373d
00000010: d0f8 9abc 6814 d4bd 88d6 043e ce3d f03c
00000020: 56a5 763d 7e7b 3e3d 47b7 593c d4e5 113d
00000030: 8281 1dbe 0da6 053e d03e 0cbd c722 60be
00000040: 087f bf3d 24bb 213e ba5f f4bd 5ec6 e83d
00000050: c311 b73d bfe8 b83d 3968 37bd 5857 073e
00000060: fa93 8b3d fa1f 19bd b59d d63a 0bbb 24bd
00000070: 6dfc 4fbe 5683 34be 266c d7bd cbab c43c
00000080: e6be 093e e3b0 43be a30f dbbd 0806 dc3d
00000090: 781b 24be 4ee5 e939 5370 8c3d 9f90 fabd
000000a0: 293e 573d cdad 1f3d 0c41 b1bd 5d7c 67bd
000000b0: ff35 023e b0db d4bd 2e53 b43d 15bb 2a3e
000000c0: 5860 d7bd 2793 183e d2e9 9ebd a161 6dbe
000000d0: e480 24be 9d2f e43d 9274 1dbd bf46 023e
000000e0: c389 7ebe cf20 80bd 3b6d 1e3e 9e2a d639
000000f0: f617 32bd b2ff 1dbe 9e1e 083d fecf 59be
00000100: 86ef 48be 4eaa b13d bc63 683d 977d dabd
00000110: 7ad5 7a3e 4eca 23bd 0a8f e4bd ab2e 793e
00000120: ce64 8a3e 5945 4c3e 2b01 163e 43e1 e53d
00000130: a1d5 3d3e 44f4 223d 9ab7 e6bd 19cb 0e3c
00000140: 103b 0f3d 8acc 983e 0f72 363b 1eda 8f3e
00000150: f793 193e 40b2 c6bd aa9c d83d 85b3 493d
00000160: 0d42 b43d 40e7 9fbd cf46 09be 8b02 9b3d
00000170: a84e d9bd d244 05be a4ab 1e3e e1b7 653e
00000180: 3d61 c83c 1de1 ed3c 3da0 323d 98ac 4fbe
00000190: d033 8139 c6b4 313e c3fa bf3c 0ebd 433e
000001a0: 7c9b 5dbe 7688 72be 5ea2 22bc 751f 34bd
000001b0: 2a4b 91bd bce5 03be 66f9 8d3b 2702 04bd
000001c0: da74 223e 678d 1cbe 7cbe 413c 64a1 21bc
000001d0: 83f0 41bb 9924 f2bd 2c42 773e 97e6 4bbe
000001e0: c728 53bd c4f6 6a3e 1f44 123e 9795 033d
000001f0: e47c 403e a19f 56bc c941 6abc 0277 c13d
00000200: 9fa0 1d3d 2a3b 43be 66bd b83d 3d79 4dbd
00000210: 38d4 443d 630c 96bd cad1 dfbc 4755 1ebe
00000220: fac4 df3d 0a91 373e 3b1b 593d 6a60 0dbe
00000230: 9868 853e fa95 ed3d c92c 023d 813a 413e
-0.028550042 -0.025938258 0.052924376 0.044865765 -0.018917471 -0.10355455 0.12972462 0.029326346
0.06021627 0.04650449 0.013288326 0.03561957 -0.15381435 0.13051625 -0.03423959 -0.21888267
0.09350401 0.15794045 -0.11932321 0.113659605 0.08938935 0.09028768 -0.04477713 0.13216913
0.06815334 -0.03738401 0.0016373905 -0.04021744 -0.20311137 -0.17628226 -0.105186746 0.024007699
0.13451728 -0.19110446 -0.10696342 0.10743338 -0.16026103 0.00044612068 0.06857362 -0.122346155
0.052549515 0.03898411 -0.08654985 -0.056515086 0.1271591 -0.103934646 0.08804928 0.16672929
-0.10516423 0.14899884 -0.077594414 -0.23181774 -0.16064793 0.11141894 -0.03844125 0.127223
-0.2485724 -0.06256258 0.15471356 0.00040849013 -0.043479882 -0.15429571 0.033232324 -0.21270749
-0.19622621 0.08675061 0.05673574 -0.106684856 0.24495497 -0.039987855 -0.11160095 0.24334209
0.27030033 0.19948329 0.14648883 0.11224606 0.18538524 0.03978373 -0.11265488 0.008715414
0.034968436 0.2984355 0.002783898 0.28096098 0.1499785 -0.09701967 0.10576756 0.04924347
0.08801661 -0.07807779 -0.13405918 0.075688444 -0.106107056 -0.13014534 0.15495163 0.22433425
0.02446043 0.029038006 0.043609846 -0.20280683 0.000246434 0.17354116 0.023435002 0.19115087
-0.21641344 -0.23684868 -0.009926407 -0.043975312 -0.070944145 -0.12880605 0.004332709 -0.032228615
0.15864888 -0.15288316 0.0118252 -0.009865139 -0.002959282 -0.11823387 0.24146336 -0.19912182
-0.05155256 0.22945696 0.14283799 0.032125082 0.18797642 -0.013099582 -0.014297911 0.09446527
0.03848326 -0.19065538 0.090205 -0.05016445 0.04805395 -0.07326581 -0.027321715 -0.15462218
0.10926242 0.17926422 0.053004485 -0.1380631 0.2605636 0.116008714 0.03178099 0.18869974

encoder2.gru.bias_hh_l0 f4 [144]
00000000: 2c04 9fbd db5b 1dbd 8458 dd3b f4b6 d9bb
00000010: cfb2 df3d d314 8bbd f421 94bd 5b62 ab3c
00000020: b319 a2bc f92b 38bd b234 bfbb ea10 933b
00000030: 746b 89bd 7cc4 1e3e ed1a 3abe d029 3e3c
00000040: 279e da3a 11b1 303d ad24 8bbd 212c ccbc
00000050: 24d3 87bc c1ca 083e 5cdc 86bc 2e64 433e
00000060: 8c70 fcbd 5ea0 5d3c b259 83bd fa7b 53be
00000070: efef 473d cb93 90bb da50 1ebe 4829 c33c
00000080: 3cb8 f23d c883 003d 327e a7ba 77f7 183e
00000090: 577b 8abc cccd 67bc eace 493c 03c9 8c3c
000000a0: e39d 47be 3b89 c93c ed48 01be f338 57be
000000b0: 31eb 893d d519 23bd fe8b e53b 70a5 a93d
000000c0: cb34 96bd 6e46 0c3e 9393 03be e069 45be
000000d0: 7af9 acbd f1c7 8cbd ed5e 5c3e fb84 043b
000000e0: b17d d0bd c973 de3d 6282 513e 4cc0 bb3c
000000f0: 52b1 8dbd 42b9 593b 4549 633e fe04 64be
00000100: 0724 d7bc b9f4 ab3d 7b2f bebd f3ac e9bd
00000110: 0a16 bf3d 7891 293e 5dc7 dcbc afdf 953e
00000120: 8355 6f3e 090a 03bd d417 bf3d 375d e03d
00000130: 480e d53c ee29 cabc 96ac b63d 4061 e33c
00000140: aa37 75bd 9b67 453e b059 bfbc c742 843c
00000150: fffc 243e ff55 b5bd d1d3 d03d 5c63 163e
00000160: 9be3 e0bc f586 04bd 2d10 25bd a912 27bd
00000170: 323d 2abe be31 343c 56d0 cfbd 8a3d 0d3e
00000180: 76ef ff3d 82c6 c8bd a8b8 4ebc 0a6c 60be
00000190: f123 07bc ed11 3a3d b5c0 343d b339 643e
000001a0: 36c8 39be b6f4 59bb 0af1 263d c231 003e
000001b0: 34b9 273d 170b 963c 1ca7 04be d2c7 483d
000001c0: 9e8e 043d c662 34bd 808c 6b3b 157b fc3d
000001d0: 1508 2bbd f6b8 abbd 9240 f33d 204f 0ebe
000001e0: 5a6b dfbb e14b 92bd 71db 863e b994 aebc
000001f0: 0996 d73c 57d2 a33c 382c 813d d95f 25bd
00000200: 2b94 333e bc65 3fbe 2d14 eb3d 70ee 57bd
00000210: 9762 f2bd d4b2 e3bd 3d23 37be 8ffc 91bc
00000220: 0359 443e aadd dfbd bc54 153e c7ac 8f3c
00000230: 9eab 083e 1e7a 02bd 911c c53d 598d b0bb
-0.077644676 -0.03841768 0.0067549367 -0.006644124 0.10922777 -0.06791081 -0.072330385 0.020920923
-0.019787645 -0.04496381 -0.005835139 0.0044881003 -0.06709948 0.1550464 -0.18174334 0.011606649
0.0016679213 0.043137614 -0.06794105 -0.024923386 -0.016580172 0.13358594 -0.016462497 0.19081184
-0.12326154 0.013527004 -0.064135924 -0.20652762 0.048812803 -0.0044121495 -0.1546053 0.023823395
0.11851546 0.031375676 -0.0012778698 0.1493815 -0.016904516 -0.014148187 0.012317399 0.017185694
-0.19493823 0.02460157 -0.12625475 -0.21017818 0.06734312 -0.039819557 0.0070052138 0.08283508
-0.07334288 0.13698742 -0.12849264 -0.1927867 -0.084460214 -0.06874073 0.21520586 0.0020220864
-0.10180224 0.10861928 0.20459893 0.022918843 -0.06918587 0.0033221995 0.22195919 -0.2226753
-0.026262296 0.083962865 -0.092864 -0.114099406 0.093303755 0.16559398 -0.026950533 0.2927222
0.23372464 -0.031991992 0.09330717 0.10955279 0.026007786 -0.024678197 0.08919637 0.027756333
-0.05986754 0.19277804 -0.023358196 0.016145123 0.16112135 -0.08854293 0.10196651 0.1468634
-0.02745228 -0.032355268 -0.04029863 -0.04078928 -0.16624907 0.010998188 -0.10147159 0.13793007
0.124968454 -0.09803487 -0.012617268 -0.21916214 -0.008248315 0.04542725 0.044129092 0.22287636
-0.1814278 -0.0033257431 0.040757217 0.12518981 0.040948108 0.018315835 -0.12954372 0.04901869
0.032362573 -0.04403951 0.0035941899 0.123281635 -0.041755755 -0.08384888 0.1187755 -0.13897371
-0.006818217 -0.07143379 0.26339296 -0.02131115 0.02631666 0.019997759 0.06307262 -0.04037461
0.1753699 -0.18691152 0.114784576 -0.052717626 -0.11835211 -0.11118093 -0.17884536 -0.017820625
0.1917458 -0.10930951 0.14583105 0.017538441 0.13346717 -0.03185474 0.09624589 -0.0053879437

cvae.fc1.weight f4 [48, 96]
00000000: afaf 2fbc 3ace bfba 9787 fabc 55a8 3a3d
00000010: 5da5 bcbc cdd9 a73d d809 e8bc c928 f8bd
00000020: 771e 55bd c5aa 68bb 7b7d 14bd b3d6 90bd
00000030: 795b 363d be89 3f3d 3997 45bd b8dd 51bb
00000040: 4ff9 903d 9087 a9bd bb74 a0bd b439 373d
00000050: a8dc 443d 2c8d 39bd e19f 4bbd 7f9c e73d
00000060: e7b7 013d 0e26 bdbc 27a3 6cbb 93a6 f0bc
00000070: 56db 96bd 243e e43b c735 cebc 09ed 763d
00000080: b129 0cbd 6ff4 5e3c 041e fbbc 60e4 1d3d
00000090: c8eb 4bbd 2837 bdbd 4a03 ac3d 4d97 e63d
000000a0: f67d 03bd 2f2b a6bc 643c 9e3d 3925 343d
000000b0: 9950 3abc b5ff c3bd de39 6e3c ca0e febc
000000c0: 6db4 313d 0ecd 9bbc 5448 7ebd f317 4c3d
000000d0: ba05 c23d b53d 603d bd13 053d 881c debd
000000e0: 9a9c 143d ae49 643d 2fa9 01bc 30eb 133d
000000f0: 7326 0c3d d3c0 b33d 75bd 783d d4ad e73c
00000100: 63d2 d0bd 196e 43bd 2324 7e3d ab03 00be
00000110: 38de a03d 27f7 b2bd 6d3f 68bd 7b4e 46bd
00000120: 011e cc3c 3b8e bfbd 7e56 0b3d 1fc7 8a3d
00000130: 0a11 96bc 654e 4c3d 3c4d 86bd 8cd7 66bd
00000140: 368c 4e3d 3ad9 bc3d f43d dcbd ae09 cdbc
00000150: 842a 9bbd 62fa 983d 0c5e f23d 9e3e 8b3d
00000160: 3948 8f3d ae53 adbc a4fe b3bc b24a 5e3d
00000170: da5d 03bd 770f bebd cd28 b9bd 84c8 ad3c
00000180: 2958 be3d 3b1f 173e 07aa e63c 07fa ed3d
00000190: 4fed 4abd 4ca8 f53d 96d8 103c f345 d6bd
000001a0: c0b3 85bd cffb 5f3d 8af5 ea3c 1065 1cbe
000001b0: 7d2b 2e3e 0226 15bd 7ad5 513c 5bf3 9abc
000001c0: e917 e93c 3138 21bd 7c0d 7bbd 0053 d13d
000001d0: 61b0 a1bd 30bb 87bd 88d6 39bd 3662 f5ba
000001e0: 2f0f 083e a795 ae3c 25b8 e23d fa70 c83d
000001f0: 2778 d03d 222d 20be e6f7 813c 9fa3 333b
00000200: 47cc 483d 556f ddbd e420 fb3d 4544 6a3d
00000210: 9aa1 533d 3989 07bc b93b ad3c ea0f a83c
00000220: f7cf e4bb 153d 3bbe 2203 fb3c faab 9fbb
00000230: 84c9 8abd c6b6 0a3d b0d8 3ebc 0a74 0ebe
00000240: a324 f8bb 2974 163d 049f 0ebe 2f9d c23d
00000250: eb77 babc 5340 6a3d 1aa0 3e3e 3cff 593d
00000260: 2062 e13d 9e4a 29be fb9e ee3d 4584 f13c
00000270: 6282 c03c bec6 0b3e 809d 2ebd 823f f23d
00000280: 15c7 65bd be3d 803d 2c56 3ebd bc2c b83d
00000290: 75c6 97bb 2f9c 8d3b 92f0 943d e435 10bc
000002a0: b0bc b53c 3cf6 f53c ad70 623d c50b 0d3e
000002b0: 9fe4 06bd 7bf5 c3bd 337c a0bc 88f2 c1ba
000002c0: 16f5 10be dc5b f53b 67f1 b43d 73b5 863d
000002d0: 37a0 f7bc e041 b4bd 7f97 fa3d 102a 27bd
000002e0: 45b6 403d 4b8e d1bc 1d25 0d3e a02a 4ebb
000002f0: 320e 94bd 67f4 243c f4fb 30be 018f 8bbb
00000300: 6cb0 8fbc 7f50 df3d f9cd a93d 78f9 9239
00000310: 8dc8 b1bd b299 993d 51fd e2bd 7b1b e43c
00000320: 5b37 a4bd ad15 023e 409d 423d 89ab fbbd
00000330: 7354 af3c 7c1b a33c b694 abbc ee19 423d
00000340: c7a6 71bd 79b9 9e3d bd3c 92bd 0176 573d
00000350: 9692 43bd 4020 a2bd 28d1 04bd bde7 4c3d
00000360: 0f5c bc3c 10f0 a33d 42e6 b53c 09ee a83c
00000370: 86c3 f23d ae2e 14bd a393 bc3c 33ce 2ebe
00000380: ae46 ea3d 2aed 983d e5a8 7e3c 9a9b d33d
00000390: 0a8c b4bc cff9 20be a7f1 5abd 600c 283e
000003a0: 96e1 163e fc75 8ebd 00f2 c23d b9d5 5c3d
000003b0: 79ba 653d 5894 b93b 5c1a 97bc 4475 debc
000003c0: b71a a33d 98ce 16be 14a5 cebd e305 0dbd
000003d0: 9d4e 8cbd cea4 11bc 52cb 6fbd 8ab9 a63d
000003e0: 7ac4 1b3e f6a6 5f3d 12d4 523c 70d3 0cbc
000003f0: 3248 b23b 84f9 d83d ea6b 1bbe 65c2 603d
-0.010723039 -0.0014633604 -0.030582232 0.04557069 -0.02302807 0.08195839 -0.028325006 -0.12117154
-0.052031007 -0.0035502177 -0.03625248 -0.070722006 0.04452083 0.04676222 -0.04823992 -0.0032023024
0.07078802 -0.082778096 -0.078347646 0.044732764 0.048061997 -0.045300648 -0.04971302 0.11309146
0.031669524 -0.023089435 -0.0036107989 -0.029376304 -0.07366054 0.0069654156 -0.025172127 0.060284648
-0.034219448 0.013608082 -0.030653961 0.038547873 -0.049785405 -0.09239036 0.08399065 0.11259327
-0.032102548 -0.020284263 0.07726362 0.04398081 -0.011371755 -0.095702566 0.014540164 -0.031012911
0.043384958 -0.019018676 -0.062080696 0.049827527 0.094737485 0.05474635 0.032489527 -0.10845286
0.03628216 0.05573433 -0.007913872 0.036112964 0.034216356 0.08777013 0.060727555 0.02828113
-0.10196378 -0.04771242 0.06204618 -0.12501399 0.07854885 -0.08738547 -0.056701113 -0.04841469
0.02491665 -0.093533 0.034018032 0.067762606 -0.018318672 0.04987945 -0.065577 -0.056357905
0.050426684 0.0922112 -0.10754004 -0.02502903 -0.075764686 0.07469632 0.11834344 0.06799053
0.06996197 -0.021158066 -0.021972008 0.054270454 -0.032071926 -0.092802934 -0.09040985 0.021213777
0.09294159 0.14758007 0.028157247 0.116199546 -0.04954272 0.11994991 0.008840701 -0.104625605
-0.06528425 0.054683503 0.028681535 -0.15272927 0.17008777 -0.0364132 0.012807244 -0.018914869
0.028453784 -0.03936023 -0.061292157 0.10220909 -0.0789497 -0.066275 -0.04537061 -0.0018721286
0.13287042 0.021311594 0.11070279 0.097871736 0.10179167 -0.15642217 0.015865277 0.0027410758
0.04902294 -0.108122505 0.12262133 0.057194013 0.051667787 -0.0082724625 0.021146642 0.0205154
-0.006982799 -0.1828502 0.030641142 -0.004872796 -0.06776717 0.033865713 -0.011648342 -0.13911453
-0.007572727 0.036731873 -0.13927847 0.09502637 -0.02276226 0.05719025 0.18615761 0.053221926
0.11005044 -0.1653237 0.11651417 0.029482016 0.023499671 0.13650033 -0.042630672 0.118285194
-0.056098063 0.062617764 -0.0464689 0.089929074 -0.004631812 0.004321597 0.07272448 -0.008801911
0.0221847 0.03002464 0.055283237 0.13774021 -0.032932874 -0.09568306 -0.019590473 -0.0014797011
-0.14155993 0.007487757 0.08835106 0.065775774 -0.030227764 -0.08801627 0.12235927 -0.0408116
0.047048826 -0.025580546 0.13783689 -0.0031458512 -0.0722927 0.010068036 -0.17283612 -0.0042589908
-0.01754018 0.10904025 0.08291239 0.0002803316 -0.0868083 0.07500018 -0.110834725 0.027845135
-0.08018371 0.12703581 0.047513247 -0.12288577 0.021402573 0.019910567 -0.020944934 0.04738801
-0.058996942 0.0775022 -0.07140491 0.05260277 -0.047747217 -0.079163074 -0.03242603 0.05002569
0.022993116 0.08004773 0.022204522 0.020621317 0.118536994 -0.03617733 0.023019617 -0.17070846
0.11439262 0.074671105 0.015543197 0.10332413 -0.022039432 -0.15720294 -0.053453114 0.1641097
0.14734492 -0.069560975 0.09518814 0.05391476 0.056086037 0.005663436 -0.018445186 -0.027155526
0.0796408 -0.14727247 -0.1009008 -0.034429442 -0.06850932 -0.00888939 -0.05854351 0.081408575
0.15211669 0.054602586 0.012867944 -0.0085953325 0.0054407353 0.10594466 -0.15177885 0.05487289
