save/sample_generator.pt (torch_old, 183964 bytes, 26 tensors)

encoder1.conv.weight f4 [16, 2, 3]
0.23831758 -0.088859275 -0.20488454 0.28940064 0.10753209 -0.20481522 -0.10837469 0.1985233
0.3808581 0.086772405 -0.028389653 0.40704402 0.13083614 0.21005298 -0.01667462 0.14255045
0.30987042 0.02796833 -0.04603064 0.07001192 -0.31035817 0.17192216 0.25468507 0.40961945
0.19099665 0.21386833 0.35137296 -0.11956661 0.0071228286 0.41680017 0.13248862 0.19697404
-0.2909653 0.07388489 -0.255487 -0.18748651 0.0801128 -0.08999994 -0.34212357 -0.42665386
-0.19313404 -0.21637543 0.28793412 0.39321873 0.010573451 -0.09556955 0.31556174 -0.16150595
-0.3109923 0.027599012 0.047297645 0.08307074 0.3886449 -0.23615487 0.21739729 -0.11100958
-0.06702377 -0.3872314 -0.3354047 -0.1149878 0.26363224 -0.38479632 0.15938145 -0.3731845
0.17456341 0.21500224 -0.15152739 0.3308056 -0.3158985 0.15703653 -0.09791628 -0.06858083
0.10296124 0.23097555 -0.3093855 0.10198568 0.11565619 -0.35207745 -0.29033434 0.22107507
0.28896603 -0.3827914 -0.17609376 0.3027696 0.009537265 -0.22655588 0.120011136 0.12660311
0.31483558 -0.32379183 0.046946667 -0.3679609 0.3994489 -0.16318434 -0.19040374 -0.095346935
00000000: 8609 743e dafb b5bd 41cd 51be 522c 943e
00000010: c939 dc3d 15bb 51be 8df3 ddbd b149 4b3e
00000020: d5ff c23e bbb5 b13d 6b91 e8bc 1368 d03e
00000030: e9f9 053e 2118 573e 3699 88bc bff8 113e
00000040: 56a7 9e3e d71d e53c a08a 3cbd 6962 8f3d
00000050: 44e7 9ebe 5d0c 303e 1566 823e a4b9 d13e
00000060: a094 433e 4d00 5b3e 28e7 b33e 57df f4bd
00000070: 9e66 e93b d566 d53e 19ab 073e 90b3 493e
00000080: 67f9 94be f650 973d 31cf 82be 77fc 3fbe
00000090: 2e12 a43d e351 b8bd d22a afbe 6072 dabe
000000a0: eec4 45be 8591 5dbe 1a6c 933e f753 c93e
000000b0: 453c 2d3c f8b9 c3bd 4f91 a13e d161 25be
000000c0: 623a 9fbe 5317 e23c 2dbb 413d fe20 aa3d
000000d0: 77fc c63e 95d2 71be 659d 5e3e fe58 e3bd
000000e0: c243 89bd 3243 c6be 2aba abbe b97e ebbd
000000f0: cefa 863e 0604 c5be e434 233e 0a12 bfbe
00000100: c0c0 323e 8c29 5c3e ff29 1bbe 5a5f a93e
00000110: 73bd a1be 2fce 203e 5588 c8bd 1b74 8cbd
00000120: 58dd d23d db84 6c3e c767 9ebe dedd d03d
00000130: 27dd ec3d 7f43 b4be b4a6 94be 8161 623e
00000140: 5bf3 933e 3cfd c3be ec51 34be 9e04 9b3e
00000150: 3042 1c3c 44fe 67be 66c8 f53d 3fa4 013e
00000160: 2132 a13e 0bc8 a5be 264b 403d 5f65 bcbe
00000170: 9184 cc3e cc19 27be 33f9 42be 4145 c3bd

encoder1.conv.bias f4 [16]
0.11528026 -0.35678184 -0.0411805 -0.2586283 0.03782998 -0.055487357 0.31931776 -0.0300816
-0.2632168 -0.006380303 -0.38331655 -0.001195456 -0.20530522 0.4077758 0.42943764 -0.34439158
00000000: 0f18 ec3d 1cac b6be e2ac 28bd ee6a 84be
00000010: 9cf3 1a3d b646 63bd 9e7d a33e b06d f6bc
00000020: 5ac4 86be dc11 d1bb 1142 c4be d9b0 9cba
00000030: 883b 52be fdc7 d03e 40df db3e 1854 b0be

encoder1.gru.weight_ih_l0 f4 [144, 16]
0.09934219 0.12296575 0.02595467 0.11132762 -0.09992186 0.021289513 0.092351176 0.08386443
0.09726159 0.12498765 0.101897225 0.0026152893 -0.031219602 0.004686939 -0.10949532 0.06762814
0.022163164 -0.07593292 0.11483045 -0.04476326 -0.110662624 -0.046502035 -0.04510275 0.12506074
0.048160028 -0.11840832 0.118884265 -0.12299095 0.1595874 -0.07738908 0.024265202 0.1448684
0.050698936 -0.084317006 0.07715419 -0.12384973 0.107364334 0.077704266 -0.10015387 -0.07393502
0.108845174 -0.12428923 0.08048168 -0.090952 -0.034401365 -0.049278747 -0.047796123 -0.017917072
0.106004626 0.02772635 0.08277904 0.100980066 -0.14068234 0.1528622 -0.13923357 -0.10967708
-0.008590646 -0.03462271 0.01778698 -0.013311582 -0.091021165 -0.078790076 0.0028823891 0.070295274
-0.017467346 0.060508117 0.047126945 0.074823596 0.07822467 -0.06007131 0.049277708 0.020708343
-0.095359445 0.10761482 0.11768526 0.122331604 -0.02552945 -0.07160669 0.040752996 -0.1118309
0.072197154 -0.041580733 0.1637972 0.039228704 0.16552897 -0.013736532 -0.11256212 0.05654305
-0.063525 0.06101413 0.13433018 -0.12952924 0.111600354 -0.0039083967 -0.0425486 -0.0059014717
0.040257446 -0.037161782 -0.061044827 -0.11339267 0.096913196 -0.0057475795 0.026471317 -0.021472452
-0.020110335 0.1276838 0.103847206 0.04815894 0.15000445 -0.02068208 0.008782411 0.06049123
-0.093964405 0.115164146 0.12420337 -0.061592173 0.037070543 -0.060295694 0.086274736 0.005658096
-0.14798886 -0.017497882 0.11895013 0.016899472 0.15628175 0.009106501 -0.055086907 0.1367317
0.1201948 0.09923213 0.09698753 0.117135905 -0.11579139 0.15936317 0.03406194 -0.0050076274
0.13921957 0.12242578 0.045242414 0.028485026 0.11175944 -0.09917287 0.09675007 -0.10409735
0.01154485 0.03825058 0.07639281 -0.0077763596 0.13613942 -0.09025804 0.07520611 0.10545309
0.03836277 0.11525994 0.061415777 0.08031014 -0.053520426 -0.10845677 0.03213865 -0.07820487
0.15284821 -0.009611934 -0.028886968 0.0077220984 0.09347935 0.056974605 -0.019949732 -0.13365896
-0.006712798 0.046308905 -0.054984517 0.15372656 0.02557598 -0.0690086 -0.009614152 0.058360834
0.1025902 0.1494403 -0.06689067 0.091334395 0.16672735 0.029575117 -0.0015924672 -0.057757944
-0.080781706 0.03929229 -0.049543843 -0.10894066 -0.10982299 -0.07105892 -0.04302929 -0.06912775
-0.03137424 0.07006283 0.13924472 0.11853036 -0.059663326 -0.08239111 -0.040396236 -0.061312024
-0.117675334 -0.10551245 0.06472969 0.11127169 -0.03607924 -0.092688486 0.061487157 0.0812008
0.084500335 0.017195655 -0.0074202344 0.047984466 0.10783242 0.11551071 0.036530197 0.010262489
0.13369085 -0.025657285 -0.07648291 0.10164401 -0.039208308 -0.12019118 0.09551226 0.121588066
0.12154587 0.0043561677 -0.13749038 -0.016191855 -0.13943703 0.0004763949 0.07882792 -0.024452034
0.11753984 0.011291745 0.01898621 0.04115533 -0.027032148 0.10414196 -0.08592574 0.11412094
0.13812397 0.014774861 -0.067379154 -0.030575579 -0.0477086 0.046372738 0.06291754 0.040806234
-0.059539165 0.06723927 -0.0061730295 -0.073706366 0.094109535 -0.072785124 0.03403445 0.10331185
00000000: eb73 cb3d 78d5 fb3d e39e d43c bcff e33d
00000010: d5a3 ccbd 5867 ae3c 9d22 bd3d 1dc1 ab3d
00000020: 1631 c73d 86f9 ff3d 7eaf d03d 4665 2b3b
00000030: 40c0 ffbc e594 993b 153f e0bd 9f80 8a3d
00000040: 868f b53c b882 9bbd 3a2c eb3d ae59 37bd
00000050: 16a3 e2bd eb78 3ebd a9bd 38bd ec0f 003e
00000060: 7343 453d 1080 f2bd 9879 f33d aee2 fbbd
00000070: e16a 233e 2a7e 9ebd d1c7 c63c 6258 143e
00000080: b0a9 4f3d 65ae acbd 0403 9e3d eda4 fdbd
00000090: d5e1 db3d 6a23 9f3d 791d cdbd 3e6b 97bd
000000a0: 38ea de3d 5a8b febd 94d3 a43d 0b45 babd
000000b0: 72e8 0cbd 83d8 49bd dec5 43bd d3c6 92bc
000000c0: f418 d93d 5f22 e33c 0f88 a93d a3ce ce3d
000000d0: 080f 10be e987 1c3e 3f93 0ebe 609e e0bd
000000e0: c8bf 0cbc 8bd0 0dbd 00b6 913c d218 5abc
000000f0: 4e69 babd b15c a1bd 77e6 3c3b f8f6 8f3d
00000100: ae17 8fbc 5cd7 773d 2f08 413d 1d3d 993d
00000110: 4134 a03d 550d 76bd 6cd7 493d 8ba4 a93c
00000120: d04b c3bd 2965 dc3d f804 f13d fe88 fa3d
00000130: 2323 d1bc 87a6 92bd 9dec 263d 9907 e5bd
00000140: 1adc 933d 8f50 2abd 74ba 273e 47ae 203d
00000150: 6d80 293e 310f 61bc f886 e6bd af99 673d
00000160: 6519 82bd f4e9 793d da8d 093e 50a3 04be
00000170: ba8e e43d 0212 80bb 7147 2ebd 2261 c1bb
00000180: fee4 243d f436 18bd 240a 7abd 6b3a e8bd
00000190: 6d7a c63d 3156 bcbb 60da d83c ffe6 afbc
000001a0: 6ebe a4bc 8bbf 023e d8ad d43d 4f42 453d
000001b0: c49a 193e 776d a9bc 1ae4 0f3c a7c5 773d
000001c0: 6970 c0bd 2edb eb3d 565e fe3d 1348 7cbd
000001d0: 48d7 173d 9ef8 76bd cfb0 b03d 8d67 b93b
000001e0: 648a 17be b857 8fbc 209c f33d c370 8a3c
000001f0: 5308 203e 6f33 153c cfa2 61bd 6503 0c3e
00000200: b128 f63d 373a cb3d 66a1 c63d f3e4 ef3d
00000210: 0924 edbd 1930 233e 8884 0b3d 0617 a4bb
00000220: 938f 0e3e 5eba fa3d 1c50 393d 6e59 e93c
00000230: 22e2 e43d 251b cbbd e724 c63d fe30 d5bd
00000240: 9c26 3d3c a4ac 1c3d d573 9c3d d5d0 febb
00000250: 2268 0b3e 35d9 b8bd a905 9a3d caf7 d73d
00000260: 4822 1d3d 670d ec3d 1c8f 7b3d a579 a43d
00000270: 3c38 5bbd 951e debd d1a3 033d e029 a0bd
00000280: 3e84 1c3e 607b 1dbc 5da4 ecbc a809 fd3b
00000290: 1a72 bf3d 345e 693d 9f6d a3bc e5dd 08be
000002a0: 08f7 dbbb 68ae 3d3d 7237 61bd 7f6a 1d3e
000002b0: b884 d13c 6254 8dbd ad84 1dbc c50b 6f3d
000002c0: d01a d23d e106 193e fafd 88bd 870d bb3d
000002d0: 93ba 2a3e 8447 f23c 55ba d0ba 9893 6cbd
000002e0: e170 a5bd f4f0 203d 7cee 4abd 481c dfbd
000002f0: e0ea e0bd 5787 91bd 7b3f 30bd da92 8dbd
00000300: 4682 00bd 1a7d 8f3d 2b96 0e3e 0cc0 f23d
00000310: 8861 74bd acbc a8bd 8676 25bd 5122 7bbd
00000320: c4ff f0bd e916 d8bd 0091 843d 69e2 e33d
00000330: d3c7 13bd 76d3 bdbd f5d9 7b3d 9b4c a63d
00000340: 830e ad3d e7dd 8c3c 7025 f3bb 5c8b 443d
00000350: 3ed7 dc3d e190 ec3d b0a0 153d 0024 283c
00000360: 41e6 083e 3a2f d2bc 12a3 9cbd bc2a d03d
00000370: e498 20bd cb26 f6bd ef9b c33d 2a03 f93d
00000380: 0bed f83d 2fbe 8e3b 47ca 0cbe c8a4 84bc
00000390: 95c8 0ebe a4c4 f939 8870 a13d a24f c8bc
000003a0: bab8 f03d 0301 393c f888 9b3c 7e92 283d
000003b0: 8672 ddbc 6148 d53d d6f9 afbd 3db8 e93d
000003c0: 5f70 0d3e 4212 723c 15fe 89bd a379 fabc
000003d0: 186a 43bd 57f1 3d3d e9da 803d 7024 273d
000003e0: 57df 73bd beb4 893d 2047 cabb 5df3 96bd
000003f0: 80bc c03d 5e10 95bd b567 0b3d 2a95 d33d

encoder1.gru.weight_hh_l0 f4 [144, 48]
0.010800121 -0.052493636 0.032785937 0.038750708 0.107764356 0.07813648 0.10357914 -0.011998905
-0.04352176 0.09947936 0.0017108119 0.0137106795 0.013207456 -0.06976997 0.095239155 7.411258e-05
0.09949563 -0.065418504 0.11783283 -0.12585533 -0.13035218 -0.1099014 -0.13625234 -0.14087014
-0.14333281 0.11298094 -0.09726453 -0.092686445 -0.08933274 0.10930951 0.08035287 -0.07889035
0.11246546 0.112204656 0.005125388 0.13482057 -0.04649 -0.11172638 0.07049799 0.042330183
-0.064954855 -0.06268786 -0.024069952 0.019306798 0.038348794 -0.12028638 0.01686514 -0.07113582
0.011128984 0.077092476 0.011587361 -0.045721065 -0.05274872 0.044096008 -0.12641159 0.11792008
0.10541399 0.15193038 -0.068707995 0.046937365 -0.050176304 0.04579265 -0.11134254 0.022924837
-0.136269 0.07538299 -0.11377394 -0.07950405 0.04924633 0.09587724 0.15630679 0.021424059
-0.020362435 -0.029819295 0.11514669 -0.06532872 0.029269386 0.06848632 0.11073344 0.009496176
-0.049250614 0.039391566 0.15143937 -0.027429016 -0.014629549 0.05807058 0.087110326 -0.09091586
0.10030838 0.0028662388 -0.086121224 -0.04910245 -0.10529899 0.09823245 -0.101848945 0.010198864
0.025271285 -0.03840679 -0.050732862 -0.09505261 -0.11746864 -0.13952349 -0.11634602 0.07429027
0.06704353 0.15610297 0.15720761 0.06795201 0.10588185 0.10340708 -0.07954632 -0.02312846
0.045623835 -0.06656965 -0.00902949 0.03553737 0.062028524 0.07097463 -0.09559672 0.13166274
-0.01996039 0.007514391 0.11901116 0.07137336 0.09821478 -0.111712575 -0.09117002 0.061648354
0.061776232 0.044331744 -0.03461018 0.059334867 0.025621263 0.08169885 0.06941723 0.10290322
0.091102205 0.032061666 0.15024777 -0.058965262 -0.10398959 0.109168686 0.08238247 -0.10566759
0.0073818476 -0.070755035 -0.08147452 0.021648096 0.02597562 -0.036081564 -0.12693329 0.015343417
0.12523848 0.058917742 -0.02714072 0.04621369 0.12253319 -0.07130129 -0.14339578 0.09731514
0.10210312 0.06610516 0.109190084 0.05145061 0.012567172 -0.0182941 0.13228932 -0.17681754
0.015726745 -0.11170957 -0.06401934 -0.026067588 0.07997887 -0.018809777 -0.056346275 0.069347054
-0.08104763 -0.06037523 -0.0934555 0.08231937 -0.14856683 -0.084190525 -0.11624535 -0.058031965
0.07672451 -0.14373294 0.13740884 0.025805643 -0.117236614 0.12406618 -0.08230356 0.02195982
0.072083786 -0.03745522 -0.0062399483 0.118703976 -0.015675817 0.0720163 -0.059306957 0.08631866
-0.107122526 0.08823079 -0.028188517 0.006185652 -0.14594482 0.12701789 -0.09989565 -0.11619326
0.03463798 0.11670138 0.09104001 -0.007848028 0.026413366 -0.003688424 0.05719477 0.14595225
-0.105731286 -0.016402828 -0.01506109 0.068883315 0.062084716 -0.08782608 -0.13561332 -0.023974646
0.105368875 -0.01954898 -0.10400667 0.039845172 0.03607059 -0.03673607 -0.06107096 -0.06694948
-0.08674332 0.05715148 0.073572025 -0.06275476 -0.037089095 -0.15375036 0.07481772 -0.0042445427
-0.13091528 0.09098733 0.1297209 -0.053683706 -0.01668765 -0.00034622388 0.11805281 0.07740335
-0.16016759 -0.030263798 -0.085264966 -0.046970163 0.09255743 -0.12066301 0.05514401 -0.10270948
00000000: fef2 303c 9103 57bd 8c4a 063d 10b9 1e3d
00000010: 8fb3 dc3d 0506 a03d 4d21 d43d 0e97 44bc
00000020: df43 32bd d6bb cb3d 523d e03a c2a2 603c
00000030: 1664 583c 8fe3 8ebd bf0c c33d e36c 9b38
00000040: 5dc4 cb3d 23fa 85bd 5752 f13d 38e0 00be
00000050: 0b7b 05be fc13 e1bd bc85 0bbe 4340 10be
00000060: d6c5 12be 8d62 e73d a032 c7bd 64d2 bdbd
00000070: 15f4 b6bd aadd df3d 0c90 a43d 4491 a1bd
00000080: 4b54 e63d 8ecb e53d dff2 a73b 670e 0a3e
00000090: 4c6c 3ebd cdd0 e4bd 4061 903d 6a62 2d3d
000000a0: 0d07 85bd 7e62 80bd 592e c5bc 4a29 9e3c
000000b0: a013 1d3d b558 f6bd c328 8a3c a8af 91bd
000000c0: 5856 363c a9e2 9d3d ead8 3d3c 0346 3bbd
000000d0: 0b0f 58bd 049e 343d 0a72 01be 1580 f13d
000000e0: 4ae3 d73d a393 1b3e c7b6 8cbd 6541 403d
000000f0: ab85 4dbd 1391 3b3d 8f07 e4bd decc bb3c
00000100: 1a8a 0bbe 6662 9a3d 5002 e9bd 05d3 a2bd
00000110: 85b6 493d 495b c43d e30e 203e 8281 af3c
00000120: 1fcf a6bc 9847 f4bc 07d2 eb3d 10cb 85bd
00000130: 5ac6 ef3c 8e42 8c3d 37c8 e23d d995 1b3c
00000140: 03bb 49bd 0d59 213d ec12 1b3e d1b2 e0bc
00000150: c7b0 6fbc 6bdb 6d3d e666 b23d 1832 babd
00000160: 7b6e cd3d 82d7 3b3b 5360 b0bd a71f 49bd
00000170: ffa6 d7bd 182e c93d 2e96 d0bd 2319 273c
00000180: ba05 cf3c 7050 1dbd 43cd 4fbd f1aa c2bd
00000190: 6693 f0bd 3fdf 0ebe d246 eebd 7f25 983d
000001a0: 1e4e 893d 75d9 1f3e 08fb 203e 6c2a 8b3d
000001b0: 95d8 d83d 17c7 d33d 2ee9 a2bd e577 bdbc
000001c0: 0fe0 3a3d ab55 88bd 6df0 13bc a28f 113d
000001d0: 9f11 7e3d 265b 913d 37c8 c3bd 99d2 063e
000001e0: f983 a3bc 483b f63b 20bc f33d 322c 923d
000001f0: d524 c93d 90c9 e4bd 59b7 babd fc82 7c3d
00000200: 1309 7d3d 3495 353d 67c3 0dbd 1e09 733d
00000210: afe3 d13c ba51 a73d 9f2a 8e3d ecbe d23d
00000220: cb93 ba3d 1853 033d 8dda 193e 8f85 71bd
00000230: 7ff8 d4bd d593 df3d 24b8 a83d 4068 d8bd
00000240: 6de3 f13b 04e8 90bd 1ddc a6bd 5957 b13c
00000250: d3ca d43c 43ca 13bd cdfa 01be f562 7b3c
00000260: 843e 003e bb53 713d 3756 debc 914a 3d3d
00000270: aef2 fa3d 6906 92bd 58d6 12be 294d c73d
00000280: 711b d13d 2462 873d 0d9f df3d e0bd 523d
00000290: 8ae6 4d3c 82dd 95bc da76 073e a80f 35be
000002a0: 60d5 803c fdc7 e4bd 921c 83bd b28b d5bc
000002b0: f6cb a33d f616 9abc 5acb 66bd d405 8e3d
000002c0: 4dfc a5bd 044c 77bd 9965 bfbd 0f97 a83d
000002d0: e721 18be 156c acbd 0b12 eebd edb2 6dbd
000002e0: bd21 9d3d ba2e 13be e7b4 0c3e 5b66 d33c
000002f0: c019 f0bd 6916 fe3d c58e a8bd 15e5 b33c
00000300: aaa0 933d a56a 19bd 7b78 ccbb 121b f33d
00000310: 926a 80bc 487d 933d daeb 72bd d6c7 b03d
00000320: 0e63 dbbd 58b2 b43d 9beb e6bc 03b1 ca3b
00000330: 8f72 15be fa10 023e 1796 ccbd bbf6 edbd
00000340: 8ee0 0d3d 2201 ef3d 2f73 ba3d 0495 00bc
00000350: d860 d83c 7cb9 71bb 1045 6a3d 8274 153e
00000360: a589 d8bd 395f 86bc cac2 76bc b212 8d3d
00000370: 8b4c 7e3d 29de b3bd 38de 0abe 7a66 c4bc
00000380: a3cb d73d 2f25 a0bc 7301 d5bd b134 233d
00000390: c1be 133d 9078 16bd 8b25 7abd cf1c 89bd
000003a0: 7ba6 b1bd ac17 6a3d eeac 963d 9185 80bd
000003b0: bcea 17bd bc70 1dbe 083a 993d ce15 8bbb
000003c0: a80e 06be 9157 ba3d 8ed5 043e 72e3 5bbd
000003d0: 8ab4 88bc 6285 b5b9 acc5 f13d a685 9e3d
000003e0: f902 24be c9eb f7bc 669f aebd c963 40bd
000003f0: c08e bd3d 2b1e f7bd afde 613d 5959 d2bd

encoder1.gru.bias_ih_l0 f4 [144]
0.0065024267 0.087179855 -0.1337804 0.038762048 -0.008861895 0.10658436 -0.03869456 0.09901586
-0.08583756 0.00654016 -0.06272048 0.055543326 0.037631396 0.050270814 0.12232644 -0.03240581
0.011867295 0.026069608 0.13980204 0.06854251 0.14175063 0.025574137 0.003147507 -0.055474624
0.039736062 -0.12295332 0.13956788 -0.09550865 0.08763745 0.16757353 0.05298326 0.025121361
0.105742194 0.07533839 0.13585699 0.10387974 -0.11275487 0.12511218 -0.1293474 -0.071392566
0.05112315 -0.05317321 -0.05275163 0.031474646 -0.12074208 0.10414205 0.018120289 0.14776146
0.10361035 0.14143187 -0.11869899 -0.012158416 -0.09582939 -0.15993854 0.03406939 -0.09432553
-0.0736644 -0.0084963925 -0.04418216 -0.035313565 0.09910192 -0.030990746 -0.08534013 0.062315643
0.13828692 0.11900165 -0.15092628 -0.04368921 -0.08290925 -0.046574596 -0.13795312 0.09094063
0.061144248 -0.034116235 -0.10682338 0.039851174 -0.10350025 -0.09376521 0.040176623 -0.051304918
0.055611774 -0.08887006 -0.075045235 0.03830421 0.02231653 0.087461725 -0.037822917 -0.010617803
-0.061977614 0.01480979 -0.04839828 0.034372747 -0.15064 -0.0565705 -0.15248838 -0.004574366
-0.056999493 0.0041688313 -0.09969916 0.050027005 -0.1282089 -0.05352386 -0.0095965285 0.037851136
-0.09894753 0.025341656 0.0026602594 0.014180456 0.081823416 -0.070830174 0.026432585 -0.023230938
-0.12149269 0.07002673 -0.056074098 0.026610382 0.008596072 0.004874179 0.16857974 -0.14518426
0.06389988 0.09262237 -0.014421141 -0.05615856 -0.0384644 0.032268852 -0.034708887 0.082676426
-0.031308196 -0.017391196 0.139961 -0.030931959 0.093791574 -0.090992466 0.07946197 -0.008702993
0.05442044 0.09167005 0.100832656 -0.16992757 -0.032886803 0.018571936 0.14814067 0.1649111
00000000: 4f12 d53b 5a8b b23d bbfd 08be f4c4 1e3d
00000010: 7b31 11bc e748 da3d 307e 1ebd d4c8 ca3d
00000020: 9acb afbd d74e d63b 9873 80bd 6681 633d
00000030: 6123 1a3d c5e8 4d3d 4986 fa3d f4bb 04bd
00000040: 0b6f 423c ee8f d53c 4428 0f3e 0460 8c3d
00000050: 1427 113e da80 d13c 6846 4e3b 5c39 63bd
00000060: 48c2 223d f3ce fbbd e2ea 0e3e 0a9a c3bd
00000070: 437b b33d 6598 2b3e fa04 593d 50cb cd3c
00000080: 5d8f d83d 044b 9a3d 181e 0b3e e7be d43d
00000090: 06ec e6bd 681d 003e a573 04be 4436 92bd
000000a0: 8266 513d 27cc 59bd 1812 58bd 8feb 003d
000000b0: a047 f7bd 6d48 d53d 0071 943c c84e 173e
000000c0: aa31 d43d 84d3 103e 7518 f3bd 1834 47bc
000000d0: 3342 c4bd eec6 23be 588c 0b3d be2d c1bd
000000e0: 5cdd 96bd 7434 0bbc 5af8 34bd f5a4 10bd
000000f0: f3f5 ca3d 4ee0 fdbc cec6 aebd b03e 7f3d
00000100: 169b 0d3e 23b7 f33d 6b8c 1abe 75f3 32bd
00000110: 53cc a9bd 01c5 3ebd 9543 0dbe 153f ba3d
00000120: 6472 7a3d 77bd 0bbd 37c6 dabd fc3a 233d
00000130: f0f7 d3bd f907 c0bd 3e90 243d 1b25 52bd
00000140: 2cc9 633d 8201 b6bd 51b1 99bd e0e4 1c3d
00000150: 28d1 b63c 221f b33d 34ec 1abd 4bf6 2dbc
00000160: 3ddc 7dbd c3a4 723c 463d 46bd 70ca 0c3d
00000170: 5f41 1abe 78b6 67bd ea25 1cbe 90e4 95bb
00000180: 4d78 69bd b19a 883b 132f ccbd 1ee9 4c3d
00000190: 3249 03be d63b 5bbd c23a 1dbc cb09 1b3d
000001a0: 01a5 cabd 4e99 cf3c bf57 2e3b 2555 683c
000001b0: 0993 a73d 690f 91bd 2689 d83c cf4e bebc
000001c0: 29d1 f8bd 2d6a 8f3d f4ad 65bd 04fe d93c
000001d0: 8ad6 0c3c 94b7 9f3b 2ba0 2c3e 2fab 14be
000001e0: f1dd 823d ccb0 bd3d a646 6cbc 8506 66bd
000001f0: d98c 1dbd 582c 043d e82a 0ebd 4252 a93d
00000200: 063d 00bd fb77 8ebc f051 0f3e 0565 fdbc
00000210: cc15 c03d 425a babd f5bc a23d 0097 0ebc
00000220: f8e7 5e3d 82bd bb3d 5a81 ce3d 7e01 2ebe
00000230: 50b4 06bd 2c24 983c 30b2 173e 75de 283e

encoder1.gru.bias_hh_l0 f4 [144]
0.09873616 -0.077606484 -0.028847044 0.11042637 -0.09339726 -0.043204404 0.033348132 0.07948755
0.11388406 0.07731597 -0.056106817 0.013662126 -0.13444579 0.048444044 -0.066225804 -0.13405678
0.009160163 0.103493415 -0.04816721 -0.07419963 -0.077429615 -0.03646811 0.05117308 0.08975144
0.12850274 -0.09646022 0.060749993 0.1327802 0.033377033 -0.07929311 0.1813301 0.07688797
0.07619635 0.02289255 -0.12877019 0.090680085 -0.14826426 -0.07696443 -0.0673962 0.13035178
0.012205274 -0.055557188 -0.10916957 -0.056920428 -0.0011047072 -0.010173953 0.13411845 -0.019552225
-0.07925159 -0.0934946 -0.16140372 -0.057675768 -0.1653612 -0.17454977 -0.00811251 -0.015243197
-0.104515985 -0.09893494 0.12361209 -0.079904035 -0.06171148 -0.10192812 0.032162737 -0.093779676
-0.14166489 0.115545236 0.06594848 -0.15730911 -0.055965066 -0.18543962 -0.087243184 0.048327267
-0.07880146 -0.07084761 0.10133855 0.07148024 -0.12820712 0.0077957455 0.027001468 -0.0066085844
-0.11781337 0.11047262 0.09733215 -0.056951083 0.10787792 0.052585825 -0.10423165 -0.1123606
-0.10887408 0.09074445 -0.08993216 -0.06704329 -0.0729498 -0.0072122207 0.07984423 -0.002129516
0.06911031 -0.024441442 -0.018793423 -0.151394 -0.0153726535 -0.08235453 0.020291556 0.13103592
0.056870893 0.12729803 0.10786372 -0.07193114 -0.08508807 -0.078282624 -0.09506045 0.015387712
0.011457199 0.060642574 -0.0057736617 0.09300246 -0.0077584633 -0.08709709 -0.023621606 -0.06465385
0.014760069 0.0781007 -0.010794909 -0.037765194 -0.09390093 -0.115104966 -0.1585375 -0.091361344
-0.08507837 0.061233614 0.08319686 0.11179427 0.07475499 -0.16809084 -0.045346636 -0.13923791
-0.0017068316 0.06795053 0.02671266 0.06393228 0.10466795 -0.026108801 0.1424508 0.10427034
00000000: 2f36 ca3d 26f0 9ebd a350 ecbc 3827 e23d
00000010: 1047 bfbd 1af7 30bd 0d98 083d 5eca a23d
00000020: 0c3c e93d d657 9e3d 43d0 65bd 1cd7 5f3c
00000030: 28ac 09be 436d 463d 65a1 87bd 2e46 09be
00000040: 8214 163c 5bf4 d33d fb4a 45bd faf5 97bd
00000050: 6b93 9ebd 965f 15bd dd9a 513d 9acf b73d
00000060: 3996 033e f08c c5bd fcd4 783d 88f7 073e
00000070: 5bb6 083d 6d64 a2bd 99ae 393e 7177 9d3d
00000080: d50c 9c3d 2889 bb3c 55dc 03be 7bb6 b93d
00000090: 96d2 17be 879f 9dbd 0507 8abd f07a 053e
000000a0: a1f8 473c ef8f 63bd 4c94 dfbd 6525 69bd
000000b0: d3cb 90ba a7b0 26bc 5956 093e fd2b a0bc
000000c0: a84e a2bd 197a bfbd 0447 25be 6d3d 6cbd
000000d0: 7254 29be 2dbd 32be 55ea 04bc 9abe 79bc
000000e0: 7a0c d6bd 679e cabd 5628 fd3d baa4 a3bd
000000f0: 2dc5 7cbd b1bf d0bd 13bd 033d 8f0f c0bd
00000100: 9a10 11be fba2 ec3d ff0f 873d a415 21be
00000110: a03b 65bd e2e3 3dbe 8eac b2bd d0f2 453d
00000120: a962 a1bd 8d18 91bd 968a cf3d 3b64 923d
00000130: ba48 03be 7473 ff3b 2f32 dd3c d38c d8bb
00000140: 2348 f1bd 783f e23d 1456 c73d 8a45 69bd
00000150: 19ef dc3d 3c64 573d 6777 d5bd 501d e6bd
00000160: 60f9 debd 3ad8 b93d 5a2e b8bd fe4d 89bd
00000170: b466 95bd 7e54 ecbb 5f85 a33d 5a8f 0bbb
00000180: b589 8d3d 6b39 c8bc aaf4 99bc 0707 1bbe
00000190: 95dd 7bbc 7ea9 a8bd 7a3a a63c 482e 063e
000001a0: 74f1 683d 6a5a 023e a7e7 dc3d a250 93bd
000001b0: a742 aebd a452 a0bd 0eaf c2bd be1c 7c3c
000001c0: fab6 3b3c 5964 783d fc30 bdbb 1378 be3d
000001d0: b53a febb f65f b2bd 1982 c1bc 3d69 84bd
000001e0: 37d4 713c 43f3 9f3d 21dd 30bc adaf 1abd
000001f0: 214f c0bd 27bc ebbd a857 22be a81b bbbd
00000200: 923d aebd 19d0 7a3d 1e63 aa3d 65f4 e43d
00000210: 2519 993d 0120 2cbe 65bd 39bd 6294 0ebe
00000220: c4b7 dfba a629 8b3d 82d4 da3c edee 823d
00000230: 265c d63d 20e2 d5bc 9fde 113e b08b d53d

encoder2.conv.weight f4 [16, 2, 1]
0.39516127 -0.3707594 -0.64493304 -0.19033137 -0.69676906 0.23555699 0.0959985 0.6420901
0.4347756 -0.36957124 0.02370112 0.06396776 -0.5995812 -0.2918233 -0.32730284 0.6773626
-0.17613602 -0.072819024 0.21918024 -0.13644283 -0.028912641 0.15059689 0.15038458 -0.13406074
-0.7179367 0.028775183 -0.49007925 -0.26127377 -0.6975153 -0.05967314 -0.54823726 0.5794391
00000000: 9452 ca3e 2dd4 bdbe 551a 25bf 3ae6 42be
00000010: 755f 32bf da35 713e dd9a c43d 0460 243f
00000020: e89a de3e 7138 bdbe da28 c23c 8701 833d
00000030: 277e 19bf dd69 95be 3d94 a7be a367 2d3f
00000040: 005d 34be 2422 95bd c970 603e abb7 0bbe
00000050: 34da ecbc 1236 1a3e 6afe 193e 3847 09be
00000060: b3ca 37bf efb9 eb3c abeb fabe adc5 85be
00000070: 5d90 32bf d36b 74bd 4759 0cbf 1f56 143f

encoder2.conv.bias f4 [16]
-0.21019366 -0.5298702 -0.6445474 -0.14743242 0.5658329 -0.12042851 -0.21108079 -0.2459473
0.13568193 0.6575085 0.20970234 0.5429093 0.275834 -0.60771066 0.671472 0.22762582
00000000: 023d 57be 93a5 07bf 0f01 25bf 86f8 16be
00000010: 6dda 103f 39a3 f6bd 9025 58be 9cd9 7bbe
00000020: 34f0 0a3e 7a52 283f 36bc 563e 1bfc 0a3f
00000030: 1d3a 8d3e ed92 1bbf 97e5 2b3f be16 693e

encoder2.gru.weight_ih_l0 f4 [144, 16]
0.10540554 -0.0004326704 -0.11360216 -0.10180558 -0.13928813 0.09091836 -0.1331309 0.16280383
-0.016737692 0.0050462927 -0.075719096 -0.0701855 0.09884817 0.045366406 0.06672367 0.01679329
0.14588454 0.10981643 0.14898807 -0.033113714 -0.0022066652 -0.070037566 0.09267818 -0.022547055
-0.07077483 -0.022941222 0.107034184 0.0025544134 0.017976856 0.039512776 0.18498468 0.04465348
0.033483513 -0.0005879409 0.13176046 0.023204174 0.014216474 -0.016866675 -0.008480955 -0.019803634
-0.0038774174 -0.04235012 -0.09743224 0.06656739 0.09246 -0.048922703 -0.08494645 -0.019385945
-0.12646633 -0.0058688587 0.07246898 0.06470623 0.08336444 -0.07506968 0.133107 -0.0042216303
-0.02359286 0.012080672 0.070007324 -0.086604856 -0.085665144 -0.0148696685 -0.037901748 -0.03380793
0.10163148 0.089434296 0.09783723 0.090115905 -0.06996415 0.02401591 0.0134783285 -0.0054767095
0.03294856 -0.05300531 0.117332086 0.15271378 -0.07178276 0.07556349 -0.10321623 0.13561924
-0.10736088 -0.055692352 -0.06506575 -0.0715833 -0.0886722 0.028849429 -0.057279706 -0.08629706
0.039829955 -0.03464562 0.13196763 0.075024426 0.09857846 -0.04883724 0.12270071 0.047742963
0.09196098 -0.046578873 -0.028649729 0.089526795 -0.075561896 -0.12470843 -0.039976764 -0.13021876
0.01468725 -0.004277555 0.025418386 -0.08128187 0.051254332 -0.040439703 0.1028868 0.055805314
-0.010684457 -0.011728127 0.04425521 0.100845374 -0.10530514 0.14893281 0.12455787 0.08236037
-0.045459785 0.15286683 0.025709847 0.11780068 0.007878982 0.089369 0.04517011 0.15251648
-0.097843505 -0.009628765 -0.096977234 0.06093147 0.04485297 0.1296454 0.04013202 -0.0896556
-0.045986082 0.076312825 0.002916374 0.09061891 -0.04480477 -0.099008426 0.020470118 0.094962075
0.10972252 0.13474032 -0.02179532 0.035984162 0.00018539748 0.12686266 -0.11961241 0.1487013
0.057283603 0.05735081 -0.008655557 -0.013629812 0.08031031 0.039213438 -0.042632975 0.032177955
0.054283638 -0.017999986 0.06027612 -0.08304964 0.05144934 0.020619094 -0.10846469 -0.10184372
0.08257811 -0.01799146 0.060676266 -0.065800406 -0.101920865 0.11726842 -0.1067391 -0.0036294588
-0.04980172 -0.017836263 -0.106364675 0.027273078 -0.12133965 0.1649098 0.12766258 -0.13483527
0.054947797 -0.036306612 0.13276902 -0.046836413 -0.015966998 0.12296628 -0.06256346 -0.08387112
0.09608415 0.029124828 -0.1174287 -0.08859254 0.020563064 0.0751343 -0.09254567 0.0653184
0.10110871 0.023615867 -0.018406436 -0.022262868 0.103567824 0.028322067 0.086341575 -0.056561742
-0.04822253 0.026907917 0.14027569 -0.08669864 -0.081762634 0.13460058 -0.052544314 -0.08134332
-0.057429712 -0.016819926 -0.035697572 0.05616125 0.051903583 -0.019747488 0.10042975 -0.03295251
0.05631471 0.1262065 0.031056475 -0.015444074 0.1259167 -0.07543636 0.06944605 0.109889165
0.01653668 0.12936908 -0.03961139 0.10548938 0.13922366 -0.08626461 -0.082535364 0.11546005
-0.10724383 0.089958735 0.14501555 0.075472176 -0.13168904 0.011261676 -0.1311695 0.12440589
-0.021063453 -0.03509744 0.16489474 0.14830993 -0.059766825 0.13357875 -0.06637574 0.123505935
00000000: dcde d73d 0ad8 e2b9 40a8 e8bd 727f d0bd
00000010: 8ca1 0ebe 6833 ba3d 7753 08be 0cb6 263e
00000020: 7c1d 89bc 5f5b a53b 9d12 9bbd 6abd 8fbd
00000030: e970 ca3d 20d2 393d 6ba6 883d 1592 893c
00000040: c262 153e 70e7 e03d 5490 183e 3fa2 07bd
00000050: b39d 10bb db6f 8fbd 0fce bd3d 9ab4 b8bc
00000060: 65f2 90bd 3bef bbbc bd34 db3d f267 273b
00000070: 3344 933c 26d8 213d a06c 3d3e 91e6 363d
00000080: 0226 093d 0c20 1aba 37ec 063e ae16 be3c
00000090: 37ec 683c fb2b 8abc b4f3 0abc 3b3b a2bc
000000a0: 451c 7ebb 5277 2dbd 8e8a c7bd 7c54 883d
000000b0: ab5b bd3d 2c63 48bd 68f8 adbd 46cf 9ebc
000000c0: 6480 01be 8e4f c0bb 9e6a 943d b384 843d
000000d0: faba aa3d 22be 99bd 344d 083e 9a55 8abb
000000e0: d045 c1bc 03ee 453c 0060 8f3d e35d b1bd
000000f0: 3571 afbd e99f 73bc dd3e 1bbd 2f7a 0abd
00000100: 2a24 d03d 5429 b73d e35e c83d b08e b83d
00000110: 5d49 8fbd 04bd c43c 35d4 5c3c f875 b3bb
00000120: 12f5 063d 191c 59bd ce4b f03d 0061 1c3e
00000130: d702 93bd 08c1 9a3d 0863 d3bd c5df 0a3e
00000140: 05e0 dbbd aa1d 64bd 3141 85bd 449a 92bd
00000150: c599 b5bd a355 ec3c 209e 6abd 83bc b0bd
00000160: bc24 233d 91e8 0dbd 8622 073e 68a6 993d
00000170: 81e3 c93d 8f09 48bd 834a fb3d 208e 433d
00000180: 0a56 bc3d 7dc9 3ebd d6b2 eabc d359 b73d
00000190: 32c0 9abd 2267 ffbd adbe 23bd 1158 05be
000001a0: cba2 703c bb2a 8cbb 383a d03c 1c77 a6bd
000001b0: 10f0 513d 1aa4 25bd 51b6 d23d 1d94 643d
000001c0: dc0d 2fbc 5427 40bc f344 353d 0588 ce3d
000001d0: 39aa d7bd d881 183e 3218 ff3d 8eac a83d
000001e0: 0a34 3abd 1f89 1c3e 759d d23c 7c41 f13d
000001f0: d916 013c 1807 b73d 4b04 393d 482d 1c3e
00000200: 2d62 c8bd f8c1 1dbc 009c c6bd 4793 793d
00000210: bfb7 373d c4c1 043e 7961 243d 5b9d b7bd
00000220: e75b 3cbd e649 9c3d a320 3f3b 6896 b93d
00000230: 3585 37bd eec4 cabd f3b0 a73c 7a7b c23d
00000240: 33b6 e03d 5ef9 093e 198c b2bc 2164 133d
00000250: 4267 4239 49e8 013e 5af7 f4bd 2745 183e
00000260: 36a2 6a3d afe8 6a3d 0ad0 0dbc 934f 5fbc
00000270: bb79 a43d 459e 203d ea9f 2ebd 08cd 033d
00000280: 8558 5e3d b574 93bc 18e4 763d ee15 aabd
00000290: 8bbc 523d 60e9 a83c bc22 debd 7193 d0bd
000002a0: b61e a93d d462 93bc ad87 783d 5dc2 86bd
000002b0: e3bb d0bd 6d2a f03d 079a dabd 37dc 6dbb
000002c0: e3fc 4bbd 5b1d 92bc b9d5 d9bd ca6b df3c
000002d0: ec80 f8bd 1dde 283e fbb9 023e 4212 0abe
000002e0: f110 613d 3eb6 14bd 9af4 073e 8ad7 3fbd
000002f0: 39cd 82bc bfd5 fb3d 4521 80bd 9fc4 abbd
00000300: c4c7 c43d 3197 ee3c 757e f0bd 0170 b5bd
00000310: df73 a83c 03e0 993d 9688 bdbd a7c5 853d
00000320: 1512 cf3d 1076 c13c 18c9 96bc 9e60 b6bc
00000330: 5e1b d43d ae03 e83c dad3 b03d 49ad 67bd
00000340: fd84 45bd fe6d dc3c 6ea4 0f3e 0e8f b1bd
00000350: 2b73 a7bd bcd4 093e b538 57bd 5497 a6bd
00000360: 6b3b 6bbd f1c9 89bc 9e37 12bd 5709 663d
00000370: da98 543d 7cc5 a1bc 1dae cd3d 36f9 06bd
00000380: 41aa 663d 473c 013e 266a fe3c 2409 7dbc
00000390: 4ff0 003e 617e 9abd bb39 8e3d 920d e13d
000003a0: ee77 873c 5479 043e 8e3f 22bd d10a d83d
000003b0: a690 0e3e 80ab b0bd 4d08 a9bd 5276 ec3d
000003c0: a7a2 dbbd 493c b83d f57e 143e 2891 9a3d
000003d0: 7ed9 06be e582 383c 4c51 06be 84c8 fe3d
000003e0: 438d acbc 55c2 0fbd 2bda 283e 8fde 173e
000003f0: 0fce 74bd dec8 083e 01f0 87bd aef0 fc3d

encoder2.gru.weight_hh_l0 f4 [144, 48]
0.010976939 0.06809388 -0.07041217 -0.14658634 0.06853652 -0.009139503 0.07944735 -0.036857247
-0.060128164 0.03897158 0.043267827 -0.01280331 0.08987114 0.03804881 -0.04341102 -0.123165235
-0.035849217 -0.13697828 0.06806383 0.09708651 0.14568359 -0.047452945 -0.010411282 -0.03907533
0.016840102 0.0031913905 -0.015284801 0.17551218 0.034420945 0.14822555 0.03772077 -0.037418142
0.074449025 0.07027193 0.1398416 0.039579496 0.06713082 -0.18710311 0.18051432 -0.04204105
-0.09107317 -0.010921004 -0.017707584 0.1463959 -0.11991463 0.015368689 -0.11251329 0.12279684
0.084952876 -0.09863241 -0.044457678 -0.059971694 -0.10547078 -0.01585401 -0.0008487186 -0.1289162
-0.15117356 0.06470447 0.085877776 0.030574579 0.03564825 0.005093427 -0.051454548 0.060127772
0.036379922 0.03380029 0.05820974 0.060457654 0.16167757 0.023959579 0.015438682 0.04677607
-0.042796135 0.07603706 -0.019271053 0.13327071 0.13843586 -0.04397571 0.18279478 -0.00811377
-0.18205243 0.07126864 0.011952473 -0.04961888 -0.055140954 -0.09854458 0.075994 0.04934789
0.1294024 0.032580234 -0.0022654124 0.18917608 -0.18137933 0.10431375 0.14481269 0.05305086
-0.09698574 -0.008587776 0.0330179 -0.19722894 -0.10884837 -0.03248072 -0.024770813 -0.1877183
0.049211267 -0.10845012 0.04978523 -0.16166104 -0.08534808 0.15410736 0.06192975 0.02573819
0.16900572 -0.07126324 -0.06760636 0.110155314 0.03952394 -0.08623368 -0.03670594 -0.02299795
-0.107081704 0.01313031 -0.11482042 -0.0140442 0.12541057 0.020959789 0.04029092 0.04577881
0.045415163 0.012060257 0.11138088 0.07578255 -0.0095953895 -0.0063238135 0.044645008 0.056915246
0.11547484 0.015860103 0.04686366 -0.040556386 0.037523195 0.14939776 0.090757646 0.0075596976
-0.09503193 -0.15549462 0.07033169 0.059310194 -0.15700938 -0.097439624 -0.031724814 -0.08414612
-0.107694 0.10592622 0.06938795 0.023953065 -0.12970737 -0.09629432 -0.06697097 -0.0029925017
0.12916383 0.04577555 0.16621011 0.070942916 0.03453847 0.021168496 0.02036803 -0.13949189
0.093403816 -0.10244537 0.081161395 -0.07687317 -0.049028154 -0.07343244 0.058276556 0.11180821
-0.036490824 -0.058142588 0.1415764 -0.0929667 0.062402386 -0.09362902 -0.05382681 0.012470203
0.07392118 -0.09097607 -0.019859042 0.051384144 -0.03126047 -0.017971938 -0.0981455 0.14936884
-0.0524484 0.066045694 0.031515535 0.06411557 0.0054187006 0.018098058 -0.058322113 -0.14773126
-0.13061954 -0.07500251 -0.044143315 -0.031576023 -0.1619037 0.03383546 0.03768874 -0.059951555
0.054674815 -0.1192238 -0.07186083 0.09369259 0.16264068 0.0696272 -0.08183334 0.04801913
0.0012178654 0.04676767 -0.16312692 0.01163564 0.018040977 0.15443818 0.10225545 0.04947185
-0.09267852 0.13261658 0.0448672 0.10317647 0.03733016 0.06379423 -0.022027457 -0.032551512
-0.012291578 -0.09993089 -0.010971575 -0.035626356 -0.051149346 0.002557955 0.095664196 -0.040931296
-0.15741587 -0.15282194 -0.062594816 -0.01221051 0.00427856 0.10034562 -0.14140983 -0.114545055
0.05407648 -0.035723034 -0.06839854 -0.14130561 -0.15941653 -0.07671244 -0.08676277 0.006356583
00000000: 9fd8 333c ce74 8b3d 4134 90bd bb1a 16be
00000010: e05c 8c3d dbbd 15bc 4bb5 a23d a0f7 16bd
00000020: f348 76bd aaa0 1f3d 9b39 313d f9c4 51bc
00000030: 5c0e b83d 12d9 1b3d c1cf 31bd 0e3e fcbd
00000040: a1d6 12bd 0944 0cbe 0d65 8b3d 4bd5 c63d
00000050: 142e 153e 055e 42bd 1594 2abc 740d 20bd
00000060: 41f4 893c a626 513b 1a6d 7abc 77b9 333e
00000070: fafc 0c3d 70c8 173e 1881 1a3d c443 19bd
00000080: bb78 983d bbea 8f3d a332 0f3e 1c1e 223d
00000090: e27b 893d f597 3fbe bfd8 383e 3c33 2cbd
000000a0: 9284 babd 03ee 32bc 7f0f 91bc cfe8 153e
000000b0: cd95 f5bd f4cc 7b3c 5e6d e6bd e97c fb3d
000000c0: c6fb ad3d caff c9bd 4119 36bd e1a4 75bd
000000d0: 1001 d8bd 45e0 81bc 8b7c 5eba 9c02 04be
000000e0: 3ecd 1abe c783 843d b0e0 af3d 8a77 fa3c
000000f0: e603 123d c3e6 a63b 01c2 52bd 8a48 763d
00000100: 1d03 153d 2c72 0a3d 566d 6e3d 72a2 773d
00000110: ce8e 253e e146 c43c 87f2 7c3c 4498 3f3d
00000120: 004b 2fbd 51b9 9b3d 54de 9dbc 1e78 083e
00000130: 21c2 0d3e e01f 34bd 8e2e 3b3e 9eef 04bc
00000140: f46b 3abe 4bf5 913d 4ed4 433c 2b3d 4bbd
00000150: 7bdb 61bd bed1 c9bd bea2 9b3d 0321 4a3d
00000160: 1082 043e da72 053d 5077 14bb 60b7 413e
00000170: 81bb 39be 73a2 d53d c749 143e dc4b 593d
00000180: 76a0 c6bd beb3 0cbc c73d 073d 62f6 49be
00000190: e5eb debd 810a 05bd 29ec cabc 3a39 40be
000001a0: c191 493d 191b debd 99eb 4b3d 798a 25be
000001b0: f9ca aebd 52ce 1d3e 0daa 7d3d e6d8 d23c
000001c0: d60f 2d3e 76f2 91bd 3475 8abd 1c99 e13d
000001d0: dbe3 213d 499b b0bd f858 16bd 3266 bcbc
000001e0: a74d dbbd 8320 573c f826 ebbd a519 66bc
000001f0: a16b 003e ddb3 ab3c 1708 253d 9082 3b3d
00000200: 4005 3a3d 6298 453c a91b e43d e233 9b3d
00000210: fb35 1dbc fe37 cfbb afdd 363d f61f 693d
00000220: 137e ec3d 0ced 813c 1cf4 3f3d 741e 26bd
00000230: ecb1 193d bafb 183e 25df b93d 57b7 f73b
00000240: 1aa0 c2bd fb39 1fbe 100a 903d 3fef 723d
00000250: 11c7 20be 6d8e c7bd e1f1 01bd cd54 acbd
00000260: ac8e dcbd d9ef d83d 451b 8e3d 3839 c43c
00000270: 02d2 04be f535 c5bd 1328 89bd d91d 44bb
00000280: 8643 043e 257f 3b3d fc32 2a3e 854a 913d
00000290: 3678 0d3d 8e69 ad3c dbda a63c f6d6 0ebe
000002a0: 804a bf3d e1ce d1bd f237 a63d ae6f 9dbd
000002b0: bfd1 48bd bf63 96bd 66b3 6e3d b4fb e43d
000002c0: 6777 15bd ec26 6ebd 67f9 103e 5365 bebd
000002d0: a599 7f3d 92c0 bfbd 8079 5cbd d34f 4c3c
000002e0: fd63 973d a951 babd 6eaf a2bc 2e78 523d
000002f0: fb0a 00bd e339 93bc 8200 c9bd 25f4 183e
00000300: 22d4 56bd f742 873d 6f16 013d 064f 833d
00000310: 5b8f b13b 6142 943c 2be3 6ebd dd46 17be
00000320: 21c1 05be ea9a 99bd 9fcf 34bd dc55 01bd
00000330: 15ca 25be 0d97 0a3d 825f 1a3d c38f 75bd
00000340: b3f2 5f3d 9c2b f4bd c52b 93bd e7e1 bf3d
00000350: 478b 263e b598 8e3d 3d98 a7bd b5af 443d
00000360: c8a0 9f3a 758f 3f3d be0a 27be 69a3 3e3c
00000370: acca 933c 0b25 1e3e 4e6b d13d ffa2 4a3d
00000380: 3cce bdbd a4cc 073e abc6 373d 2f4e d33d
00000390: 83e7 183d 8da6 823d ed72 b4bc bc54 05bd
000003a0: 9d62 49bc 91a8 ccbd 1fc2 33bc f1ec 11bd
000003b0: fa81 51bd 5da3 273b 97eb c33d 93a7 27bd
000003c0: a031 21be 5b7d 1cbe b631 80bd 970e 48bc
000003d0: 2a33 8c3b 0182 cd3d bdcd 10be 9996 eabd
000003e0: 4d7f 5d3d 5152 12bd 8914 8cbd 6bb2 10be
000003f0: 163e 23be 691b 9dbd aeb0 b1bd e24a d03b

encoder2.gru.bias_ih_l0 f4 [144]
-0.0029731463 -0.004281572 -0.0030568768 0.1557664 0.061630975 -0.024112688 0.12295793 0.1760519
0.071625866 0.11292732 0.1353061 0.0143279955 0.009127421 -0.058390755 0.10336568 -0.059245918
0.18206249 -0.11701968 -0.090656295 0.04888247 0.039976034 0.15524293 0.12590347 -0.02105383
0.13162453 0.13401297 0.040549874 0.094932705 -0.108366095 0.07501025 0.08687581 -0.024375692
-0.10057339 -0.04140213 -0.0673804 0.079542786 0.010878742 0.021632124 0.09322134 -0.09529132
0.060863085 0.16834176 -0.07721911 -0.057451133 0.112775244 0.053891364 -0.019734383 0.13877992
0.06388414 0.094147965 0.12154784 0.12870854 0.06309808 0.084508955 -0.032381125 0.028929904
0.11043934 0.045964193 0.048935205 -0.03409379 -0.13502824 -0.124264464 0.09978214 0.11977833
0.09783936 0.02501079 0.067146 -0.063293405 -0.118250705 0.09555654 -0.01969427 -0.12981178
0.008935221 -0.012423305 -0.07404915 -0.10829873 -0.01767803 0.10901366 0.03421526 0.15110251
-0.13612254 -0.0075861495 0.058803577 0.016332645 -0.13812472 0.09063881 0.029627502 -0.06738288
0.06620888 0.053252373 -0.07425821 0.004505356 -0.048663944 -0.023245908 0.050109167 0.059666216
0.061664414 0.00790922 0.15034972 0.0064877737 -0.10166374 -0.1316866 -0.10276131 0.07547395
-0.08421512 -0.09351878 -0.18056327 -0.083504744 -0.17621796 0.04001328 -0.1566421 -0.035078816
-0.009080124 -0.017030638 0.10343555 0.15299667 0.066650875 0.028424965 -0.12241961 -0.037074644
-0.035753112 0.03235241 0.094473876 -0.00027189753 0.07551509 0.004213668 0.13514072 0.17903593
-0.007208064 0.07539001 -0.08087926 -0.019631071 -0.03465762 -0.0424341 -0.033177085 -0.068492025
-0.07017445 -0.06601846 0.09107958 0.06008628 -0.17226312 0.03017638 -0.00087934005 0.06499764
00000000: 1ed9 42bb 6e4c 8cbb e255 48bb 3a81 1f3e
00000010: c370 7c3d f987 c5bc 5ed1 fb3d f346 343e
00000020: 95b0 923d 7046 e73d af8d 0a3e f8bf 6a3c
00000030: 2e8b 153c 252b 6fbd 63b1 d33d d9ab 72bd
00000040: 976e 3a3e 04a8 efbd 02aa b9bd fc38 483d
00000050: e9bd 233d 01f8 1e3e d7ec 003e 1579 acbc
00000060: 95c8 063e b23a 093e a017 263d 146c c23d
00000070: 0bef ddbd f99e 993d f2eb b13d 88af c7bc
00000080: 6cf9 cdbd 4895 29bd bcfe 89bd 54e7 a23d
00000090: c03c 323c da35 b13c d4ea be3d 1828 c3bd
000000a0: 924b 793d c861 2c3e 0e25 9ebd e151 6bbd
000000b0: b5f6 e63d 31bd 5c3d 00aa a1bc 531c 0e3e
000000c0: b0d5 823d a6d0 c03d 13ee f83d 2ccc 033e
000000d0: 9139 813d 0813 ad3d 12a2 04bd 68fe ec3c
000000e0: 052e e23d f344 3c3d 4870 483d eea5 0bbd
000000f0: d844 0abe 5e7e febd 945a cc3d 574e f53d
00000100: 0160 c83d 6ee3 cc3c d883 893d f99f 81bd
00000110: 6d2d f2bd 26b3 c33d e155 a1bc 61ed 04be
00000120: 0865 123c 1e8b 4bbc 15a7 97bd b9cb ddbd
00000130: 84d1 90bc 8e42 df3d 4d25 0c3d 9eba 1a3e
00000140: b563 0bbe 3c95 f8bb 05dc 703d 0acc 853c
00000150: 9170 0dbe d7a0 b93d 60b5 f23c 0900 8abd
00000160: 8598 873d 291f 5a3d b014 98bd aaa1 933b
00000170: d853 47bd 346e bebc 453f 4d3d 9064 743d
00000180: d393 7c3d ac95 013c 47f5 193e 6497 d43b
00000190: 1435 d0bd dad8 06be 8674 d2bd 1692 9a3d
000001a0: fa78 acbd c686 bfbd 94e5 38be 8904 abbd
000001b0: 7b72 34be f7e4 233d c966 20be ceae 0fbd
000001c0: cdc4 14bc d683 8bbc 05d6 d33d 29ab 1c3e
000001d0: 4180 883d 79db e83c 22b7 fabd 95db 17bd
000001e0: db71 12bd f683 043d 857b c13d 788d 8eb9
000001f0: a8a7 9a3d cf12 8a3b 5462 0a3e 3255 373e
00000200: a031 ecbb 1466 9a3d 07a4 a5bd 57d1 a0bc
00000210: 26f5 0dbd 61cf 2dbd b2e4 07bd 8c45 8cbd
00000220: 9fb7 8fbd b034 87bd ee87 ba3d 081d 763d
00000230: be65 30be 7534 f73c 8383 66ba 7c1d 853d

encoder2.gru.bias_hh_l0 f4 [144]
0.12658578 -0.020083537 -0.023427434 -0.04902287 0.10675057 0.12670825 -0.06522666 -0.09567848
0.08387984 -0.13339351 0.1343011 0.1322817 0.16584976 0.07472093 -0.048557434 0.1419289
0.021060703 0.103306405 -0.06818568 -0.008592865 0.039157156 0.16109224 0.027900806 -0.0027188645
0.04917036 -0.036216803 0.18635574 0.15161173 0.003354123 -0.11039703 0.0076476373 -0.13140692
-0.029188046 -0.10404513 0.18337563 -0.07726503 0.06712248 0.028378963 -0.066756964 0.03696563
0.045364365 0.09491843 0.13180837 -0.036072906 0.010948926 0.0010962265 -0.10741505 0.1111541
-0.021009129 0.12711655 -0.14534459 0.111118145 0.057091177 -0.14369708 0.081204504 0.07651901
-0.07542786 -0.060311455 0.13335817 -0.053165287 -0.03798013 0.04271906 0.050750423 -0.026070846
0.12120717 -0.043362185 0.11430312 -0.037121367 -0.081171565 0.009710282 0.061370324 0.038122885
-0.11265071 -0.007721981 0.0632563 -0.10299888 -0.021812534 -0.07739721 -0.12099173 0.14120667
-0.09821334 -0.14015824 0.11440559 -0.07987535 0.072113015 -0.12698522 -0.07070594 -0.0080260625
-0.09722099 0.09700581 -0.1297871 0.092997365 0.034318533 -0.010419995 -0.008227813 0.01330278
0.03256836 -0.14799657 -0.06087304 -0.13606074 0.031069318 0.012022876 -0.020800564 -0.13224445
-0.15671892 0.00948338 -0.0043965536 0.08959117 -0.17276333 0.085223645 -0.042502042 -0.039023243
-0.08767274 0.1037181 0.035844453 0.13303155 -0.030938247 -0.01830065 0.115065634 -0.08337143
-0.10934609 0.18176998 -0.15302257 -0.06911176 0.06138278 -0.09163224 0.023155339 -0.031581353
0.052147046 0.11719226 0.038689435 -0.022034274 -0.0665254 -0.11752326 -0.067845464 0.08558567
0.17088008 -0.15662764 -0.037270308 0.07215311 -0.013724672 0.045425184 0.11063904 0.089899845
00000000: b49f 013e 3b86 a4bc e4ea bfbc 34cc 48bd
00000010: 0ba0 da3d cfbf 013e 8e95 85bd 14f3 c3bd
00000020: 32c9 ab3d 4f98 08be 3a86 093e db74 073e
00000030: 85d4 293e 4907 993d 29e4 46bd cf55 113e
00000040: 7f87 ac3c 4f92 d33d efa4 8bbd 17c9 0cbc
00000050: 4163 203d 5df5 243e 3b90 e43c fa2e 32bb
00000060: dc66 493d 1258 14bd 0ad4 3e3e 1b40 1b3e
00000070: d9d0 5b3b d717 e2bd 0899 fa3b 898f 06be
00000080: c51b efbc 9d15 d5bd d2c6 3b3e 213d 9ebd
00000090: 8377 893d 007b e83c e0b7 88bd 4669 173d
000000a0: fccf 393d 9864 c23d c6f8 063e 2fc1 13bd
000000b0: 2063 333c 42af 8f3a 6cfc dbbd c3a4 e33d
000000c0: 561b acbc d72a 023e 36d5 14be e991 e33d
000000d0: 70d8 693d 5425 13be 8c4e a63d 00b6 9c3d
000000e0: ec79 9abd 2509 77bd 0b8f 083e d8c3 59bd
000000f0: 0e91 1bbd 2efa 2e3d addf 4f3d 8792 d5bc
00000100: 773b f83d 8c9c 31bd c117 ea3d 930c 18bd
00000110: 473d a6bd e017 1f3c 735f 7b3d be26 1c3d
00000120: 6ab5 e6bd ac08 fdbb 858c 813d 14f1 d2bd
00000130: 33b0 b2bc 6e82 9ebd 83ca f7bd 7b98 103e
00000140: 1324 c9bd a485 0fbe 7a4d ea3d b095 a3bd
00000150: fdaf 933d 6a08 02be 47ce 90bd bf7f 03bc
00000160: cc1b c7bd fbaa c63d e9e6 04be 6775 be3d
00000170: 9791 0c3d a0b8 2abc f3cd 06bc e7f3 593c
00000180: 6766 053d 6a8c 17be 0256 79bd 8253 0bbe
00000190: 1585 fe3c 99fb 443c f265 aabc 176b 07be
000001a0: ed7a 20be 2e60 1b3c f710 90bb 937b b73d
000001b0: dfe8 30be bc89 ae3d 9f16 2ebd d6d6 1fbd
000001c0: c48d b3bd 286a d43d a2d1 123d 6c39 083e
000001d0: 3572 fdbc 3feb 95bc 88a7 eb3d a4be aabd
000001e0: d8f0 dfbd e921 3a3e f3b1 1cbe 778a 8dbd
000001f0: 836c 7b3d afa9 bbbd 44b0 bd3c 735b 01bd
00000200: 2498 553d 7f02 f03d d078 1e3d 3981 b4bc
00000210: 783e 88bd 09b0 f0bd 90f2 8abd 8a47 af3d
00000220: 30fb 2e3e ff62 20be c0a8 18bd 02c5 933d
00000230: 72dd 60bc c20f 3a3d b996 e23d 691d b83d

cvae.fc1.weight f4 [48, 96]
-0.044520166 0.056225922 0.025818372 0.08335846 -0.00408188 0.038662396 0.087973215 0.06499284
0.0033577306 0.042095657 0.09617636 0.09295632 0.09265832 -0.081285335 -0.055650037 0.013353551
-0.061067324 -0.05347352 -0.069533356 0.0209077 -0.11036979 -0.13628313 0.007973428 0.062476
-0.01503796 0.068082914 -0.057504978 -0.0897621 0.08857934 -0.0487741 0.0037307173 -0.09722796
-0.035440043 -0.078971095 0.011128427 0.04446072 0.07990595 0.04820842 -0.051886648 -0.07083957
0.09064223 -0.052911952 0.08346195 0.0070932843 0.016837614 -0.07974762 0.00026849672 0.10040601
0.056683965 -0.094657555 -0.006542402 -0.048375186 -0.11792566 -0.04278895 0.003622939 -0.093060695
0.012760561 0.026199002 -0.07806271 -0.06407051 0.07164139 0.14253846 -0.029754128 -0.02786052
0.07098871 0.062696055 -0.0431543 0.062484313 0.10046795 0.009804202 0.028734406 -0.00060500717
-0.045402758 -0.048064936 -0.010054449 0.0976973 0.022035746 0.11434373 0.0369347 0.09034016
0.013700486 0.011443562 0.10465595 0.058707226 0.017795017 0.027394056 0.08969031 -0.06444092
0.085556656 -0.061972346 0.01938568 0.066835225 -0.0016369261 -0.014068484 0.09435304 0.119373456
0.03310218 0.07184522 0.07892924 -0.0056538885 0.06509754 0.008847994 0.052374776 -0.012865733
-0.013735141 -0.08237587 0.053502053 0.020136386 -0.016760675 0.002327945 -0.07050385 -0.09582647
-0.05518071 0.020269994 0.08211345 -0.059778877 -0.07104068 -0.032720394 -0.0032580786 0.013212714
0.003348231 -0.040081233 -0.08604426 0.04980056 -0.10826202 -0.006448214 0.09374968 0.00856787
0.03645603 -0.024168983 -0.0038576536 0.06852233 -0.023132265 0.057130672 -0.055396322 -0.04682605
-0.050148275 -0.07247092 0.08919219 -0.086055584 -0.053083833 -0.094558686 0.030218285 -0.027147872
-0.062557355 0.048353717 -0.067476965 -0.0897887 -0.028901046 0.07592593 -0.03058175 0.041101914
0.103061534 0.055021908 0.014704651 0.10448953 -0.023759427 -0.10730021 -0.064648636 0.09375667
0.08129685 -0.015536132 -0.009004222 -0.0065969685 0.01911057 -0.07555438 0.0025579615 -0.024625778
-0.06967389 0.068586215 0.059810277 0.0011975548 -0.059610866 -0.02604008 -0.046398573 0.09095457
0.086250335 0.01709821 -0.062476084 0.004741679 -0.076156035 -0.075551756 -0.08372876 0.056916695
-0.027295176 -0.02399999 0.05853421 -0.036555823 0.036105502 -0.040813666 0.05033136 -0.012860883
0.07031106 -0.067909375 0.009504343 -0.043735698 0.012038141 -0.11470261 0.054498777 0.040565368
-0.0089458125 -0.06113866 0.13789152 0.030375674 -0.023684148 -0.006579173 -0.014639267 0.0037571755
-0.031018037 0.005614889 0.02951549 0.037340287 0.0011171915 -0.108676225 0.09188545 -0.034351006
-0.0039802673 -0.079470314 0.0387946 -0.038129125 -0.049507305 0.024712972 0.031360656 0.0035541903
-0.046780862 -0.004984572 0.0021628316 0.11156244 0.01995601 0.0022515114 -0.015487408 -0.0062157107
-0.10052548 0.0158328 -0.009637015 -0.06691819 0.0406304 0.00949282 0.11254545 -0.032981504
0.056550235 -0.081893936 0.095815346 -0.14899844 0.020853523 -0.07256622 -0.13700165 0.06289557
0.03781673 -0.0051031825 -0.13526992 -0.007306314 0.018183464 0.09465709 -0.0002465409 -0.0041021733
00000000: c75a 36bd 274d 663d 0d81 d33c d7b7 aa3d
00000010: 4bc1 85bb 765c 1e3d 4d2b b43d f71a 853d
00000020: 5f0d 5c3b 7f6c 2c3d 1df8 c43d e25f be3d
00000030: a5c3 bd3d ed78 a6bd 4bf1 63bd dac8 5a3c
00000040: bb21 7abd 0d07 5bbd 8167 8ebd a046 ab3c
00000050: 8e09 e2bd ce8d 0bbe fba2 023c d6e6 7f3d
00000060: c761 76bc 0e6f 8b3d 578a 6bbd 31d5 b7bd
00000070: 1669 b53d 5ac7 47bd 0d7f 743b 741f c7bd
00000080: 9429 11bd 99bb a1bd 0254 363c 721c 363d
00000090: bba5 a33d 3176 453d 1887 54bd 5614 91bd
000000a0: a2a2 b93d 34ba 58bd 19ee aa3d c86e e83b
000000b0: 09ef 893c b852 a3bd 05c5 8c39 aba1 cd3d
000000c0: 722d 683d d2db c1bd a561 d6bb 0f25 46bd
000000d0: 0283 f1bd 7743 2fbd d56e 6d3b 9b96 bebd
000000e0: ac11 513c 4a9f d63c 58df 9fbd 6637 83bd
000000f0: b9b8 923d 9af5 113e eebe f3bc bf3b e4bc
00000100: 8762 913d ca66 803d 90c2 30bd 8def 7f3d
00000110: 24c2 cd3d cea1 203c 6b64 eb3c 5899 1eba
00000120: 3ef8 39bd bddf 44bd 6abb 24bc 8615 c83d
00000130: 4f84 b43c 0c2d ea3d d748 173d 4304 b93d
00000140: 0178 603c c77d 3b3c dc55 d63d fd76 703d
00000150: dbc6 913c 8069 e03c 8eaf b73d 9af9 83bd
00000160: 5438 af3d b7d6 7dbd b8ce 9e3c e8e0 883d
00000170: 208e d6ba 807f 66bc 2b3c c13d 127a f43d
00000180: 2796 073d 9623 933d a7a5 a13d 4144 b9bb
00000190: dc51 853d 2df7 103c ef86 563d ccca 52bc
000001a0: 5b09 61bc aeb4 a8bd f824 5b3d 10f5 a43c
000001b0: af4d 89bc 7090 183b 5364 90bd ab40 c4bd
000001c0: 2b05 62bd 420d a63c 192b a83d b2da 74bd
000001d0: c77d 91bd d205 06bd 7d85 55bb 247a 583c
000001e0: ff6d 5b3b 382c 24bd f937 b0bd acfb 4b3d
000001f0: 7ab8 ddbd 8a4b d3bb d5ff bf3d 4060 0c3c
00000200: eb52 153d 08fe c5bc b0d0 7cbb 6f55 8c3d
00000210: e07f bdbc da01 6a3d 41e7 62bd accc 3fbd
00000220: 4768 4dbd a26b 94bd 65aa b63d e93d b0bd
00000230: 6f6e 59bd fca7 c1bd 568c f73c 3765 debc
00000240: 121e 80bd 8c0e 463d 5d31 8abd 23e3 b7bd
00000250: e3c1 ecbc 0e7f 9b3d 9486 fabc 7b5a 283d
00000260: ed11 d33d a75e 613d c7eb 703c 9bfe d53d
00000270: 21a3 c2bc 36c0 dbbd 8166 84bd 7f03 c03d
00000280: f77e a63d 438b 7ebc 7286 13bc 622b d8bb
00000290: c58d 9c3c 41bc 9abd 79a3 273b 00bc c9bc
000002a0: 2fb1 8ebd ee76 8c3d 9ffb 743d 45f7 9c3a
000002b0: 862a 74bd 0152 d5bc 6e0c 3ebd 6446 ba3d
000002c0: 04a4 b03d 8c11 8c3c ece6 7fbd 1660 9b3b
000002d0: b2f7 9bbd e1ba 9abd fc79 abbd 7b21 693d
000002e0: 229a dfbc a19b c4bc 91c1 6f3d 8fbb 15bd
000002f0: 5de3 133d 3b2c 27bd 4228 4e3d 74b6 52bc
00000300: 3fff 8f3d 1214 8bbd 1bb8 1b3c 3424 33bd
00000310: 9f3b 453c 34e9 eabd 1c3a 5f3d df27 263d
00000320: 7591 12bc 886c 7abd 6f33 0d3e 68d6 f83c
00000330: 4205 c2bc 1a96 d7bb 89d9 6fbc f23a 763b
00000340: 8a19 febc 1afd b73b 78ca f13c 21f2 183d
00000350: ba6e 923a a491 debd 702e bc3d a4b3 0cbd
00000360: e76c 82bb 55c1 a2bd 16e7 1e3d 492d 1cbd
00000370: 2cc8 4abd dc72 ca3c 0874 003d 6bed 683b
00000380: 4a9d 3fbd 9f55 a3bb 4bbe 0d3b d97a e43d
00000390: c97a a33c 188e 133b e6be 7dbc 29ad cbbb
000003a0: 4ee0 cdbd cab3 813c 92e4 1dbc 670c 89bd
000003b0: 106c 263d c687 1b3c 3b7e e63d 9d17 07bd
000003c0: 38a1 673d 02b8 a7bd d63a c43d 0c93 18be
000003d0: 02d5 aa3c 999d 94bd 294a 0cbe 65cf 803d
000003e0: b7e5 1a3d 9938 a7bb 3384 0abe ce69 efbb
000003f0: 7df5 943c 94db c13d 2942 81b9 866b 86bb
